result/low_level/ETHUSDT/slope.C51/4.0/label_2/seed_12345/best_model.pkl (torch, 659234 bytes, 24 tensors)

support f4 [51]
-10.0 -9.6 -9.2 -8.8 -8.4 -8.0 -7.6 -7.2
-6.8 -6.4 -6.0 -5.6 -5.2 -4.7999997 -4.4 -4.0
-3.6 -3.1999998 -2.8 -2.3999999 -1.9999999 -1.5999999 -1.1999998 -0.79999983
-0.39999986 -1.4901161e-07 0.39999986 0.79999983 1.1999998 1.5999999 1.9999999 2.3999999
2.8 3.1999998 3.6 4.0 4.4 4.7999997 5.2 5.6
6.0 6.4 6.8 7.2 7.6 8.0 8.4 8.8
9.2 9.6 10.0
00000000: 0000 20c1 9a99 19c1 3333 13c1 cdcc 0cc1
00000010: 6666 06c1 0000 00c1 3333 f3c0 6666 e6c0
00000020: 9a99 d9c0 cdcc ccc0 0000 c0c0 3333 b3c0
00000030: 6666 a6c0 9999 99c0 cdcc 8cc0 0000 80c0
00000040: 6666 66c0 cccc 4cc0 3333 33c0 9999 19c0
00000050: ffff ffbf cccc ccbf 9899 99bf cacc 4cbf
00000060: c8cc ccbe 0000 20b4 c8cc cc3e cacc 4c3f
00000070: 9899 993f cccc cc3f ffff ff3f 9999 1940
00000080: 3333 3340 cccc 4c40 6666 6640 0000 8040
00000090: cdcc 8c40 9999 9940 6666 a640 3333 b340
000000a0: 0000 c040 cdcc cc40 9a99 d940 6666 e640
000000b0: 3333 f340 0000 0041 6666 0641 cdcc 0c41
000000c0: 3333 1341 9a99 1941 0000 2041

fc1.weight f4 [64, 36]
0.064086206 0.27004704 0.062299784 -0.14948481 -0.2631466 -0.16412409 0.17641996 -0.09280437
-0.018311467 -0.21386966 -0.022890983 0.045285545 0.07674221 -0.5482687 -0.73914313 -0.6038214
-0.04329897 0.004664651 -0.29828322 0.5234377 -0.036072746 -0.012407559 -0.04868585 0.20142105
-0.02920099 0.13695928 0.0044690655 -0.09804798 0.054055408 0.12303268 0.13343942 0.22963376
-0.019087108 -0.19702175 -0.14640847 -0.10771744 0.10497981 0.04286771 -0.4292294 -0.2827829
-0.38926893 -0.30008563 0.43571648 -0.19445436 -0.3367434 -0.69439423 -0.6891722 -0.047661528
-0.1654254 -0.8691792 -0.92349017 -1.1411623 -0.08287896 -0.01616472 -0.2978984 0.7757975
0.0137383295 0.059851024 0.040026132 -0.17835723 0.08134282 -0.031825542 0.08809543 0.23312463
-1.0008172 0.06716666 -0.65235204 -0.57225585 -0.2853339 -0.24723585 0.264657 0.27740648
0.08928573 0.0010161713 -0.8956361 -0.6755704 -1.0142308 -0.6735553 -0.14371632 -0.97827923
-1.0962822 -0.99563843 -1.229094 -0.05056478 0.034967814 0.11705224 0.024738975 -0.16356854
-0.08761834 -0.067922376 0.3435075 -0.22206268 0.03904573 0.03273839 -0.056746922 -0.018409623
-0.044025257 -0.074314296 -0.061800472 -0.1542567 -0.53106433 -0.19140099 -0.10727918 -0.771261
0.09877427 -0.5875976 -0.0877516 -0.0054463637 -0.119616546 -0.059974477 -0.048178084 -0.23226354
-0.24078256 -0.14853384 -0.09185766 -0.0010990037 -0.058402896 -0.30670154 -0.48643523 -0.13699575
-0.25145286 -0.11704369 -0.109555505 -0.10903123 0.003651436 0.22255337 -0.16551131 -0.1658039
-0.032101613 0.014402971 -0.02485365 0.053877052 0.20012625 0.29197773 0.24345417 0.32326996
0.14434104 0.44960752 0.29861373 0.4339461 0.080589384 0.34383878 0.23515084 0.2666155
-0.056729563 -0.06488474 -0.09100389 -0.36177897 -0.51409733 -0.39178652 -0.23431206 -0.8683443
-0.39761788 -0.34456685 0.0055177063 0.059388638 0.10000788 -0.14109936 -0.16648576 -0.29196778
-0.023994925 0.03807144 0.4567246 -0.35931504 0.06782417 0.09533685 -0.11069567 -0.18729559
-0.2699671 -0.20943832 -0.07301653 -0.22563434 -0.5869407 0.1369992 -0.31410354 -0.44503394
-0.22226995 -0.19414678 -0.16229215 0.118644804 0.02377728 0.25803798 -0.408937 -0.5822489
-0.44102985 -0.35664096 0.14702153 -0.044811834 -0.22292365 -0.49597934 -0.4920078 -0.22798353
-0.24547449 -1.0367668 -1.3695855 -1.2719505 0.028815404 0.07846717 -0.20481795 0.7040752
-0.080452666 -0.06078568 -0.0846527 -0.064822905 -0.043433867 -0.13094981 -0.1906799 0.031864546
-0.9375711 0.09381541 -0.43020868 -0.5512462 -0.46210596 -0.5565324 -0.04170653 -0.18385884
0.04085695 -0.14320785 -0.03149012 -0.62937707 -0.6756609 -0.40026644 -0.24868634 -0.41379845
-0.73173857 -0.58058774 -0.75597405 -0.10695019 -0.046363354 -0.57590526 -0.5735408 -0.4207139
0.14044668 -0.13273157 0.49475172 0.04725528 0.02475163 -0.0148213925 -0.050859243 0.037752073
-0.096988946 0.15510818 -0.13568832 -0.18219513 -0.2022239 -0.13313873 -0.18891035 -0.1338841
-0.1042722 -0.35105282 -0.18307324 -0.1081491 -0.049346823 0.50803804 -0.117170915 -0.7785521
00000000: a13f 833d 9b43 8a3e 0f2e 7f3d 8c12 19be
00000010: 27bb 86be 2510 28be 6fa7 343e 3810 bebd
00000020: ee01 96bc a600 5bbe df85 bbbc 567d 393d
00000030: 052b 9d3d 565b 0cbf 7c38 3dbf 0a94 1abf
00000040: 435a 31bd eed9 983b 94b8 98be 0300 063f
00000050: 04c1 13bd 1349 4bbc d06a 47bd 5241 4e3e
00000060: ea36 efbc 0e3f 0c3e 3d71 923b 61cd c8bd
00000070: 3469 5d3d 8ff8 fb3d 58a4 083e 1d25 6b3e
00000080: 915c 9cbc 12c0 49be 1aec 15be f69a dcbd
00000090: a8ff d63d 0d96 2f3d f5c3 dbbe ecc8 90be
000000a0: 424e c7be d3a4 99be 3b16 df3e 0b1f 47be
000000b0: a269 acbe d2c3 31bf 976d 30bf bc38 43bd
000000c0: 4765 29be 8782 5ebf da69 6cbf 9b11 92bf
000000d0: 72bc a9bd e06b 84bc 2486 98be aa9a 463f
000000e0: bb16 613c 5926 753d 71f2 233d 47a3 36be
000000f0: 1097 a63d 805b 02bd 606b b43d 39b8 6e3e
00000100: c71a 80bf ad8e 893d 8b00 27bf 5c7f 12bf
00000110: 4917 92be 652b 7dbe 1f81 873e 3908 8e3e
00000120: 70db b63d 0d31 853a 6848 65bf 2ff2 2cbf
00000130: 51d2 81bf 1f6e 2cbf 5f2a 13be 8270 7abf
00000140: fa52 8cbf 29e2 7ebf f452 9dbf 041d 4fbd
00000150: 693a 0f3d 16b9 ef3d 64a9 ca3c 837e 27be
00000160: 3f71 b3bd e31a 8bbd 37e0 af3e 6664 63be
00000170: 6aee 1f3d b118 063d 766f 68bd c7cf 96bc
00000180: d453 34bd 1832 98bd 7e22 7dbd 78f5 1dbe
00000190: d5f3 07bf 9ffe 43be 30b5 dbbd 5c71 45bf
000001a0: 2a4a ca3d cc6c 16bf 1cb7 b3bd 6977 b2bb
000001b0: 85f9 f4bd cca7 75bd 6256 45bd 7ed6 6dbe
000001c0: b48f 76be 4119 18be de1f bcbd 720c 90ba
000001d0: e037 6fbd fc07 9dbe 0a0e f9be 9d48 0cbe
000001e0: 6ebe 80be 9ab4 efbd a35e e0bd c44b dfbd
000001f0: ee4c 6f3b 08e5 633e cc7b 29be 7fc8 29be
00000200: fb7c 03bd 70fa 6b3c e299 cbbc 2fae 5c3d
00000210: e5ed 4c3e 1b7e 953e 0d4c 793e a483 a53e
00000220: 23ce 133e f532 e63e e6e3 983e 2f2e de3e
00000230: 0c0c a53d a30b b03e 62cb 703e d481 883e
00000240: 425d 68bd 4ae2 84bd 3f60 babd 183b b9be
00000250: e29b 03bf 3e98 c8be 80ef 6fbe d04b 5ebf
00000260: 9294 cbbe 116b b0be e0cd b43b 8041 733d
00000270: eed0 cc3d 5a7c 10be 3e7b 2abe cd7c 95be
00000280: 0191 c4bc ccf0 1b3d cfd7 e93e 24f8 b7be
00000290: 66e7 8a3d f73f c33d 69b4 e2bd 6aca 3fbe
000002a0: 2139 8abe 0077 56be b189 95bd b00c 67be
000002b0: bf41 16bf 8549 0c3e 2ed2 a0be 7ddb e3be
000002c0: bc9a 63be 6ace 46be ea2f 26be 0cfc f23d
000002d0: 92c8 c23c 8e1d 843e 3160 d1be 440e 15bf
000002e0: aace e1be a599 b6be d08c 163e 9d8c 37bd
000002f0: 1946 64be 01f1 fdbe 72e8 fbbe 8474 69be
00000300: aa5d 7bbe c6b4 84bf 944e afbf 46cf a2bf
00000310: 480e ec3c 65b3 a03d ccbb 51be 463e 343f
00000320: 5ec4 a4bd 68fa 78bd 655e adbd dfc1 84bd
00000330: b6e7 31bd b517 06be 9741 43be 6684 023d
00000340: a904 70bf 4b22 c03d 5044 dcbe 791e 0dbf
00000350: 2799 ecbe e878 0ebf 77d4 2abd 7e45 3cbe
00000360: 9e59 273d 14a5 12be c9fb 00bd db1e 21bf
00000370: 1df8 2cbf b9ef ccbe a2a7 7ebe 64dd d3be
00000380: 3853 3bbf 66a1 14bf 8487 41bf b408 dbbd
00000390: 80e7 3dbd 876e 13bf 92d3 12bf d067 d7be
000003a0: 41d1 0f3e c9ea 07be 1950 fd3e c18e 413d
000003b0: eec3 ca3c 6dd5 72bc c851 50bd eba1 1a3d
000003c0: 24a2 c6bd aed4 1e3e e1f1 0abe 5c91 3abe
000003d0: c813 4fbe 8555 08be b771 41be ea18 09be
000003e0: aa8c d5bd 32bd b3be 8d77 3bbe 467d ddbd
000003f0: e51f 4abd c80e 023f 4ef7 efbd 314f 47bf

fc1.bias f4 [64]
0.08431217 -0.124423176 -0.6150613 -0.17803249 -0.27166197 0.08912494 -0.39876232 -0.28305283
-0.41550878 -0.019714821 0.050649956 -0.078619495 -0.5377093 -0.06591664 -0.19358939 0.4242108
-0.1994836 0.53820956 -0.1261037 -0.76364577 -0.6622396 0.29296046 0.1227627 0.499896
0.0046804957 -0.3607045 0.26330087 0.22393265 -0.071263485 -0.7675943 0.8557804 0.7556815
-0.34609708 -0.22063492 0.12602513 0.43196777 -0.02920055 -0.23983607 -0.6305049 -0.3299734
-0.8310265 0.39485866 0.53587645 -0.60839874 -0.18546206 0.23867604 0.29854104 -0.048980832
0.0217711 -0.7040302 0.30074006 0.76398003 0.021882078 -0.08439328 0.27579513 -0.33162305
-0.46282765 0.24960797 -0.037366956 0.06588114 -0.057760064 0.5397479 0.19202074 -0.088198856
00000000: dcab ac3d 94d1 febd a874 1dbf 264e 36be
00000010: 4717 8bbe 2387 b63d 932a ccbe 4dec 90be
00000020: 91bd d4be fa80 a1bc 5476 4f3d 4203 a1bd
00000030: 51a7 09bf 4eff 86bd 4c3c 46be 2832 d93e
00000040: 6e45 4cbe 1ac8 093f 5421 01be 4a7e 43bf
00000050: 8988 29bf eafe 953e 036b fb3d 5ef2 ff3e
00000060: d85e 993b 43ae b8be 5fcf 863e 9a4e 653e
00000070: 97f2 91bd 0f81 44bf 6d14 5b3f 5874 413f
00000080: a333 b1be 1fee 61be bb0c 013e e12a dd3e
00000090: fe35 efbc 9697 75be c568 21bf 46f2 a8be
000000a0: 27be 54bf ea2a ca3e 332f 093f 05c0 1bbf
000000b0: c4e9 3dbe 7e67 743e 5fda 983e 20a0 48bd
000000c0: 4e59 b23c 533b 34bf 9afa 993e 3294 433f
000000d0: 0b42 b33c 62d6 acbd 0535 8d3e 7fca a9be
000000e0: bff7 ecbe 3b99 7f3e 180e 19bd b1ec 863d
000000f0: d195 6cbd eb2c 0a3f 16a1 443e 9aa1 b4bd

fc2.weight f4 [64, 9]
-0.18023111 0.06420645 0.15522535 -0.10218618 -0.33039072 -0.35639462 0.034725733 -0.053089313
0.30012587 -0.1464145 -0.1904788 0.13211165 0.30795574 0.07607513 -0.10198143 -0.14352886
-0.13125567 0.18656847 -0.04993862 0.1706915 -0.60793257 -0.07073881 0.24220705 0.07493188
0.028987667 -0.011921066 0.381221 0.08610614 0.14866266 -0.780601 -0.2598712 -0.28171673
0.019221699 0.24937913 0.09258903 0.3746373 -0.25121853 0.34501094 0.83835495 0.8888487
0.22734316 -0.27454403 0.30777332 -0.12747306 -0.37429264 0.16273302 -0.38197604 0.6720041
0.5815922 -0.22762819 -0.30918172 0.08005456 0.21401444 -0.54500115 -0.12706695 0.19620968
0.64260423 0.15317382 0.0041846335 -0.16249457 0.118832834 -0.32318977 0.021739816 0.1749695
-0.072404206 0.42144325 0.16603169 -0.26696807 -0.40987563 -0.21652693 0.4330114 -0.18443379
0.30742216 0.4180909 -0.2457664 -0.5729399 0.014721356 0.33736724 0.39026752 0.31287062
0.29130235 0.08901627 0.08581975 0.3840644 -0.18018004 -0.2725928 0.15477246 -0.100399435
0.28936756 -0.16112635 -0.2568746 -0.36292848 0.025779597 -0.48680127 -0.3004986 -0.11067064
0.23852406 -0.0007580311 -0.06088131 -0.18107669 -0.30114377 0.09021181 0.64028764 -0.009754867
0.11772253 0.18865252 -0.36061186 0.4047915 -0.19219099 -0.28348014 0.95578897 0.9671726
0.12827367 0.03472873 -0.21260886 0.26414585 -0.52750605 -0.28762028 0.31458926 -0.22612561
-0.80178624 -0.20012274 0.004217128 0.19153455 -0.15490344 0.1854073 -0.20405722 -0.21869041
-1.0890737 -0.67717904 -0.06647639 -0.055926383 -0.19995058 -0.13535959 0.00273909 -0.15366791
-0.030054882 -0.6174231 -0.34697148 0.20383163 0.047041073 -0.36139116 0.108968265 0.3319093
0.13902093 -0.1641027 0.16934459 0.1485808 0.11849197 -0.15375184 0.023273706 -0.34362492
-0.5088176 0.36287335 0.4596883 0.13410635 0.15305297 0.32079354 0.5124373 -0.26885682
-0.24488151 -0.23547865 -0.25925878 0.019401008 -0.7042946 -0.9137063 0.11350179 0.28659257
-0.46182942 0.5313322 -0.1911685 -0.18013832 0.37582713 0.31302935 0.21629117 0.16573319
0.12154238 0.27130184 -0.39065388 0.26751655 0.010533907 0.41280583 0.48998117 0.32299626
0.36896303 0.036130447 -0.10862064 0.075999 -0.19903354 -0.18308675 0.1619606 -1.0841454
-0.52645856 0.11235495 -0.13363028 0.097531796 -0.10056328 0.40870965 0.23743124 -0.34483868
-0.96456367 -0.4953929 0.28343838 0.07279337 -0.38794792 0.5351903 -0.35622147 0.27916968
0.13937293 -0.20641583 -0.10073536 -0.20928775 0.17834257 0.48845142 -0.4213608 0.15015683
-0.1697512 0.19087873 0.3866262 0.34132242 0.33328828 0.038092896 0.1479191 0.2555759
0.048891783 -0.042235866 0.12628423 -0.5544396 -0.74035126 0.15456995 -0.07087335 0.32303458
0.110289685 -0.3819169 0.109705746 -0.35962477 0.649944 0.32724124 -0.17808014 -0.07436452
0.041422155 -0.13723353 -0.2570282 0.3235139 -0.04413538 -0.11842846 -0.695588 0.1379927
-0.12809506 0.34000278 -0.2162782 -0.20048448 0.3164697 0.35271645 -0.12975113 -0.007070829
00000000: 818e 38be ac7e 833d 65f3 1e3e fd46 d1bd
00000010: f928 a9be 5b79 b6be 923c 0e3d 2e74 59bd
00000020: 19aa 993e afed 15be e00c 43be 4748 073e
00000030: 60ac 9d3e 47cd 9b3d a4db d0bd 3bf9 12be
00000040: e367 06be ce0b 3f3e 708c 4cbd c1c9 2e3e
00000050: 78a1 1bbf 82df 90bd 2005 783e e375 993d
00000060: 8b77 ed3c 9350 43bc 662f c33e 6a58 b03d
00000070: 063b 183e 78d5 47bf d70d 85be 2d3d 90be
00000080: d376 9d3c 3e5d 7f3e 519f bd3d 76d0 bf3e
00000090: b79f 80be 46a5 b03e 6e9e 563f 978b 633f
000000a0: a5cc 683e 0991 8cbe 7794 9d3e 4c88 02be
000000b0: 49a3 bfbe 7ca3 263e 5d92 c3be 7608 2c3f
000000c0: 3ae3 143f 5d17 69be 114d 9ebe a5f3 a33d
000000d0: 9a26 5b3e 3285 0bbf d71d 02be 31eb 483e
000000e0: b681 243f 99d9 1c3e 401f 893b fa64 26be
000000f0: a15e f33d 2179 a5be b317 b23c 342b 333e
00000100: a848 94bd 69c7 d73e 3604 2a3e 0ab0 88be
00000110: 38db d1be 3cb9 5dbe acb3 dd3e 36dc 3cbe
00000120: 7066 9d3e 0310 d63e 30aa 7bbe 30ac 12bf
00000130: d831 713c 66bb ac3e 25d1 c73e 9430 a03e
00000140: 9525 953e 2a4e b63d 44c2 af3d 17a4 c43e
00000150: 1e81 38be 4991 8bbe ac7c 1e3e 389e cdbd
00000160: fc27 943e 4efe 24be 1185 83be c3d1 b9be
00000170: bc2f d33c 043e f9be f4da 99be 4aa7 e2bd
00000180: a73f 743e 9bb6 46ba ae5e 79bd 2b6c 39be
00000190: 842f 9abe f8c0 b83d e4e9 233f e1d2 1fbc
000001a0: 8318 f13d 202e 413e 1ea2 b8be d540 cf3e
000001b0: b7cd 44be 4f24 91be 96ae 743f a098 773f
000001c0: 2c5a 033e b63f 0e3d 23b6 59be 203e 873e
000001d0: a30a 07bf f742 93be d811 a13e 798d 67be
000001e0: dd41 4dbf faec 4cbe d52f 8a3b a221 443e
000001f0: 029f 1ebe 69db 3d3e 60f4 50be 61f0 5fbe
00000200: c466 8bbf 9b5b 2dbf c624 88bd 1013 65bd
00000210: d8bf 4cbe b49b 0abe 4e82 333b 1f5b 1dbe
00000220: a835 f6bc 710f 1ebf 3fa6 b1be 3db9 503e
00000230: 24ae 403d 4308 b9be c12a df3d 04f0 a93e
00000240: 815b 0e3e 8a0a 28be ab68 2d3e 9125 183e
00000250: ebab f23d 1f71 1dbe 80a8 be3c 9bef afbe
00000260: df41 02bf 89ca b93e 445c eb3e 2d53 093e
00000270: ebb9 1c3e 0d3f a43e 172f 033f 9aa7 89be
00000280: 38c2 7abe 5121 71be 91bd 84be ddee 9e3c
00000290: a74c 34bf a8e8 69bf a073 e83d 43bc 923e
000002a0: e874 ecbe 6305 083f adc1 43be 2e76 38be
000002b0: 6a6c c03e 6245 a03e 6f7b 5d3e f6b5 293e
000002c0: 36eb f83d 13e8 8a3e c903 c8be eef7 883e
000002d0: 6996 2c3c 495b d33e d0de fa3e c45f a53e
000002e0: b9e8 bc3e 85fd 133d 8074 debd 5da5 9b3d
000002f0: 73cf 4bbe 187b 3bbe 00d9 253e 47c5 8abf
00000300: fdc5 06bf 5a1a e63d 60d6 08be c0be c73d
00000310: 1ff4 cdbd 6442 d13e 2d21 733e b28e b0be
00000320: a5ed 76bf 23a4 fdbe d61e 913e b114 953d
00000330: 1ca1 c6be 3b02 093f a962 b6be 54ef 8e3e
00000340: c7b7 0e3e ac5e 53be 574e cebd 874f 56be
00000350: 6f9f 363e 4e16 fa3e 9abc d7be b6c2 193e
00000360: 42d3 2dbe b775 433e dff3 c53e d0c1 ae3e
00000370: c3a4 aa3e 4c07 1c3d 1b78 173e d8da 823e
00000380: c042 483d 84ff 2cbd a750 013e c1ef 0dbf
00000390: a987 3dbf 9647 1e3e 0c26 91bd ca64 a53e
000003a0: 8fdf e13d 9d8a c3be 68ad e03d bd20 b8be
000003b0: bb62 263f 2a8c a73e a45a 36be 6d4c 98bd
000003c0: 47aa 293d f286 0cbe 3399 83be 9da3 a53e
000003d0: 4dc7 34bd 9f8a f2bd 0e12 32bf f54d 0d3e
000003e0: 5a2b 03be d814 ae3e 0878 5dbe ce4b 4dbe
000003f0: 5108 a23e 4097 b43e 7bdd 04be 6ab2 e7bb

fc2.bias f4 [64]
0.24259517 0.38138992 -0.16325143 0.2858056 0.23443331 0.28287748 -0.11921675 0.3802728
0.112358995 -0.12903515 0.14561272 -0.08608026 0.30745238 -0.1770062 0.21046096 0.3045702
0.039645746 0.148443 -0.067737475 0.052214086 0.16606781 0.37290362 -0.09013911 0.4051182
-0.08279366 0.24913459 0.17127973 0.096309416 0.17032276 -0.005081165 0.4678274 -0.22577427
0.39530572 0.37259564 -0.24638015 -0.019486535 -0.12449395 0.29226008 0.117448136 0.28101617
0.31721303 -0.03140785 0.29931676 0.34079197 0.1274731 0.2290302 0.39267755 -0.12762731
-0.048603904 -0.228982 0.34301934 -0.18648997 0.31038693 -0.14870097 -0.016452197 0.21885727
0.37685823 -0.0017601503 0.032191418 0.37449738 0.26754308 0.11992396 -0.20332493 -0.044309568
00000000: de6a 783e 8a45 c33e 622b 27be 1d55 923e
00000010: 490f 703e 51d5 903e e927 f4bd 1eb3 c23e
00000020: 791c e63d ca21 04be 801b 153e d94a b0bd
00000030: 666a 9d3e 1d41 35be 1483 573e a0f0 9b3e
00000040: 9463 223d 7101 183e f2b9 8abd 70de 553d
00000050: ae0d 2a3e 39ed be3e db9a b8bd a76b cf3e
00000060: b98f a9bd 231d 7f3e f463 2f3e df3d c53d
00000070: 1769 2e3e e77f a6bb 1387 ef3e 5f31 67be
00000080: 8365 ca3e dbc4 be3e 144b 7cbe 3aa2 9fbc
00000090: aff6 febd 1da3 953e a688 f03d 5ae1 8f3e
000000a0: bf69 a23e 85a5 00bd 0c40 993e 497c ae3e
000000b0: 4f88 023e e586 6a3e 080d c93e bcb0 02be
000000c0: e314 47bd 427a 6abe 3ba0 af3e 3af7 3ebe
000000d0: 09eb 9e3e 1145 18be c2c6 86bc 1f1c 603e
000000e0: 90f3 c03e d8b4 e6ba 26db 033d 1fbe bf3e
000000f0: 68fb 883e b19a f53d 6934 50be f37d 35bd

embedding.weight f4 [2, 64]
-0.8809493 -1.3613632 2.351769 1.4384625 1.2983111 -0.66278374 1.3685725 -0.042163912
-0.47201225 -2.6906085 -0.09950399 0.6591756 0.7120278 1.0758183 2.4336727 -1.2764646
-0.8268939 -0.5209994 1.3387208 -0.6092721 -1.2025089 0.60549074 0.49813536 -0.8587149
1.6216866 1.2275687 -0.6406284 -0.35361138 -0.113403745 1.2191001 0.16671011 0.59575427
-0.21040384 -0.6332085 1.9919537 -1.1837127 -2.1041403 1.4039553 -2.038224 0.10221164
-1.8633195 -1.201591 0.8570679 0.19606066 -0.49756935 -0.14244892 1.1027615 0.49379614
-0.41138858 0.48930082 -1.6316912 0.42997518 -1.8917298 -1.2202938 1.2850233 0.3077758
0.5101117 -1.4201723 -0.79911655 -0.0023671528 -0.17284545 -2.3856661 -2.1076307 1.6255237
-0.513701 1.1191747 -1.1105498 -1.4211862 -0.74005306 -0.60487777 0.97741526 -0.9681907
-0.15179053 0.8377507 -2.4128602 -1.9728434 0.59938574 1.3619841 -0.060863763 -0.24847737
0.10541453 -0.24814957 0.7781215 -1.5764377 -0.2216883 -0.6443513 0.78763986 1.1932395
-0.0032505568 1.7198843 -0.2612784 -0.26513952 -0.06508323 1.937614 1.8141862 0.2699653
0.08873226 -1.7244059 0.75288016 0.4811839 0.21851647 0.29888198 -0.31180802 0.50200677
-0.3988987 0.9088962 1.4018009 1.0743604 1.5527998 0.47522786 1.2884724 0.79209566
-1.6500998 -0.3835478 2.1864445 -2.5608952 -1.7081635 1.8443906 -0.24565178 0.5255212
0.973049 0.6922598 -0.6249801 -0.3763322 -1.2873976 -0.9820996 1.6584915 0.13602476
00000000: e585 61bf 2641 aebf 6283 1640 8a1f b83f
00000010: 0f2f a63f 32ac 29bf 622d af3f 11b4 2cbd
00000020: 97ab f1be ee32 2cc0 bfc8 cbbd bbbf 283f
00000030: 7447 363f 6ab4 893f 4bc1 1b40 3163 a3bf
00000040: 52af 53bf 3760 05bf 345b ab3f 42f9 1bbf
00000050: d0eb 99bf 7101 1b3f 990b ff3e bdd4 5bbf
00000060: 6d93 cf3f f920 9d3f 3900 24bf 8d0c b5be
00000070: 3940 e8bd 790b 9c3f 0eb6 2a3e 5a83 183f
00000080: 1b74 57be f419 22bf 57f8 fe3f e683 97bf
00000090: 3caa 06c0 cfb4 b33f 4372 02c0 5654 d13d
000000a0: 4181 eebf bccd 99bf cd68 5b3f 20c4 483e
000000b0: 69c1 febe 21de 11be 4a27 8d3f d9d2 fc3e
000000c0: 86a1 d2be a385 fa3e 42db d0bf b525 dc3e
000000d0: 3424 f2bf 9632 9cbf a57b a43f ca94 9d3e
000000e0: ae96 023f 35c8 b5bf e792 4cbf 3c22 1bbb
000000f0: 66fe 30be c1ae 18c0 6ce3 06c0 2911 d03f
00000100: e981 03bf 1e41 8f3f 7f26 8ebf 6ee9 b5bf
00000110: 1e74 3dbf 45d9 1abf e337 7a3f 59db 77bf
00000120: fa6e 1bbe d476 563f 4d6c 1ac0 2286 fcbf
00000130: 5871 193f 7f55 ae3f 484c 79bd da70 7ebe
00000140: 93e3 d73d ec1a 7ebe f832 473f b6c8 c9bf
00000150: 4202 63be 35f4 24bf c4a2 493f 12bc 983f
00000160: 4b07 55bb 2b25 dc3f 48c6 85be 5ec0 87be
00000170: 5b4a 85bd bc03 f83f 4137 e83f e438 8a3e
00000180: 42b9 b53d 55b9 dcbf c1bc 403f bc5d f63e
00000190: c8c2 5f3e 0f07 993e 4da5 9fbe 8483 003f
000001a0: 733c ccbe 6cad 683f 366e b33f a484 893f
000001b0: 25c2 c63f 1151 f33e aaec a43f c8c6 4a3f
000001c0: 7836 d3bf 6160 c4be b5ee 0b40 b5e5 23c0
000001d0: 1aa5 dabf fe14 ec3f 248c 7bbe 8f88 063f
000001e0: bd19 793f f037 313f b2fe 1fbf 9dae c0be
000001f0: 72c9 a4bf e16a 7bbf 7349 d43f 134a 0b3e

adaLN_modulation.1.weight f4 [128, 64]
0.14967984 0.1061021 -0.07491631 0.011164907 -0.08093595 0.08383154 0.079842016 0.117077194
0.04719783 -0.07343625 0.16246124 0.14701515 -0.03879836 0.037432294 -0.119771644 0.07514834
0.028153028 0.03032106 0.10899225 0.056623146 0.107164085 -0.050531413 -0.017269626 0.0111449305
-0.0949854 -0.06655432 0.12623914 0.07715764 0.20400114 0.0038701906 0.06718564 0.118316
-0.0893125 0.14554173 -0.026868382 -0.06630588 0.0923398 -0.045897465 -0.04054167 -0.05951785
-0.041740254 -0.04592344 0.11854939 0.05830539 0.041360844 0.036196705 -0.022302693 -0.07532327
0.015151639 0.08814071 -0.07266342 0.02618896 0.048532773 0.044424206 0.06215647 -0.03391216
0.00013293825 -0.00348082 0.024971472 -0.044960435 0.09454801 -0.02088308 -0.07570208 0.0075992523
0.047237337 0.08855032 -0.030009687 -0.119461745 -0.042840447 0.14631876 -0.022171812 0.12501977
0.08512266 -0.10691499 -0.1240973 -0.01629516 0.15029788 -0.1062802 -0.10001153 0.04170576
0.058517087 -0.06312753 -0.026333494 0.12804952 0.010277481 -0.14047164 0.02797865 -0.1063817
0.07708294 -0.06829403 -0.092197575 0.030388847 0.08097388 0.012480186 0.01953527 0.1365496
0.039278388 -0.16365263 -0.054854695 -0.1006827 0.005539254 0.071740195 -0.013699627 -0.053784188
-0.09778525 -0.016617851 0.087717645 -0.109030254 0.0005511196 0.060511902 -0.02823954 -0.0109120095
-0.01631178 0.034859013 -0.101018816 -0.06120685 0.065132365 -0.14841707 -0.040723335 0.11085381
-0.13464284 -0.08681421 0.030089458 0.12340305 0.020485168 -0.15203148 0.029343909 -0.04076315
-0.001934963 0.03338836 -0.009608185 -0.024254216 -0.019894704 -0.005281543 0.07601954 -0.13633947
-0.0579337 -0.010717692 -0.13813673 -0.104249306 -0.082094826 0.07797443 0.06432584 0.07615408
0.054027837 0.10153856 -0.09928298 0.0018086225 -0.046764024 -0.025099777 0.001783519 0.053531468
0.05241876 0.041122247 -0.015112835 -0.01705893 -0.0835732 -0.1315531 -0.034520786 -0.02262931
0.018898187 0.001914223 -0.07997974 -0.02651516 -0.033527497 -0.1481755 0.06713244 -0.14984654
-0.09337216 0.02069766 -0.1081315 0.12785609 -0.06510998 -0.13937154 -0.06614911 -0.16025828
0.11794158 0.11545818 -0.09413879 0.091325216 -0.14353983 0.041968048 -0.047604337 -0.007726045
0.030043185 0.014240973 -0.14301482 -0.19107199 -0.046676 0.122629724 0.089077085 -0.031047376
0.059847355 -0.09739827 0.079741 0.03860296 -0.025674608 0.21193495 0.0017546233 0.12373658
0.067122854 -0.0044193775 0.051912513 0.10527194 -0.044908606 0.06138546 0.122456305 -0.102787875
0.046621777 0.11856312 0.042876095 -0.040686294 -0.0024106093 0.0051947874 0.17553958 0.09294221
0.11849464 -0.059454143 0.16041358 0.06413333 0.10975566 -0.0013712465 0.032221157 0.09973341
0.007951095 0.05085347 0.0435776 -0.11398301 0.07684367 0.1109982 -0.08571262 -0.043520864
-0.032169186 -0.07040476 -0.07351152 -0.05464443 -0.11188016 -0.090921625 0.047045946 0.1004032
0.019299872 0.029953692 0.113454185 -0.10831882 0.01932926 0.096622236 0.044642933 0.15646741
0.04937931 -0.00860441 0.06690845 0.09284329 0.104225576 0.097577214 -0.03222995 -0.050175413
00000000: ac45 193e 0f4c d93d b96d 99bd 04ed 363c
00000010: bfc1 a5bd dfaf ab3d 3684 a33d 2bc6 ef3d
00000020: 8352 413d bf65 96bd 3d5c 263e 248b 163e
00000030: 07eb 1ebd 9b52 193d d64a f5bd 5fe7 993d
00000040: 2ea1 e63c df63 f83c 5437 df3d aced 673d
00000050: d878 db3d 07fa 4ebd 0879 8dbc 3a99 363c
00000060: b587 c2bd a24d 88bd d544 013e d304 9e3d
00000070: ade5 503e 06a3 7d3b a098 893d a94f f23d
00000080: 79e9 b6bd e408 153e 151b dcbc 61cb 87bd
00000090: a61c bd3d fbfe 3bbd 060f 26bd fdc8 73bd
000000a0: d4f7 2abd 381a 3cbd 06ca f23d a2d1 6e3d
000000b0: fd69 293d ff42 143d 23b4 b6bc 1643 9abd
000000c0: 943e 783c 1e83 b43d 8fd0 94bd 3b8a d63c
000000d0: 4dca 463d 28f6 353d c897 7e3d 7ae7 0abd
000000e0: 5765 0b39 781e 64bb f990 cc3c 6f28 38bd
000000f0: 63a2 c13d fe12 abbc b109 9bbd 2603 f93b
00000100: f07b 413d df59 b53d e0d6 f5bc 5ca8 f4bd
00000110: 7779 2fbd 96d4 153e a9a1 b5bc 2f05 003e
00000120: ca54 ae3d 3ff6 dabd ba26 febd 6d7d 85bc
00000130: b0e7 193e 6fa9 d9bd d8d2 ccbd a9d3 2a3d
00000140: 9daf 6f3d 0249 81bd 57b9 d7bc 6a1f 033e
00000150: e162 283c ccd7 0fbe 7b33 e53c a6de d9bd
00000160: a9dd 9d3d bedd 8bbd 15d2 bcbd 08f2 f83c
00000170: a2d5 a53d b279 4c3c 6e08 a03c a9d3 0b3e
00000180: 60e2 203d 8e94 27be 51af 60bd bb32 cebd
00000190: a182 b53b 86ec 923d 6674 60bc cf4c 5cbd
000001a0: a243 c8bd 2922 88bc 4fa5 b33d 414b dfbd
000001b0: 0379 103a 54db 773d 9c56 e7bc 49c8 32bc
000001c0: 48a0 85bc 53c8 0e3d f4e2 cebd 09b4 7abd
000001d0: 1e64 853d a5fa 17be 83cd 26bd 5307 e33d
000001e0: d0df 09be a6cb b1bd 2b7e f63c bdba fc3d
000001f0: 83d0 a73c 24ae 1bbe a362 f03c 43f7 26bd
00000200: 969e fdba 3cc2 083d a66b 1dbc c7b0 c6bc
00000210: 38fa a2bc cb10 adbb 22b0 9b3d 939c 0bbe
00000220: e34b 6dbd 4299 2fbc b773 0dbe a980 d5bd
00000230: 5521 a8bd 0fb1 9f3d 44bd 833d acf6 9b3d
00000240: 4b4c 5d3d 73f3 cf3d e054 cbbd 4d0f ed3a
00000250: a28b 3fbd 0c9e cdbc f8c4 e93a d043 5b3d
00000260: 0eb5 563d cd6f 283d d39b 77bc 2bbf 8bbc
00000270: 6d28 abbd dbb5 06be ab65 0dbd 1a61 b9bc
00000280: 5fd0 9a3c aae6 fa3a 6bcc a3bd 5236 d9bc
00000290: 2154 09bd 51bb 17be bc7c 893d 5f71 19be
000002a0: e739 bfbd 248e a93c 0c74 ddbd b5ec 023e
000002b0: 6258 85bd 6ab7 0ebe 2f79 87bd bf1a 24be
000002c0: 5b8b f13d 5775 ec3d d7cb c0bd b708 bb3d
000002d0: 1bfc 12be b0e6 2b3d c4fc 42bd c32a fdbb
000002e0: 201d f63c f852 693c 7a72 12be 60a8 43be
000002f0: 552f 3fbd 4b25 fb3d 0c6e b63d 1157 febc
00000300: 8022 753d bf78 c7bd 404f a33d 231e 1e3d
00000310: 8e53 d2bc 7a05 593e 63fb e53a 9b69 fd3d
00000320: b577 893d 6dd0 90bb 37a2 543d d198 d73d
00000330: 16f2 37bd 526f 7b3d 5fca fa3d 7382 d2bd
00000340: 7af6 3e3d 39d1 f23d d89e 2f3d aca6 26bd
00000350: 50fb 1dbb 0939 aa3b a6c0 333e 7c58 be3d
00000360: 51ad f23d 3086 73bd 7543 243e 5658 833d
00000370: 93c7 e03d 66bb b3ba 55fa 033d 0841 cc3d
00000380: 4f45 023c ba4b 503d 6d7e 323d ed6f e9bd
00000390: 3760 9d3d 0653 e33d 198a afbd ef42 32bd
000003a0: d6c3 03bd 5f30 90bd 358d 96bd d6d2 5fbd
000003b0: 6d21 e5bd 1e35 babd 40b3 403d 31a0 cd3d
000003c0: c41a 9e3c 7261 f53c ab5a e83d 42d6 ddbd
000003d0: 6558 9e3c e1e1 c53d 82db 363d fe38 203e
000003e0: f641 4a3d 83f9 0cbc 4c07 893d 9f24 be3d
000003f0: 3874 d53d 90d6 c73d 8d03 04bd bc84 4dbd

adaLN_modulation.1.bias f4 [128]
-0.07717592 0.05644382 -0.01897256 0.037233416 -0.115764774 -0.10058582 -0.07266258 -0.002881174
-0.014822989 -0.008828275 0.053163506 0.13740204 0.108617686 0.0057434486 0.007372076 -0.12216555
0.121843345 -0.013518252 -0.11698409 0.02393659 0.04691647 -0.024826922 -0.043740537 -0.026373535
-0.11261696 -0.124894254 0.11785259 -0.095554285 0.06970405 -0.023846406 0.08932729 0.0071142297
-0.11604732 -0.06771862 -0.118676245 -0.053005025 -0.03352878 0.050831262 -0.04113981 0.055874314
0.045234654 0.1053064 0.09053788 -0.06647767 -0.03332748 -0.0154642 0.07241316 0.0998665
0.09743081 -0.046499323 -0.13963103 0.04095905 0.031427756 -0.067961924 0.1333508 -0.014148351
0.0049916203 -0.07614544 0.007327092 -0.008881893 -0.030023921 -0.094849445 -0.029800342 -0.03740322
0.063914776 0.1444938 0.034112554 0.13534369 -0.054271642 0.005857605 0.17534503 -0.051254272
-0.079137854 0.0010191636 -0.024851926 -0.031126069 0.18646152 0.08722207 0.071082585 0.073380046
0.05352767 0.09393478 0.051768295 0.13301073 0.08887418 0.18153033 -0.05185815 -0.015568857
-0.11016947 -0.0788995 0.101449415 0.14642961 -0.06335771 -0.010572352 0.35235065 0.008791296
-0.01680934 0.11492126 0.12760216 0.04744984 -0.018648151 -0.06090695 0.09970517 0.0906194
0.13631298 0.13251561 0.007750445 -0.11546773 0.08530366 -0.08330831 0.020500645 -0.003190652
-0.0072638104 -0.00025035677 0.20929918 0.119689114 0.052338947 -0.02999851 0.13021356 0.12870833
0.28831294 0.12825549 0.16129775 -0.0773532 0.08957831 -0.010901853 -0.06023208 0.22494866
00000000: 690e 9ebd a331 673d 586c 9bbc 1182 183d
00000010: 1516 edbd f0ff cdbd 1ed0 94bd 14d2 3cbb
00000020: 1fdc 72bc 78a4 10bc fac1 593d 1fb3 0c3e
00000030: f372 de3d 8a33 bc3b 7591 f13b ef31 fabd
00000040: 0189 f93d a97b 5dbc 5b95 efbd ab16 c43c
00000050: 7c2b 403d d461 cbbc 4729 33bd 500d d8bc
00000060: b9a3 e6bd 8fc8 ffbd b35c f13d f7b1 c3bd
00000070: ffc0 8e3d 8a59 c3bc 3af1 b63d 7c1e e93b
00000080: 38aa edbd 0fb0 8abd 880c f3bd cc1b 59bd
00000090: 7955 09bd 7134 503d 3882 28bd 77dc 643d
000000a0: f947 393d e2aa d73d ed6b b93d 7225 88bd
000000b0: 6582 08bd 8e5d 7dbc 5a4d 943d cf86 cc3d
000000c0: ce89 c73d 1376 3ebd 70fb 0ebe adc4 273d
000000d0: 64ba 003d 9f2f 8bbd 1d8d 083e 7cce 67bc
000000e0: bf90 a33b 24f2 9bbd 1a18 f03b 5c85 11bc
000000f0: baf4 f5bc 6d40 c2bd d91f f4bc 1e34 19bd
00000100: c0e5 823d 2ff6 133e 9bb9 0b3d 8997 0a3e
00000110: f14b 5ebd 27f1 bf3b a68d 333e 00f0 51bd
00000120: 0713 a2bd 7595 853a 4496 cbbc 19fc febc
00000130: c5ef 3e3e 7ca1 b23d bf93 913d 4748 963d
00000140: d53f 5b3d e160 c03d fe0a 543d f733 083e
00000150: ab03 b63d 16e3 393e 3669 54bd 8514 7fbc
00000160: 88a0 e1bd 1096 a1bd b6c4 cf3d a5f1 153e
00000170: b0c1 81bd a937 2dbc 4e67 b43e 5e09 103c
00000180: beb3 89bc d65b eb3d 24aa 023e c35a 423d
00000190: 02c4 98bc 9179 79bd 3932 cc3d aa96 b93d
000001a0: a195 0b3e 2cb2 073e 72f7 fd3b 587a ecbd
000001b0: afb3 ae3d 8c9d aabd f8f0 a73c 421a 51bb
000001c0: 4205 eebb 5142 83b9 8652 563e 911f f53d
000001d0: 5d61 563d 6fbf f5bc b456 053e 1ecc 033e
000001e0: c19d 933e 6855 033e 3d2b 253e 5b6b 9ebd
000001f0: d574 b73d b09d 32bc eab5 76bd f158 663e

advantage.0.weight f4 [256, 64]
0.063873164 -0.29936942 0.049197048 0.08988434 0.14011988 -0.19079943 -0.05170521 -0.04279964
0.15968643 -0.05987826 -0.047600687 -0.19792919 -0.06067185 -0.046676565 -0.027319664 -0.03976835
0.013179652 0.09486265 -0.001464116 -0.07888232 0.24650647 0.14892769 -0.07607924 -0.009341658
-0.016822213 0.08773158 -0.046236683 0.020938361 -0.0875348 0.08460636 -0.06948899 -0.07625673
0.10550044 -0.019396435 -0.10453769 -0.020421296 0.07842731 -0.040430464 -0.047262207 0.08162787
0.029014466 0.0812035 0.08357193 -0.063379124 0.08030702 -0.027754175 -0.04534773 -0.093790516
0.07797785 0.032393664 -0.060379557 -0.060887277 0.06844895 0.13917829 0.02191961 -0.10814206
-0.040566873 0.27644727 0.0746347 -0.13126652 0.016790599 -0.056400888 -0.13710165 -0.12348909
-0.013547984 0.03928453 -0.1094398 -0.08839051 -0.09783309 0.090431124 -0.046765815 -0.102741435
0.05190262 -0.022436667 0.13161176 0.1266963 -0.01283199 -0.020048741 -0.006604685 0.0251624
0.12018601 0.047139872 0.10595931 -0.007913022 0.03562028 -0.16425398 0.10023387 -0.10207002
0.04663599 0.12950853 -0.12700227 0.033949766 0.0686058 -0.0055713635 -0.065231234 0.10993119
-0.07156652 -0.08181445 0.06870691 -0.052334577 0.0077678277 0.020663694 0.1089069 -0.052993678
-0.05480321 -0.07747995 -0.090097345 -0.0772265 -0.05783813 0.02680167 0.041935463 0.063544825
-0.069764666 0.08950367 0.11550675 0.0019666536 0.07667684 0.048979115 -0.08113753 0.06771099
-0.12538831 -0.0542889 0.008313717 -0.06791413 -0.03332589 0.028019099 -0.10376201 -0.06488571
0.030798217 0.028090695 0.0877752 -0.10523596 -0.039531354 0.13956217 -0.0704955 0.03774881
-0.14183505 -0.041951258 0.079564534 -0.05487876 -0.19239943 -0.0687434 -0.08716438 0.14400543
-0.1005238 0.054530114 0.049386665 -0.09092864 -0.0006198783 0.0105167115 0.041068904 0.0329563
-0.115231685 0.034590185 -0.016181292 0.03238897 0.12682469 0.115260184 0.0068398886 -0.060926642
-0.0057642777 0.03237803 -0.04331613 0.0056089303 -0.013296064 -0.05572102 0.029647302 0.20275614
0.05616592 -0.09616696 -0.108784564 -0.15880601 -0.08725276 0.09879388 -0.12907979 0.08751036
0.087137066 -0.085837364 -0.12588058 -0.0120270485 0.040312808 -0.07785315 -0.016695878 0.17187862
0.17456669 -0.06832785 -0.0696155 0.07198351 0.1457012 -0.07734135 -0.1127114 -0.04766715
-0.01009737 0.0561405 -0.0013238866 0.07245937 0.037731558 0.028581006 -0.046586692 0.10587964
0.045976795 0.046029348 0.12311865 -0.040558986 -0.048653238 0.034293894 -0.1460718 -0.15623666
-0.03564574 -0.033026394 -0.10867362 -0.044981636 -0.05721114 0.052968614 0.04339046 -0.101815924
0.10338272 0.109131135 -0.013252667 -0.1336027 -0.023740405 0.086916566 -0.065082535 -0.0252419
-0.029433914 -0.029620286 -0.04892383 0.0153443655 -0.003071365 -0.027612768 -0.06892801 0.07978652
-0.073950686 -0.040373005 0.06532073 -0.05808838 -0.084830716 -0.10927377 0.10309737 0.061681837
0.071384035 -0.112546846 -0.011055005 -0.09158233 -0.054119907 0.12059834 0.055783972 -0.14310804
-0.041215762 -0.071666546 -0.07954077 -0.054208536 0.06478675 0.040679436 0.14482176 0.025867837
00000000: efcf 823d f346 99be d882 493d 4815 b83d
00000010: 967b 0f3e ed60 43be d8c8 53bd ad4e 2fbd
00000020: d784 233e e842 75bd f0f8 42bd f3ad 4abe
00000030: 0c83 78bd ed2f 3fbd 7dcd dfbc 23e4 22bd
00000040: 78ef 573c 5947 c23d 95e7 bfba 0e8d a1bd
00000050: 316c 7c3e 8080 183e 6fcf 9bbd c10d 19bc
00000060: bdce 89bc 9dac b33d ad62 3dbd ed86 ab3c
00000070: 7245 b3bd 1946 ad3d 3e50 8ebd 7d2c 9cbd
00000080: 9d10 d83d 46e5 9ebc db17 d6bd 904a a7bc
00000090: 7f9e a03d 6a9a 25bd 0496 41bd 832c a73d
000000a0: bfaf ed3c 054e a63d c327 ab3d eacc 81bd
000000b0: 0278 a43d b95c e3bc 8bbe 39bd 3e15 c0bd
000000c0: dab2 9f3d 38af 043d 8e50 77bd f064 79bd
000000d0: f72e 8c3d c184 0e3e c190 b33c 9679 ddbd
000000e0: 7329 26bd 7f8a 8d3e 14da 983d bb6a 06be
000000f0: 708c 893c 9e04 67bd 6064 0cbe d9e7 fcbd
00000100: 5df8 5dbc d1e8 203d f921 e0bd 1506 b5bd
00000110: b75c c8bd f433 b93d 838d 3fbd 1a6a d2bd
00000120: d797 543d 1acd b7bc 3cc5 063e adbc 013e
00000130: 443d 52bc 423d a4bc 1d6c d8bb 6121 ce3c
00000140: 1524 f63d bd15 413d 3201 d93d 9fa5 01bc
00000150: 92e6 113d 3232 28be 6a47 cd3d 160a d1bd
00000160: 6105 3f3d e29d 043e e20c 02be e90e 0b3d
00000170: 3381 8c3d fc8f b6bb f497 85bd 9b23 e13d
00000180: 7891 92bd 568e a7bd 35b6 8c3d c85c 56bd
00000190: 4389 fe3b e846 a93c 950a df3d e60f 59bd
000001a0: 5579 60bd cfad 9ebd f584 b8bd ed28 9ebd
000001b0: ade7 6cbd 2d8f db3c 85c4 2b3d ca23 823d
000001c0: c7e0 8ebd b34d b73d ce8e ec3d f9e2 003b
000001d0: bf08 9d3d 539e 483d 6f2b a6bd 0fac 8a3d
000001e0: cb65 00be 0a5e 5ebd 4236 083c 9016 8bbd
000001f0: ba80 08bd 4f88 e53c 2d81 d4bd cde2 84bd
00000200: 8b4c fc3c 751e e63c 7cc3 b33d f385 d7bd
00000210: a1eb 21bd 63e9 0e3e f25f 90bd 7f9e 1a3d
00000220: 353d 11be 15d5 2bbd bbf2 a23d 8dc8 60bd
00000230: 5b04 45be 57c9 8cbd 3d83 b2bd 2976 133e
00000240: 6cdf cdbd f85a 5f3d ac49 4a3d cb38 babd
00000250: 547f 22ba 494e 2c3c de37 283d 2ffd 063d
00000260: 97fe ebbd 70ae 0d3d a18e 84bc 4caa 043d
00000270: 55de 013e 880d ec3d 2521 e03b 378e 79bd
00000280: 44e2 bcbb d39e 043d 416c 31bd 1ecb b73b
00000290: bcd7 59bc b93b 64bd e6de f23c 4e9f 4f3e
000002a0: 3c0e 663d 2ff3 c4bd 71ca debd 0b9e 22be
000002b0: 93b1 b2bd 7254 ca3d 7e2d 04be a238 b33d
000002c0: eb74 b23d 80cb afbd d7e6 00be 190d 45bc
000002d0: 0b1f 253d 7971 9fbd cbc5 88bc f300 303e
000002e0: 9cc1 323e 79ef 8bbd 9292 8ebd 176c 933d
000002f0: b232 153e 2465 9ebd 3cd5 e6bd a13e 43bd
00000300: 706f 25bc 95f3 653d 4386 adba 9465 943d
00000310: 688c 1a3d b722 ea3c b0d1 3ebd 6dd7 d83d
00000320: 2a52 3c3d 4589 3c3d a125 fc3d 2e21 26bd
00000330: 9e48 47bd c177 0c3d d993 15be 81fc 1fbe
00000340: 4401 12bd af46 07bd 4690 debd aa3e 38bd
00000350: 3a56 6abd 9ef5 583d 32ba 313d de84 d0bd
00000360: 52ba d33d 2580 df3d b721 59bc 25cf 08be
00000370: 3d7b c2bc 5001 b23d fe49 85bd 1ac8 cebc
00000380: 641f f1bc 3ea6 f2bc 5b64 48bd ef66 7b3c
00000390: f448 49bb 2c34 e2bc 212a 8dbd 1d67 a33d
000003a0: 7573 97bd 2a5e 25bd e0c6 853d 15ee 6dbd
000003b0: babb adbd edca dfbd b724 d33d 18a6 7c3d
000003c0: cb31 923d f67e e6bd 0d20 35bc 848f bbbd
000003d0: d6ac 5dbd 43fc f63d bc7d 643d ea8a 12be
000003e0: dcd1 28bd e9c5 92bd 45e6 a2bd c509 5ebd
000003f0: eaae 843d 7b9f 263d 284c 143e c9e8 d33c

advantage.0.bias f4 [256]
0.0070980475 0.090353325 0.115438014 0.05584515 0.03836048 -0.15336753 -0.12299016 -0.14566755
-0.0026005255 -0.06179959 0.0770291 -0.095982686 -0.03816213 0.0062953364 0.08531996 0.005913634
-0.18008146 0.050727848 -0.07095389 0.041805793 -0.117517725 0.061598044 -0.071845554 0.036818698
-0.051156346 -0.005403209 -0.0741728 0.057206515 0.10415732 -0.05861442 -0.034168385 0.03463714
-0.08446452 0.0020455522 -0.111917555 -0.09343127 0.05190437 -0.028319879 -0.009549184 0.09134532
-0.025236627 0.119016655 0.030535337 -0.0473453 -0.028538456 -0.086232916 -0.009053205 -0.11233632
0.0052761054 -0.06233492 -0.09674206 0.027723324 0.07842378 0.06630902 -0.07617796 -0.12700672
0.049136195 -0.03374605 -0.066923864 -0.05118928 0.0388246 -0.1378327 0.025683792 -0.0067668897
-0.053824794 -0.04441598 -0.008888064 -0.11773979 0.057898223 0.0531004 -0.10233025 -0.108987525
0.030917782 0.066941395 0.09453298 -0.13499548 -0.0021026896 -0.12847209 -0.096227676 -0.13692664
0.0041649668 0.034530047 0.10921599 -0.06603786 -0.095893905 0.004223301 0.018911242 0.072839014
-0.039212987 0.029451726 0.05092095 0.045486864 -0.027680056 -0.062995225 -0.073839255 0.010483522
0.0635161 -0.012458195 -0.12082377 -0.058499496 0.004795769 0.038297974 0.022211574 0.08607785
-0.12850676 -0.17243496 -0.046909146 -0.07701912 -0.01953349 -0.050082605 0.085817665 -0.0043540536
-0.009523609 -0.05851734 -0.14862184 -0.047610603 -0.067049816 -0.064218 -0.1342266 0.10087543
0.005919971 0.08811456 -0.111152716 -0.022799775 -0.001351898 0.0067558154 0.11029051 0.06957773
0.09835022 -0.1170444 0.029478103 -0.13309525 -0.0093705375 0.07821967 -0.053620964 -0.003003078
0.09878279 -0.12391421 0.021638907 0.0003369812 -0.1193296 -0.043036375 0.012896917 0.074291795
-0.064908855 0.059946083 0.08769843 0.084626414 -0.092812926 0.025068572 -0.14257173 -0.10595068
-0.040100392 0.06491741 0.114717446 -0.16451101 0.12014214 0.007377649 -0.050367422 0.01883622
0.07915109 0.09065183 -0.16239081 0.008496991 -0.11816471 0.0138048725 0.0043057133 -0.09472756
0.057236463 0.07509936 0.05964236 -0.0060888375 -0.096567504 -0.13992876 0.07977193 -0.046630092
-0.098279476 0.041297622 -0.010077664 -0.10264973 -0.06996298 -0.15126386 0.04197215 -0.112678684
-0.046948455 -0.08157409 0.08228621 0.023329547 -0.11995844 -0.06811619 -0.09554986 -0.085233785
-0.12234493 -0.08210971 0.09327947 -0.007985451 -0.030488918 0.03370729 -0.10451281 0.0254024
-0.09934554 -0.023160687 0.036447007 -0.012685658 -0.046184544 0.06715192 0.0011245369 -0.047256898
0.022111531 0.029897314 0.008889711 -0.015129236 0.038717046 0.08800754 -0.030058857 -0.12637363
-0.048281547 -0.087150715 -0.104548655 -0.09618926 -0.10192256 0.066346146 0.002477735 0.058907863
-0.014867445 0.079839215 0.078706086 0.0045554545 0.04149973 0.0025234262 0.09307925 -0.12928201
-0.08327421 -0.01675473 -0.15615194 -0.15428977 -0.042364642 -0.007627166 -0.026329204 -0.13460529
-0.029493008 0.0077669118 -0.11639737 -0.17545216 -0.13566352 -0.05831942 0.039781462 -0.036980398
0.08523554 0.06366244 -0.122473165 0.002821731 0.03882723 -0.141641 0.020835672 0.03535472
00000000: bd96 e83b 2a0b b93d c46a ec3d e2bd 643d
00000010: e11f 1d3d 610c 1dbe 44e2 fbbd e029 15be
00000020: 946d 2abb 9121 7dbd 6fc1 9d3d 9292 c4bd
00000030: e54f 1cbd 1c49 ce3b 3bbc ae3d 28c7 c13b
00000040: 4667 38be 01c8 4f3d 4650 91bd 8d3c 2b3d
00000050: 22ad f0bd 3b4e 7c3d c323 93bd 34cf 163d
00000060: 5189 51bd 670d b1bb e9e7 97bd 6151 6a3d
00000070: 6f50 d53d ad15 70bd 26f4 0bbd acdf 0d3d
00000080: bcfb acbd ac0e 063b 0835 e5bd e558 bfbd
00000090: ad99 543d 17ff e7bc 2e74 1cbc 4113 bb3d
000000a0: 0bbd cebc 01bf f33d 3e25 fa3c 25ed 41bd
000000b0: 7bc9 e9bc e29a b0bd e553 14bc 9610 e6bd
000000c0: 2ee3 ac3b e752 7fbd b320 c6bd 061c e33c
000000d0: a69c a03d 06cd 873d 3103 9cbd 0d0e 02be
000000e0: 0943 493d 4c39 0abd 610f 89bd daab 51bd
000000f0: 8b06 1f3d 0424 0dbe d166 d23c c9bc ddbb
00000100: 6377 5cbd 88ed 35bd 3e9f 11bc 8f21 f1bd
00000110: b026 6d3d ce7f 593d 8692 d1bd da34 dfbd
00000120: 4a47 fd3c 9218 893d 829a c13d 413c 0abe
00000130: 47cd 09bb 308e 03be 0413 c5bd 7f36 0cbe
00000140: 467a 883b 616f 0d3d a2ac df3d dc3e 87bd
00000150: 0664 c4bd 9e63 8a3b c0eb 9a3c 9f2c 953d
00000160: cc9d 20bd bf44 f13c 7c92 503d 6f50 3a3d
00000170: 49c1 e2bc a403 81bd 0939 97bd 14c3 2b3c
00000180: bb14 823d 751d 4cbc 7472 f7bd 2b9d 6fbd
00000190: d425 9d3b 56de 1c3d 0cf5 b53c 9549 b03d
000001a0: 4797 03be ca92 30be ce23 40bd 33bc 9dbd
000001b0: b304 a0bc 6b23 4dbd 2cc1 af3d 73ac 8ebb
000001c0: e908 1cbc e1af 6fbd 5330 18be 5603 43bd
000001d0: 6a51 89bd ba84 83bd b372 09be c797 ce3d
000001e0: 51fc c13b 6875 b43d 09a4 e3bd 98c6 babc
000001f0: 2b32 b1ba e35f dd3b fedf e13d c57e 8e3d
00000200: d76b c93d f9b4 efbd 107c f13c 1f4a 08be
00000210: e286 19bc a231 a03d a8a1 5bbd 4acf 44bb
00000220: a24e ca3d bcc6 fdbd 1444 b13c daac b039
00000230: 1463 f4bd e946 30bd 974d 533c 4c26 983d
00000240: efee 84bd 068a 753d 3c9b b33d 9d50 ad3d
00000250: b414 bebd 9b5c cd3c 53fe 11be acfc d8bd
00000260: 4f40 24bd 6bf3 843d fbf0 ea3d 9375 28be
00000270: 150d f63d 35c0 f13b 124e 4ebd 6b4e 9a3c
00000280: f719 a23d aba7 b93d c749 26be f736 0b3c
00000290: 5700 f2bd d52d 623c f116 8d3b 8600 c2bd
000002a0: c870 6a3d b1cd 993d 8c4b 743d df84 c7bb
000002b0: 2fc5 c5bd 7c49 0fbe 775f a33d 32ff 3ebd
000002c0: c046 c9bd b227 293d c91c 25bc 063a d2bd
000002d0: c048 8fbd eae4 1abe fdea 2b3d 15c4 e6bd
000002e0: 064d 40bd 5110 a7bd ac85 a83d 9b1d bf3c
000002f0: c5ac f5bd 8080 8bbd a5af c3bd 0d8f aebd
00000300: fb8f fabd 2329 a8bd 4f09 bf3d 69d5 02bc
00000310: e5c3 f9bc a810 0a3d d00a d6bd b218 d03c
00000320: ad75 cbbd 7bbb bdbc 7549 153d 82d7 4fbc
00000330: 012c 3dbd f286 893d 3265 933a 7390 41bd
00000340: 3e23 b53c 36eb f43c 27a6 113c 9de0 77bc
00000350: c495 1e3d 4c3d b43d fe3d f6bc 1768 01be
00000360: dfc2 45bd 137c b2bd 9b1d d6bd e0fe c4bd
00000370: c6bc d0bd 7de0 873d 7f61 223b 5f49 713d
00000380: 9696 73bc be82 a33d a830 a13d ec45 953b
00000390: 9ffb 293d 1160 253b 55a0 be3d 8162 04be
000003a0: ab8b aabd 3741 89bc 4be6 1fbe 23fe 1dbe
000003b0: 8c86 2dbd 4eed f9bb 58b0 d7bc f8d5 09be
000003c0: 529b f1bc 9481 fe3b bf61 eebd bba9 33be
000003d0: 61eb 0abe 58e0 6ebd e3f1 223d c278 17bd
000003e0: f98f ae3d 7461 823d 36d3 fabd caec 383b
000003f0: 4d09 1f3d 570a 11be 92af aa3c 1cd0 103d

advantage.2.weight_mu f4 [102, 256]
0.0528286 -0.0284076 0.018380875 -0.002554926 -0.008402971 -0.037202835 -0.17415646 -0.017136438
-0.015748119 0.07522856 -0.03225382 0.03168213 0.09864711 -0.0029089127 -0.023788834 0.17042813
0.009205995 -0.02912623 -0.11191611 0.00051581685 -0.11330856 0.044911627 0.0058226176 -0.066108204
-0.07059133 -0.06047771 0.0049718 0.08929023 -0.12104529 -0.098966666 -0.09255917 0.08217316
-0.016688833 -0.10294713 -0.014636063 0.019712297 -0.0032944127 0.047680974 -0.005711671 0.08721085
-0.11941401 0.033848763 -0.047089126 -0.032231253 -0.11442939 0.01754214 -0.04301493 0.010725459
0.109380126 0.015327369 -0.04266118 0.049455058 0.03650577 0.023695568 0.05554429 0.0689734
-0.0091308495 0.05910137 -0.018280104 -0.05001191 0.05609896 -0.010487786 0.055928826 -0.02669245
-0.010354624 -0.042693052 -0.029582683 0.017219044 0.0212246 0.063446656 -0.082519434 -0.012401104
-0.0030551723 -0.021041801 0.13505384 0.0013011532 -0.020717269 -0.055484597 0.03804216 0.029412748
-0.0056098183 0.06274386 0.07059565 -0.14031011 0.09084781 0.0095479265 0.07965143 -0.08472864
0.0042230864 -0.09740385 -0.12147206 -0.044250585 -0.053257212 0.054031998 -0.009717463 0.010228203
-0.010012301 -0.0041013183 0.04458313 -0.09242415 -0.05432155 -0.023685094 -0.07572117 0.0028212587
0.15499057 -0.041220147 -0.05004178 -0.039966516 0.022287307 0.05931036 -0.08470344 -0.028018486
-0.070681304 0.032068018 -0.017669607 0.018414391 -0.05654154 0.0481878 -0.023378868 0.018349227
-0.098973244 -0.080109954 0.009526834 -0.0027023451 -0.14246349 -0.0016109401 -0.11368457 0.067922406
0.010147109 0.089855276 -0.057009842 -0.056461405 0.11996757 -0.02657225 -0.019427568 -0.055253472
-0.020586858 -0.065850586 0.015330027 0.108567506 0.06464994 0.030912519 -0.047100775 -0.027057994
0.08050348 -0.010420945 0.026126247 0.04875119 -0.022843717 -0.06150234 0.11754788 0.068655424
-0.09963801 0.09398439 0.022846801 -0.09197252 0.10363276 -0.037995484 0.046964962 -0.09524014
0.10643048 0.025160642 0.07254123 -0.035698712 -0.038501844 -0.004993808 -0.08501714 0.02105562
0.105216116 -0.0028654605 0.07738337 -0.044377655 -0.027751995 0.1787629 0.020627908 -0.1534166
0.03326193 0.015098677 0.036469094 0.041277997 -0.07992981 -0.041657973 -0.077773646 0.05973005
-0.10608834 0.08444039 0.013070219 -0.13477373 -0.049641937 -0.072501674 -0.08685595 0.05691799
0.08770237 -0.016164279 -0.06918766 0.04364632 -0.05213761 0.07052794 -0.010130602 -0.10152427
0.0015272934 -0.050922018 -0.05491302 0.018907595 -0.070649 0.15949231 0.06823885 -0.07680142
0.048343036 0.011002414 0.030415632 0.03282288 -0.028729094 0.03267592 0.010481715 -0.046251938
-0.0885384 -0.038837 -0.066774115 -0.09297479 -0.11080614 0.0213603 -0.069391616 0.03455133
0.0514462 -0.0387922 0.04233305 0.0028668519 -0.096227475 0.008195247 -0.044967543 0.057631247
-0.14005724 0.00022794802 0.06674732 0.037601292 -0.012039067 -0.061291367 -0.030241422 -0.038487904
-0.049080674 0.08201451 -0.11531692 -0.005603335 0.022179684 0.047350805 -0.05186585 -0.032386597
0.072621666 0.05382217 0.011953424 0.055037614 -0.1359297 -0.06473542 -0.056497652 0.03277839
00000000: cd62 583d 0eb7 e8bc 7d93 963c 8c70 27bb
00000010: 9dac 09bc 0062 18bd 1256 32be b761 8cbc
00000020: 3302 81bc 6e11 9a3d 951c 04bd 1fc5 013d
00000030: 7f07 ca3d 75a3 3ebb cde0 c2bc b684 2e3e
00000040: bed4 163c 229a eebc 4634 e5bd e237 073a
00000050: 510e e8bd 41f5 373d a8cb be3b bd63 87bd
00000060: 3092 90bd 7ab7 77bd 7bea a23b ccdd b63d
00000070: 98e6 f7bd 09af cabd aa8f bdbd 674a a83d
00000080: 05b7 88bc f2d5 d2bd 19cc 6fbc af7b a13c
00000090: 13e7 57bb 204d 433d f828 bbbb 9a9b b23d
000000a0: 558f f4bd 00a5 0a3d 87e0 40bd eb04 04bd
000000b0: f559 eabd 89b4 8f3c 6c30 30bd d6b9 2f3c
000000c0: b002 e03d a51f 7b3c 7dbd 2ebd 6391 4a3d
000000d0: 1387 153d 351d c23c 6982 633d ed41 8d3d
000000e0: 8f99 15bc 4714 723d 28c0 95bc 4ad9 4cbd
000000f0: 06c8 653d f6d4 2bbc a015 653d 20aa dabc
00000100: 71a6 29bc e9de 2ebd 6257 f2bc f40e 8d3c
00000110: 36df ad3c 52f0 813d f3ff a8bd 002e 4bbc
00000120: 4939 48bb db5f acbc 8e4b 0a3e 758b aa3a
00000130: 43b7 a9bc d143 63bd 19d2 1b3d 01f3 f03c
00000140: 91d2 b7bb da7f 803d 7494 903d 74ad 0fbe
00000150: 6b0e ba3d e86e 1c3c 4a20 a33d 3686 adbd
00000160: d161 8a3b ab7b c7bd 58c6 f8bd 1a40 35bd
00000170: 3c24 5abd a850 5d3d fe35 1fbc 3194 273c
00000180: a20a 24bc 5a64 86bb cd9c 363d df48 bdbd
00000190: 4680 5ebd 3e07 c2bc b313 9bbd dee4 383b
000001a0: d9b5 1e3e 75d6 28bd 9cf8 4cbd eeb3 23bd
000001b0: df93 b63c 6cef 723d ff78 adbd 0687 e5bc
000001c0: 5cc1 90bd c159 033d dabf 90bc c7d9 963c
000001d0: 1a98 67bd 9260 453d 0a85 bfbc 1e51 963c
000001e0: 7cb2 cabd b010 a4bd 7016 1c3c d419 31bb
000001f0: f3e1 11be 2e26 d3ba 75d3 e8bd e71a 8b3d
00000200: 0f40 263c 0b06 b83d 2783 69bd 1344 67bd
00000210: 8fb1 f53d 0cae d9bc 9026 9fbc 7751 62bd
00000220: c5a5 a8bc acdc 86bd cb2a 7b3c a458 de3d
00000230: 3067 843d 403c fd3c beec 40bd baa8 ddbc
00000240: 02df a43d 9cbc 2abc b606 d63c 54af 473d
00000250: bf22 bbbc e1e9 7bbd f1bc f03d 379b 8c3d
00000260: 030f ccbd e37a c03d 3729 bb3c 175c bcbd
00000270: 6a3d d43d 27a1 1bbd 555e 403d 430d c3bd
00000280: 39f8 d93d b11d ce3c 7f90 943d d038 12bd
00000290: 1cb4 1dbd 19a3 a3bb 771d aebd d67c ac3c
000002a0: 8c7b d73d 73ca 3bbb 2c7b 9e3d 58c5 35bd
000002b0: 2758 e3bc 9f0d 373e dcfb a83c 3e19 1dbe
000002c0: a93d 083d 7160 773c 9e60 153d 1e13 293d
000002d0: 3db2 a3bd 8da1 2abd ca47 9fbd 7fa7 743d
000002e0: d844 d9bd 15ef ac3d 7924 563c 2002 0abe
000002f0: 5855 4bbd c27b 94bd 88e1 b1bd d722 693d
00000300: 4d9d b33d f36a 84bc 43b2 8dbd 7cc6 323d
00000310: 3f8e 55bd f470 903d d3fa 25bc f5eb cfbd
00000320: 762f c83a 9b93 50bd 7aec 60bd 1ae4 9a3c
00000330: 6cb0 90bd f451 233e cfc0 8b3d 104a 9dbd
00000340: 5903 463d 7843 343c 342a f93c 4971 063d
00000350: 4759 ebbc 2fd7 053d 80bb 2b3c ac72 3dbd
00000360: 9f53 b5bd 8c13 1fbd dec0 88bd 9169 bebd
00000370: 54ee e2bd ccfb ae3c 311d 8ebd b285 0d3d
00000380: 40b9 523d 92e4 1ebd 6c65 2d3d cbe1 3b3b
00000390: e912 c5bd 5b45 063c e32f 38bd be0e 6c3d
000003a0: 2a6b 0fbe 5505 6f39 d2b2 883d d003 1a3d
000003b0: 823f 45bc a80c 7bbd dcbc f7bc 7ea5 1dbd
000003c0: d108 49bd 39f7 a73d 472b ecbd 2e9c b7bb
000003d0: 2bb2 b53c ebf2 413d 4971 54bd cfa7 04bd
000003e0: abba 943d a374 5c3d 4bd8 433c 1f6f 613d
000003f0: 2831 0bbe 0194 84bd 156a 67bd a242 063d
