result/high_level/ETHUSDT/exp1/seed_12345/epoch_1/trained_model.pkl (torch, 349431 bytes, 67 tensors)

combined_encoder.pool_query f4 [1, 1, 32]
000000 ae 16 55 3f ae 99 44 be 33 88 96 3f b0 24 0d c0
       0.8323773 -0.19199249 1.1760315 -2.2053642
000010 b4 8d f4 be 70 3f 01 bf 51 80 08 bf 55 47 02 40
       -0.4776436 -0.5048742 -0.53320795 2.0356038
000020 df 8a 03 3f e0 0d 8f 3e 00 ce a5 3f 0a 40 33 c0
       0.51383775 0.27940273 1.2953491 -2.8007836
000030 ec 60 55 3f 59 c5 93 3f 4b 55 90 3f 84 9b 76 3d
       0.83351016 1.1544601 1.1276029 0.060206905
000040 b7 df 92 3f 1f af e5 3e 8f 5d 84 3f c8 18 5c be
       1.1474522 0.4486017 1.0341052 -0.21493828
000050 f1 05 e5 3d 00 e3 32 40 be 6b 35 40 83 24 ab 3c
       0.11182774 2.795105 2.834701 0.020891434
000060 87 d1 18 3f 17 e9 a3 be e1 fc 34 bf bb 00 09 40
       0.59694713 -0.3201377 -0.7069836 2.1406696
000070 b7 73 9b 3e 3c 7a d3 be b4 43 3b 3e 8e de c8 3f
       0.3036172 -0.41304195 0.18287545 1.5692918

combined_encoder.patch_embedding.position_embeddings f4 [1, 38, 32]
000000 66 b6 68 be 94 d9 83 bf db 97 27 bc c2 c7 b5 bf
       -0.2272583 -1.0300775 -0.010229076 -1.4201586
000010 66 46 a1 bf 0b 45 b0 3e 59 e9 80 bf 42 bc 36 3e
       -1.2599609 0.34427676 -1.0071212 0.17845252
000020 a9 43 a3 bf 16 8b 0b 3f 81 95 59 bf 4c 93 33 bf
       -1.2755023 0.54509103 -0.8499375 -0.7014663
000030 8c ed 85 3f 70 14 39 3f ac 8b 5a 3f 08 70 03 bf
       1.0463119 0.7229681 0.8536937 -0.5134282
000040 c8 af 80 bf 24 4c 40 3f f2 3b ee be dd 17 cd 3f
       -1.0053644 0.7511618 -0.4653011 1.6022907
000050 d5 6b f6 3f 48 ed ef bf 51 18 3f 3f fa b5 0e bf
       1.9251658 -1.8744287 0.7464648 -0.55746424
000060 2b ea 73 3f d4 cc 8c 3e 26 88 87 bf 25 9e 4f 3f
       0.95279187 0.2750002 -1.0588424 0.81100684
000070 b7 83 5e 3f fa 17 b8 bf 71 1a 49 3f 1e e1 66 3c
       0.8691973 -1.4382317 0.7855597 0.014091758
000080 e0 d6 0d 3d 92 85 f9 bd 05 ac 82 be 43 b5 fc 3e
       0.03462875 -0.1218368 -0.25521865 0.49357042
000090 00 01 84 be 00 c8 22 bf 88 14 48 3f 4d 58 69 bf
       -0.25782013 -0.63586426 0.7815633 -0.9115036
0000a0 2e 76 31 3f 57 e9 63 bf f1 2a 22 40 96 6e 3d bf
       0.6932095 -0.89027923 2.533871 -0.73996866
0000b0 1b 08 51 3e e1 64 45 3e 55 e3 46 bf ed 77 bd bf
       0.20413248 0.19276763 -0.7769063 -1.4802223
0000c0 c2 f8 8c 3d 90 72 4f bd 77 70 26 bf 1f 3a 0d 3f
       0.06883384 -0.050646365 -0.6501536 0.5516681
0000d0 df fb 24 3f 9c 6e ab 3f 5a 77 a0 3e e4 14 99 be
       0.64446825 1.339313 0.31341058 -0.2989875
0000e0 4e 66 28 bf 45 70 88 3e cd ef 40 3f 9f 38 2e 3f
       -0.65781105 0.26648155 0.75365907 0.68055147
0000f0 42 71 b4 3e 4d a8 1d bf dd 24 26 bf fe c3 c1 bf
       0.3524266 -0.6158493 -0.649 -1.5137937
000100 93 82 3c 3d 6d ec 04 bf 6c a1 a8 3f 76 de 39 c0
       0.046022963 -0.5192326 1.3174262 -2.904203
000110 2a 9a 05 c0 7a 9c eb bf c8 0a 89 bf 0c d0 b2 be
       -2.0875344 -1.8407128 -1.0706415 -0.34924352
000120 c5 6b d6 bd 4a 53 c7 bf 7f 54 1d 3f b7 37 5d bf
       -0.10469774 -1.5572293 0.61457056 -0.8641314
000130 04 e2 bf 3f e6 eb a7 3f d4 1b 77 3f d8 88 d8 bf
       1.499085 1.3118865 0.9652684 -1.6916761
000140 52 e8 16 be c4 8c c8 3f 06 a2 f4 3e ba a8 92 bf
       -0.1473706 1.5667958 0.47779864 -1.1457741
000150 14 da 32 3f 37 4a d0 be a8 8f a8 bf f5 93 a3 3f
       0.6986401 -0.4068162 -1.316884 1.2779528
000160 f9 46 94 bf 01 a4 bf bf 1f 0b 4a 3e 7b 3c 04 3f
       -1.1584159 -1.4971925 0.19730805 0.51654786
000170 bd 58 87 3f 9d d3 f7 bb f6 fb 6a be f1 ba 1d 3e
       1.0573956 -0.007563068 -0.22947678 0.15403344
000180 c3 02 31 c0 df 50 c8 3d ca 38 df 3e 5c 69 1f 40
       -2.7657936 0.0978105 0.43598014 2.4908056
000190 c4 f3 b8 bf ab 0b 89 be cb 7e 9b bf cd 73 30 40
       -1.4449391 -0.26766714 -1.2148069 2.757068
0001a0 da 6a 88 3f 26 35 15 c0 1b bb 66 3e 81 64 af 3e
       1.0657609 -2.331369 0.22532313 0.34256366
0001b0 f3 ac c5 3a 58 97 ca bf 87 d9 c4 3e be 6d b3 bf
       0.001508145 -1.5827436 0.3844721 -1.4017866
0001c0 0f 67 43 3e 06 c5 61 3f be 86 e6 ba 7e 28 a6 be
       0.19082282 0.8819126 -0.0017587764 -0.32452768
0001d0 2d c2 a5 3f 17 25 e1 be 4c 2a 8c bf 64 19 65 bf
       1.2949883 -0.4397361 -1.0950408 -0.8949187
0001e0 98 a9 00 3f 5f 55 4a 3f b4 ec 2a 3c be 31 28 3e
       0.5025878 0.79036516 0.010432411 0.16425225
0001f0 ae 27 be 3f d5 17 52 bf 2c e6 80 3c a7 2e 01 40
       1.4855859 -0.82067615 0.015734755 2.0184724
000200 53 83 6f bf a3 b9 2f c0 ac c8 4d 3e ee 4d c7 be
       -0.9355976 -2.7457054 0.20096081 -0.38926643
000210 46 53 2b 40 91 1b 90 3f fa d6 1c 3f d3 51 3e 3f
       2.6769576 1.1258413 0.6126553 0.74343604
000220 0c 02 86 3e 95 90 64 3f 1c a5 05 3f 4d a6 35 bf
       0.26173437 0.89283115 0.5220506 -0.7095688
000230 7c 4e cd 3e a6 af 52 3f 9f b4 84 bf 23 62 ba 3e
       0.4009894 0.8229927 -1.0367621 0.36402997
000240 5f 94 06 c0 63 79 0e 3e 92 6c f6 be 5e 8c c2 bf
       -2.1028059 0.13913493 -0.48129708 -1.5199087
000250 7b 9c eb bf 67 b6 82 3f 8e 53 a4 3f f9 98 4f 3f
       -1.8407129 1.0211915 1.2837999 0.8109279
000260 d1 fe 90 3e 99 16 03 3e e8 30 0b 3f 76 5f ce 3f
       0.2831941 0.12801589 0.543715 1.6122882
000270 5a 3c 00 c0 63 df 30 3e 64 e3 8d bf 72 80 2c 3e
       -2.0036836 0.17272715 -1.1085019 0.16845873
000280 1f 24 10 3f 3f df cb be 1a 79 f0 3e cc f2 5a bf
       0.56305116 -0.3981876 0.46967393 -0.8552673
000290 a4 97 2d 3c bf 61 e1 3e 47 f1 a7 3e 05 20 57 bf
       0.010595236 0.44019887 0.32801268 -0.8403323
0002a0 46 74 70 bf 30 6a 9b bf ea 5a f2 3f 6a 73 98 3f
       -0.9392742 -1.2141781 1.8933995 1.1910222
0002b0 f6 af 4d 3f d7 5a c9 bf 99 21 18 bf 0f 5e 32 40
       0.8034662 -1.5730847 -0.59426266 2.786991
0002c0 93 83 03 c0 b1 32 51 3e a9 c7 71 bf f0 aa dc be
       -2.0549057 0.20429493 -0.9444528 -0.43099165
0002d0 c5 77 be 3d 8c 74 8d 3f b8 0e 58 3f ec 1e 8c bf
       0.09300188 1.1051192 0.8439746 -1.0946937
0002e0 bf 7a 89 bf ba dc eb 3e ee dc 80 3e ea 1e c5 bf
       -1.0740584 0.46066839 0.25168556 -1.5400059
0002f0 2b b0 02 bf ee 75 7b 3f f7 4b 4c be 14 11 0d 3e
       -0.5105006 0.9822682 -0.19950853 0.13776046
000300 50 6c fd bf a2 88 e2 3f e5 4e 2c 3e 8b 2e 85 bf
       -1.9798679 1.7697947 0.16826971 -1.0404829
000310 2f 9d 47 be a1 ae f4 3e a7 31 fc bd e6 0c 59 3f
       -0.19493555 0.4778948 -0.12314158 0.84785306
000320 b3 35 48 bf 90 ad 53 3f d2 7a 46 bf 51 b6 48 3e
       -0.7820694 0.8268671 -0.7753116 0.19600798
000330 fb 9e d1 3e 7d cb c1 3f bc 7c 9d 3f 23 51 2e bf
       0.40941605 1.5140225 1.2303691 -0.68092555
000340 2f 95 56 be 89 ae 24 be 6c 79 e7 3f b7 b7 ea 3e
       -0.20955347 -0.16082205 1.808393 0.45843288
000350 4f 09 d6 bf c5 b9 ec bc 93 c4 b2 3f 40 9e 4e 3f
       -1.6721591 -0.028897176 1.396624 0.8071022
000360 30 20 81 be d1 2c 9a 3d a1 0e 1f 3e f3 ac 81 3f
       -0.2521987 0.07528079 0.15532924 1.0130905
000370 af 90 29 bf 31 7c f5 bf 15 ca 74 bf 02 9b 33 3f
       -0.66236395 -1.9178525 -0.9562085 0.701584
000380 08 ef da be a8 39 5a bf 02 8a c4 3f ee 4b 4f 3f
       -0.4276049 -0.85244226 1.5354617 0.80975235
000390 11 e8 a1 3f 9f d5 8f 3f 1d 3a 8c bf 0a 3b 4d 3d
       1.2648946 1.1237067 -1.0955235 0.050105132
0003a0 e3 7d 1a bf 79 c5 e8 3d 00 3e 54 3f 20 e0 90 3f
       -0.6034834 0.1136579 0.82907104 1.1318398
0003b0 fb 82 a3 3f db 74 da be e5 b5 85 be 21 ed 4b be
       1.2774347 -0.4266728 -0.26115337 -0.19914676
0003c0 b5 fb 23 3e 73 90 1e bf 35 b1 c6 be 41 55 86 bf
       0.16013987 -0.6193916 -0.38807073 -1.0494767
0003d0 c8 63 a0 be 9d 11 0e 3f a3 1b a4 bb f5 25 9d 3e
       -0.31326127 0.55495626 -0.0050081774 0.3069302
0003e0 5e 06 81 bf 40 5e ca 3d 9e 27 4d 3f e9 c3 b1 bf
       -1.0080068 0.09881258 0.80138576 -1.3887912
0003f0 88 8e f1 3d 36 18 1a 3f cb 3c a3 3c 2c 7e 82 3f
       0.11794764 0.6019319 0.01992645 1.0194755

combined_encoder.patch_embedding.patch_type_embeddings f4 [4, 32]
000000 9c 42 04 bf 3b 09 08 3f bd fb 83 bf 30 bf db 3e
       -0.5166414 0.53139085 -1.03112 0.42919302
000010 30 c4 f8 3e ec 7a e6 be bf c2 8e bf 5c 8f 8c 3f
       0.4858718 -0.45015657 -1.1153182 1.098125
000020 d4 6c 80 bf 1a 88 ee 3e 12 e3 48 3f b8 7b c8 bf
       -1.0033212 0.46588212 0.7847148 -1.5662756
000030 37 79 d0 3e c4 63 a5 be f7 4b bb 3f 83 ad 9b bf
       0.4071748 -0.32302678 1.4632558 -1.2162327
000040 7c 8b f4 3f d1 eb 17 c0 70 a1 2f bf e1 4c c5 3f
       1.9105067 -2.373768 -0.6860571 1.5414087
000050 76 fb 92 bf 5b 3f a3 3e 03 1e 0e bf bd 18 69 3d
       -1.148299 0.31884274 -0.55514544 0.056908358
000060 2a 5f 60 bf 8d dc f8 3e 83 2e 04 c0 ad 1e 6c bf
       -0.8764521 0.48605767 -2.0653389 -0.9223431
000070 b6 50 91 bc 91 5c 94 be 33 0a fb be 66 7a 03 be
       -0.017738681 -0.28976873 -0.4903122 -0.1283966
000080 b9 28 6d bf 0a 5d c6 3f bb 71 46 3f f8 e0 9a bd
       -0.9264026 1.5497143 0.7751729 -0.07562441
000090 7e d1 1f 40 71 b1 23 bf 84 a2 a7 be 01 b6 dc 3e
       2.4971614 -0.6394263 -0.32741177 0.43107608
0000a0 1c c5 92 bf 75 2e 51 be e3 34 6a bf 1c d5 30 3d
       -1.1466403 -0.20427878 -0.9148695 0.043171987
0000b0 e6 78 e4 3f ec a0 25 bf b8 12 0b bf 00 0f 0b 40
       1.7849395 -0.6469867 -0.5432544 2.1727905
0000c0 cf 08 10 40 af 53 e3 be f2 8e bd 3f d4 b3 c8 3f
       2.2505376 -0.44399783 1.4809248 1.5679879
0000d0 b3 7a 32 bf 45 32 52 bf cf ff e3 bf a0 2b 5d bf
       -0.69718474 -0.82107955 -1.7812442 -0.8639469
0000e0 f0 e1 f4 be 48 e9 b5 bf c7 b5 18 3e f2 36 d3 3f
       -0.47828627 -1.4211817 0.14913093 1.6501143
0000f0 69 e9 04 3f e6 21 60 be 02 82 17 3f b3 c0 8f 3f
       0.51918656 -0.21887931 0.5918275 1.1230682
000100 1a 24 e8 be 2a e4 7c bf 67 5b 7c bf af 39 b5 3f
       -0.45340043 -0.9878565 -0.9857697 1.4158229
000110 c4 3a 5e 3f 7a 7a 21 be ec 5d e6 be 78 af 2e 3e
       0.8680842 -0.15769377 -0.44993532 0.17059124
000120 d6 b9 b8 be 74 ed 22 40 2e d2 f0 be d0 f9 eb 3e
       -0.36079282 2.545743 -0.47035354 0.4608903
000130 bf 88 ee be 62 ac c1 3e e0 28 50 3f 6d 0e ef 3e
       -0.46588704 0.3782683 0.8131237 0.46690693
000140 7f 69 93 3f cd 76 ae 3f 87 ff 20 bf 84 43 6a bf
       1.151657 1.3630005 -0.62889904 -0.9150927
000150 76 d9 cf 3f db e9 e8 3f 44 41 9c 3f fe c7 61 bf
       1.6238239 1.8196367 1.2207417 -0.8819579
000160 d4 53 ed be e7 88 75 3f 26 2b a8 be 6c 74 16 3f
       -0.46353018 0.9591202 -0.3284542 0.58771396
000170 ac 7d bc 3f 77 ef 01 c0 b6 31 75 bf 41 3b 4f be
       1.4725852 -2.0302408 -0.9577898 -0.20237447
000180 f5 31 d9 bd 10 cb c4 3e 0a 4e 44 3f c3 5d 98 3f
       -0.10605232 0.38436174 0.7668158 1.1903614
000190 1c 5a a5 be 3d 11 80 3f 5e ac ec 3f 29 6f be bf
       -0.3229531 1.0005261 1.8490102 -1.4877673
0001a0 ab a5 a2 be 32 b5 0f bf 26 73 7a bf 6e 7e d2 be
       -0.3176702 -0.5613586 -0.9783195 -0.41112083
0001b0 a3 72 e1 bf b2 17 03 bf e1 a7 9b 3e 8e c3 6f bf
       -1.7613109 -0.5120803 0.3040152 -0.9365777
0001c0 5d 10 ab 3f 47 80 a3 be a9 5d aa 3e 65 fd 72 3f
       1.3364369 -0.31933805 0.33274582 0.949179
0001d0 0d 2a cb bf a9 2c a2 bf 14 2b 45 bd c4 1a 03 3e
       -1.5872208 -1.2669879 -0.048136786 0.12803179
0001e0 fb 26 e4 3f 1d ea 05 bf 54 06 17 3e 82 da b1 3f
       1.7824396 -0.52310354 0.14748508 1.3894808
0001f0 ae 00 72 3f b9 91 df 3e 82 10 e3 bf 98 08 9c 3f
       0.9453229 0.43665865 -1.7739413 1.2190123

combined_encoder.patch_embedding.patch_convs.fine.weight f4 [32, 45, 2]
000000 88 84 d6 3d 8b ea b3 3d 42 2b 36 3e 31 4d 64 bc
       0.10474497 0.0878497 0.17789939 -0.0139344195
000010 ac 13 a8 3c 30 5a 8b bc 94 c2 06 3c fa 14 47 bc
       0.020517193 -0.017010778 0.008225102 -0.012150997
000020 57 ee 06 3e 24 cb 16 bd 66 09 73 3b e7 cd 0e 3e
       0.13176857 -0.036814824 0.003708446 0.13945733
000030 df 17 00 bd 21 d4 40 3d 5f b6 05 bd a4 9a ad 3d
       -0.031272765 0.047077302 -0.032644626 0.08476761
000040 b8 ba 91 3c 02 73 07 3e 22 24 ed 3d 29 83 d6 3d
       0.01778923 0.13227466 0.115791574 0.104742356
000050 04 9e c8 bc d8 88 b5 3d 1e 14 e8 bd d3 89 8a bd
       -0.02448941 0.088639915 -0.11331962 -0.06764569
000060 22 f5 52 3d 52 80 99 bd 7e 7e 50 3c 26 98 82 3d
       0.051503308 -0.07495178 0.012725471 0.06376676
000070 23 ef 35 bd ec fc 3b 3d 5a 0a ad 3d a5 4b d2 3d
       -0.04441751 0.045895502 0.0844924 0.10268334
000080 06 8c cc bd ea 3f 1a bd f8 b0 f1 3d 0f e0 d7 3d
       -0.09987645 -0.03765861 0.11801332 0.10540783
000090 eb 0d 27 bd bb 91 0f 3d 29 2e f9 3c 8f d7 67 bd
       -0.040784758 0.03505109 0.030417519 -0.056602057
0000a0 18 57 81 bd b1 21 b9 bd a2 2c 38 3d 5b 36 35 3d
       -0.0631544 -0.09039629 0.04496444 0.04424129
0000b0 19 19 e4 3d e6 e1 e8 3d b3 ef 12 bd b2 23 7b bd
       0.111375995 0.11371212 -0.035873126 -0.06131334
0000c0 5b c8 e9 3b 81 80 09 3d 01 50 ab 3d ba d8 8f 3d
       0.00713448 0.033569816 0.08364869 0.07023759
0000d0 10 47 a0 3d 0a 02 f6 3d fc e8 cd 3d 41 c4 fa 3c
       0.07826054 0.12012108 0.10054204 0.03061116
0000e0 8c ca 60 3c dc b4 cc 3c 90 8b 53 3d bf b7 09 3d
       0.013720166 0.024988584 0.05164677 0.0336225
0000f0 d1 bc 34 bd ac 6a cd bd f9 90 aa 3c c3 d6 12 bd
       -0.04412538 -0.10030112 0.020821081 -0.035849344
000100 97 df 6f 3d 26 2a b1 bd 4a 26 9d 3d 6c eb 4f bc
       0.05856284 -0.08650617 0.07673319 -0.012690406
000110 b5 c2 89 3d be d5 dd 3d 12 68 d9 3d 63 f0 35 bc
       0.067265905 0.10831784 0.10615553 -0.011104676
000120 b8 f1 9e bd ae 1e c6 3d 7c 86 58 3d a3 f6 e4 3d
       -0.07760948 0.096738204 0.05286263 0.11179855
000130 95 0c f5 3c 68 8b 0a bd 8a f8 d6 bd 62 ec fe bd
       0.029913226 -0.033824354 -0.10496624 -0.1244743
000140 e1 7d b6 3d 44 48 11 3d a7 18 9d bd 57 a4 24 bd
       0.08910728 0.03546931 -0.07670718 -0.04019579
000150 be 5f c3 3d 3a e1 8b bb e6 5a d1 bc 72 d6 28 bd
       0.09539746 -0.0042687925 -0.025556039 -0.041220136
000160 ff 53 78 bd 03 19 8d bc 9e a7 c3 bc 7e 63 b8 3b
       -0.06062698 -0.01722384 -0.023883637 0.005627095
000170 fe 21 26 3e 7e 17 a3 3d f2 ea bc 3d 75 c2 a2 3d
       0.16223904 0.07963465 0.092245 0.07947246
000180 01 40 2b bd 98 cd 12 3b 59 5a aa 3d 16 65 00 3e
       -0.041809086 0.0022400375 0.08318014 0.12538561
000190 07 2b bb 3c b0 23 23 bd 6c 3f 23 bd 13 d9 4d bc
       0.022847665 -0.039828956 -0.039855406 -0.012563962
0001a0 cb e7 c2 bc 7a 33 70 3d a6 68 f7 3d 91 66 3c 3c
       -0.023792168 0.058642842 0.12080507 0.011499063
0001b0 3d 41 23 3e ac aa 0f 3e 3b e7 51 3b 8f 4d e7 3d
       0.15942855 0.1402995 0.0032028693 0.1129409
0001c0 e7 cc e6 bc b4 f8 8f 3b f9 4e 2b be 93 63 6e bc
       -0.028173877 0.0043936614 -0.16729344 -0.0145501075
0001d0 6d 61 b6 3d 15 89 5b bd a7 12 37 3d 45 fc a3 3d
       0.08905301 -0.05359753 0.044695523 0.08007101
0001e0 9e d1 a5 3d 51 f8 be 3d ca b6 62 bd 6e d2 64 3c
       0.08096622 0.09324706 -0.055350102 0.013966186
0001f0 73 6b eb 3d cf 10 31 3d 9c 94 aa bc ab 45 73 bd
       0.11495104 0.04322892 -0.020822816 -0.059392612
000200 96 8c 84 3d b1 c7 55 bd d6 aa b1 3d cc 6c 01 bd
       0.06472127 -0.052192394 0.086751625 -0.031597897
000210 26 5b d4 3d d0 04 50 3d 2b c7 35 3d 3b 82 15 3e
       0.10368948 0.05078584 0.044379395 0.1460046
000220 bb 1c c8 3d 49 e9 9c 3d 1f 7d c4 3c 39 57 f4 3c
       0.09771105 0.07661683 0.023985444 0.029826747
000230 c9 07 14 3e d2 d1 06 3e b1 42 a9 3d 19 44 52 3d
       0.14456095 0.13165978 0.082646735 0.051334474
000240 84 17 09 3c d4 f0 a2 bd a5 4a 6c bd 6c 3f d8 ba
       0.008367423 -0.079560906 -0.057688374 -0.0016498393
000250 97 83 91 3d ca 13 23 bc b1 e4 7d bc 2e 1b 07 be
       0.07105177 -0.009953449 -0.015496419 -0.13193962
000260 c5 8c 9e 3d 88 e0 d5 3b 73 84 d0 bd 43 cf 52 3c
       0.077416934 0.0065270104 -0.10181513 0.012866798
000270 cf f4 92 3c 4e d1 db 3d 0e e9 61 3d 6f 52 07 3e
       0.017939 0.10733281 0.0551539 0.1321504
000280 4b c0 d2 3d 11 24 7e 3d 11 ac b2 3d 92 af e1 3d
       0.10290583 0.062046114 0.08724225 0.110198155
000290 45 91 08 3e 80 ad 19 3d fe 22 ed bd 1c f8 83 bd
       0.13336666 0.037518978 -0.1157894 -0.064438075
0002a0 ef ad 9b 3c 8d 45 7d bd f8 e3 01 3e 79 3d 2d bd
       0.019003836 -0.061833907 0.1268462 -0.042294953
0002b0 5f ec 00 3e 73 cd 09 3e 61 71 18 3d 6c ee b1 3a
       0.12590168 0.13457279 0.0372175 0.0013575084
0002c0 44 d9 0a bd 8b bb c7 3b 20 4d 2b 3d 3c 27 97 bd
       -0.033898607 0.006095355 0.0418216 -0.0738053
0002d0 6a da 50 bd 08 90 0b bd 68 58 11 3e 8d 0a bf 3a
       -0.050989546 -0.034072906 0.1419388 0.0014575288
0002e0 80 b9 91 bd 15 ec 80 3d 59 1b 64 3d 2a 43 76 bd
       -0.071154594 0.06295029 0.055690143 -0.060122646
0002f0 31 09 40 bb 1d a7 38 bd 25 06 fe bc 3b 77 3e bc
       -0.0029302354 -0.045081247 -0.03100879 -0.011625106
000300 41 61 c8 3d cf dc 03 bd 5c 8f b1 bb ab a0 01 3d
       0.09784175 -0.032193 -0.005418701 0.031647366
000310 cd 34 ac 3d 91 e3 8e 3d e8 03 d1 3c 4e 5e da 3d
       0.084085084 0.069769986 0.025514558 0.106625184
000320 d8 a4 25 3d df 40 81 bb 8a 08 67 bd 0b de 93 3d
       0.04044041 -0.003944501 -0.056404628 0.07220086
000330 17 5d 28 bb 29 1a 06 3d 24 c2 4f bd 96 b6 08 bd
       -0.0025690251 0.032739792 -0.050722256 -0.033377253
000340 2e b5 05 3d 62 10 9b bd a6 5a 53 bc 1f 54 98 3c
       0.03264349 -0.07571484 -0.01290003 0.0185948
000350 26 72 6d 3d bf c5 a7 3d 70 8c 96 bd 21 c0 e6 bc
       0.05797019 0.08192014 -0.07351005 -0.028167786
000360 7d 78 2f 3d b6 82 16 3c 13 40 72 3c 3a a1 d2 3d
       0.042839516 0.009186437 0.014785784 0.10284658
000370 d8 eb b2 3d 49 ba b5 3d c9 8c 89 3d 1d d8 87 3b
       0.0873639 0.08873422 0.06716306 0.0041456358
000380 eb 17 8d bd 89 ff 8c 3d 56 a6 f2 bd 3a 5c 38 3d
       -0.068893276 0.06884677 -0.11848132 0.04500983
000390 e8 18 b1 bc d8 48 26 bd 0d 02 8e 3d d2 31 04 3d
       -0.021618322 -0.040596813 0.06933985 0.032274075
0003a0 d2 a4 99 bd ad f7 13 3d e4 bf c6 3c ee 06 07 3e
       -0.0750214 0.036124874 0.024261422 0.13186237
0003b0 21 91 90 bd 4a 53 79 bd 89 3c be 3d ce 8b 62 3d
       -0.07058931 -0.060870446 0.0928889 0.05530911
0003c0 11 e3 9a bd be d4 2b be 32 c0 c6 3d cd 3b 8d 3d
       -0.07562841 -0.16780373 0.09704627 0.06896172
0003d0 bc 8b 0d 3c 03 b2 a9 bd 4e 13 87 3d c3 87 01 3e
       0.008639272 -0.08285906 0.06595479 0.12649445
0003e0 45 29 f8 3c 4d 70 c4 3a 5d 04 86 3c 9e 27 17 3e
       0.030293116 0.0014987082 0.016359502 0.14761207
0003f0 d6 6d 4a bd 0d f2 95 3d a9 1e 7f 3d 85 a2 92 3d
       -0.049421154 0.07321558 0.0622851 0.071599044

combined_encoder.patch_embedding.patch_convs.fine.bias f4 [32]
000000 4b 8d a7 bc 11 c6 4f bd ce f7 a1 3d 9a ab ef 3c
       -0.020453116 -0.050726 0.07908593 0.02925663
000010 8c 48 af bc 2b 16 ba 3d 64 c0 fc bd 34 b3 15 3d
       -0.021396898 0.090862595 -0.12341383 0.036547855
000020 fe ed 9f bc e2 ba ad 3d 51 fd 12 be e0 fe 2f 3d
       -0.019522663 0.08482911 -0.14354445 0.042967677
000030 0c 97 cf 3d 41 ba 34 b9 5a 0d 22 3c ab 11 1c be
       0.10136232 -0.00017235523 0.009890879 -0.15241115
000040 c1 cf 2c 3d 77 f1 08 bd b8 5e c4 3d 93 ec 1d be
       0.042190317 -0.033433404 0.09588379 -0.15422277
000050 95 f4 78 bb 07 a9 15 3e 61 e7 86 bd 61 05 1a 3d
       -0.003798758 0.1461526 -0.06587101 0.037602786
000060 90 24 61 3d 78 67 2e bc 9e 8d d1 bd f6 7b 8f bd
       0.05496651 -0.010644786 -0.102320895 -0.070060655
000070 49 f4 00 3d cd d3 ef 3d 15 19 6e 3d 48 29 1f bc
       0.03148297 0.1171032 0.05812939 -0.009714432

combined_encoder.patch_embedding.patch_convs.medium.weight f4 [32, 45, 4]
000000 9a a8 c9 bc f3 d5 99 ba d9 72 a6 bd 0f 87 3f bd
       -0.024616528 -0.0011736735 -0.08127374 -0.04675966
000010 c7 bc 10 bd 47 a0 ac 3d 94 39 a7 bc 7f 90 b5 bc
       -0.035336282 0.08429008 -0.020413198 -0.022163628
000020 7e 0d a5 3d 47 4e f0 3c 52 b3 c1 3d 7f 65 36 3b
       0.08059214 0.0293342 0.09458031 0.0027831492
000030 0d bd c7 3d 13 e2 13 3c 6e 80 c7 3c 60 ea 77 3d
       0.097528554 0.009026068 0.024353232 0.06052625
000040 8e 3f 79 3c 44 19 ae bb 47 f6 8a bc f5 f0 d2 39
       0.0152129065 -0.0053130705 -0.016963137 0.00040233848
000050 00 ff 6e 3d 78 88 a0 3d b0 b4 ed bb 3e a9 cf 3d
       0.058348656 0.07838529 -0.0072542056 0.10139702
000060 d7 da 49 3d 42 dc e3 bb 97 b5 8d 3b 5a d9 30 bd
       0.049280968 -0.006953747 0.0043246257 -0.043176033
000070 8c 98 48 3c e9 b6 fb 3d 9c 67 db bb d3 b3 37 3c
       0.012243401 0.12290747 -0.006695701 0.011212307
000080 fa 6b 1d ba f9 bc a4 3d 59 f8 21 3c 18 05 a9 3d
       -0.00060051645 0.08043856 0.009885871 0.08252925
000090 48 9f ca 3c 14 e0 ca 3d cd 42 8c 3d 98 fe 83 3c
       0.024734154 0.09906021 0.06848679 0.01611261
0000a0 0b af 7c 3d ae 49 62 3d 6a f8 ef 3d 0c d9 1f 3c
       0.06169037 0.055246048 0.11717303 0.009756338
0000b0 77 50 ed bc f4 64 59 3c ca e5 81 3d 50 21 84 3c
       -0.028969033 0.013268698 0.06342657 0.016129166
0000c0 e0 8f a8 3d b8 44 5a bd 21 f8 10 3d 43 17 de 3c
       0.08230567 -0.05328819 0.035392884 0.027110701
0000d0 0e 13 b8 bc db 71 99 3c 65 38 cf 3a 38 32 84 3d
       -0.022470023 0.018731048 0.0015809654 0.06454891
0000e0 e0 0c 33 bd 33 47 42 bd 98 77 7c 3d 1f c0 17 bc
       -0.04371345 -0.047431182 0.06163749 -0.009262114
0000f0 e6 6e 3c bb 25 37 0d bc 02 82 00 3d 86 03 95 3d
       -0.0028752624 -0.0086191045 0.031373985 0.07276063
000100 3b ea ab 3d 36 7b 67 3c ea 65 06 bd e2 23 2b bd
       0.08394285 0.014128497 -0.032812037 -0.041782267
000110 bc b3 21 bd 70 98 0d 3b d0 4e 77 3d f0 73 78 bd
       -0.03947805 0.0021605752 0.060377896 -0.06065744
000120 bf 0f 8a 3d fa 1f d8 bc fe 9b 96 bc 60 14 c0 3c
       0.067412846 -0.026382435 -0.01838493 0.023447216
000130 8a 49 88 3d 9c de 36 3d a7 c9 d1 3c 0e ea 7c 3d
       0.066546515 0.04464589 0.02560885 0.06174665
000140 af cb 41 3d ed f1 f9 bc 0a 85 16 3b 17 67 68 bd
       0.04731339 -0.030510867 0.002296748 -0.05673894
000150 1f c3 91 3d 02 18 2a bd 40 cd 76 3d a9 59 47 bd
       0.071172945 -0.041526802 0.060254335 -0.04866949
000160 4c 72 35 bd 43 b9 8b bd f7 b6 85 3c 1b 57 b1 bd
       -0.044298455 -0.06822445 0.016322596 -0.08659192
000170 6e e0 91 3d 48 f3 21 bd e1 93 98 bd 7e 8b ed 3b
       0.07122885 -0.03953865 -0.07450081 0.007249295
000180 52 d3 64 3d 35 bb db bb d3 fa 24 bd 75 0e 91 3c
       0.055865593 -0.0067056664 -0.040278267 0.017707089
000190 37 f2 04 bc b0 52 07 bc f5 2e 2f bd 44 a1 c4 bd
       -0.008114389 -0.00825946 -0.04276939 -0.096010715
0001a0 44 32 4d bd 87 f0 27 bd 12 a9 2f 3d 92 7b 3f bd
       -0.050096765 -0.04100087 0.042885847 -0.046748705
0001b0 b2 1b 9d bd 34 c4 7a bd 1b 40 03 bd ea e7 19 3b
       -0.07671298 -0.06122227 -0.032043558 0.0023484179
0001c0 0a bf 8c 3c c0 03 61 bd 96 b6 bb bb 6c c5 9d bc
       0.017180938 -0.054935217 -0.005728553 -0.019259177
0001d0 28 3f eb bc 6b 1f 40 3d 73 d1 9b bd a3 88 29 bd
       -0.028716639 0.046904963 -0.07608309 -0.041390073
0001e0 fc 4d 51 bc 6b 76 dd 3a cb 53 95 bc 86 76 42 3d
       -0.012774941 0.0016896253 -0.018228432 0.047476314
0001f0 08 d1 9e 3d cb 56 44 3d 06 42 6b 3d c8 55 43 bc
       0.07754713 0.047934335 0.05743601 -0.011922307
000200 a5 9b 3c bd 47 dd 6d 3c c9 82 2d bd d9 11 53 bd
       -0.04604687 0.014518089 -0.042361055 -0.051530693
000210 29 85 b4 3d 77 95 2c bd 59 33 4b bd 97 cb 67 bd
       0.08814461 -0.04213473 -0.049609516 -0.056590643
000220 de 04 97 bd d5 14 2f 3c a9 02 96 bd cf 7f 63 bd
       -0.07373975 0.010686119 -0.07324726 -0.05554181
000230 84 47 a0 bd 4c fd c2 bd 69 3f a6 bd 1f 30 9c bc
       -0.078261405 -0.09520969 -0.08117563 -0.019065915
000240 37 b5 01 3d 5b 44 19 bb 3e 6a 43 3b 99 2a 58 bc
       0.03166696 -0.002338669 0.0029817964 -0.01319375
000250 3a 81 96 3b a0 11 90 bc c7 e6 2a 3d ea c6 0a 3d
       0.0045930417 -0.01758653 0.041723993 0.033881105
000260 b4 b2 1a bd 94 09 07 bd db 62 fd 3c d5 69 f8 bc
       -0.03776808 -0.03296812 0.030930927 -0.030323902
000270 51 52 66 bd cb aa 96 3d 66 ee 8d bd 6a 0d 01 3d
       -0.056230847 0.07356795 -0.069302365 0.031506933
000280 fb ff 98 3d f1 cc 45 3c da 81 08 bd f0 80 32 3d
       0.074706994 0.012072788 -0.03332696 0.043579996
000290 d2 1a 35 3c 0d 83 cf 3c 73 64 39 bd ab 5c 95 3c
       0.011053758 0.025331045 -0.04526181 0.018232664
0002a0 af a1 4b bd ad ba 43 bd 29 92 56 3d f7 e4 29 3d
       -0.04971474 -0.04778545 0.052385483 0.041478124
0002b0 96 a3 56 3d b8 42 29 bd 29 54 95 bc 2b 1d 35 bd
       0.0524021 -0.041323394 -0.018228607 -0.04421727
0002c0 ac 6b bd bc c3 c9 42 bd c0 22 a4 ba d4 4f 36 bd
       -0.023122631 -0.047555696 -0.0012522563 -0.044509724
0002d0 c7 4f 57 bd 19 fd 76 3d 7b c1 7f 3c b5 f3 f3 3c
       -0.052566316 0.060299966 0.015610094 0.029779295
0002e0 42 54 8a 3d 58 2d 3e 3d ac db 0d 3e 54 0a 15 3e
       0.06754352 0.046429962 0.1385333 0.14554721
0002f0 04 8c b2 3d 82 63 5b bd 39 88 a6 3d 10 9f 0a bd
       0.08718112 -0.053561695 0.08131451 -0.0338431
000300 14 0f 3a bc 39 e5 30 3d d2 20 0b 3d d5 50 5b 3c
       -0.011356134 0.043187354 0.033966847 0.013385971
000310 e9 bf 67 3d eb b9 c6 3d 45 30 bc 3d 84 83 2e 3d
       0.056579504 0.0970343 0.09188894 0.04260589
000320 b4 7a c5 3d 8f 7c 32 3d 9d 4e 8c 3d 48 94 b6 3d
       0.096425444 0.04357582 0.06850932 0.08915001
000330 06 0b db 3d 6a 5d b3 3d 2d 60 e1 3d c4 c4 a6 3c
       0.10695462 0.08758052 0.11004672 0.020357497
000340 3c 73 7d 3d 22 7f b9 3d 29 31 04 3c 5f 23 94 3d
       0.061877474 0.09057452 0.008068361 0.07233309
000350 c7 8a f8 3d 67 9b c6 3d 8b e8 de 3b 78 79 e5 3d
       0.12135845 0.096976094 0.0068026236 0.11204809
000360 d9 c8 54 3d e1 7c 97 bb 81 b9 3c 3c ef 2a a6 3d
       0.051949356 -0.004623041 0.011518837 0.08113658
000370 24 66 4b bc 36 8d c3 3d ea 79 8b 3d b4 cc 23 3d
       -0.012414489 0.09548418 0.06810363 0.039990142
000380 a7 cf a8 3c b0 a1 36 3d b5 cf 01 3d d5 09 cc bd
       0.020606829 0.04458779 0.031692225 -0.09962813
000390 b5 45 80 39 51 04 8a 3c 96 13 1a bd 1a 36 fc bd
       0.00024465998 0.016847761 -0.037616335 -0.123150066
0003a0 e1 8a c7 3b 1d 8f 42 bd 49 f6 0e bd 91 50 71 3c
       0.0060895537 -0.047499765 -0.034902845 0.014728681
0003b0 ba 8e 42 bd 0a 76 9f bc e0 9e 7f 3d 0a 22 4c bd
       -0.047499396 -0.019465465 0.062407374 -0.04983715
0003c0 0c 54 5d 3d d6 ff 11 3c 6b ab 29 bd 71 46 5f bc
       0.05403523 0.008911094 -0.041423243 -0.013627634
0003d0 f5 87 01 bd b4 64 ce bc 73 d3 13 bd a0 f4 8e 3d
       -0.0316238 -0.025194503 -0.036090326 0.06980252
0003e0 69 1d 8e bc 9c cb 71 3d 3d b3 0f 3b e8 cf 24 bd
       -0.017348008 0.059032068 0.0021926903 -0.040237337
0003f0 5e b6 fd bb 6f 4d 7c bd ea 8a 69 3d c1 3d 78 bd
       -0.007742687 -0.061597284 0.057017244 -0.060605768

combined_encoder.patch_embedding.patch_convs.medium.bias f4 [32]
000000 6c fc b5 3d 4e 2b a3 3d db cb e7 bd f3 c3 02 bd
       0.08886036 0.07967244 -0.11318179 -0.031925153
000010 f0 26 a7 bd d1 4f 61 3c fc 13 ca bd 4d 8c 57 bd
       -0.081617236 0.01375194 -0.09867093 -0.052624036
000020 a2 00 4a 3d b9 79 a0 3b 9d 05 89 3d 30 d0 4a 39
       0.04931701 0.004897323 0.06690524 0.00019341777
000030 3a 0d 43 3d 97 e0 bf 3d fd e4 cd 3c de 86 25 bd
       0.047620036 0.09369009 0.025133604 -0.040411822
000040 fd e2 a2 bd 49 bc 22 3d e7 18 fd 3d 60 7c 2d bd
       -0.07953451 0.039730344 0.12358265 -0.04235494
000050 03 30 f8 3c c2 8b 32 3d f5 aa 62 3d 1c 94 7d 3d
       0.030296331 0.043590315 0.05533882 0.061908826
000060 ba 27 8e bc 51 0a e0 bd ca 76 2a bd 1c 1b a9 bd
       -0.017352927 -0.10939468 -0.041617192 -0.08257124
000070 b4 1e 79 bd f4 33 79 bd 87 47 bf ba a4 9f cf 3c
       -0.060820296 -0.060840562 -0.001459346 0.025344677

combined_encoder.patch_embedding.patch_convs.coarse.weight f4 [32, 45, 8]
000000 3b c1 1b 3d 9e 1f 05 3d 9b f2 42 bd 93 6d a8 3c
       0.038026076 0.032500856 -0.047594648 0.020560062
000010 d8 d4 b8 3c 06 69 e7 3c cb d6 95 3c 65 32 27 bd
       0.02256243 0.028248321 0.018290898 -0.040819544
000020 a6 59 0e bd 7c 1f fc bd 5f ac 99 bd 8a 2a 8c bd
       -0.034753464 -0.12310693 -0.0750358 -0.06844051
000030 a6 a2 a2 bd 4a ed 86 bd be 2f fc bd 70 b4 5d bd
       -0.07941179 -0.06588228 -0.123137936 -0.054127157
000040 ba f6 1b bc 2f d3 82 bd 9c 89 aa bd f0 e2 89 bc
       -0.009519273 -0.06387936 -0.08327028 -0.016831845
000050 8f af d9 bc 43 65 5f bd 74 79 a8 bc c2 f6 26 bd
       -0.02657297 -0.05453993 -0.020565726 -0.04076267
000060 91 eb d1 bd f6 a3 ed bd c3 0b da bd f7 0d b7 bd
       -0.10250009 -0.11603539 -0.106467746 -0.089382105
000070 68 88 d8 bd bd 02 c9 bd 0c db af bd bf 81 c1 bd
       -0.105728924 -0.098149754 -0.08586702 -0.09448575
000080 44 c1 ba bd 50 d8 1f bd cc be 34 bc 22 89 c1 bd
       -0.09118894 -0.03902465 -0.011031818 -0.09449984
000090 4d 6a dc bd 0e 0b a1 bc a2 6e a6 bd 76 8e 68 bd
       -0.10762463 -0.019658592 -0.0812657 -0.056776486
0000a0 2d 46 36 bd de d5 de bc 4c 4f 22 bd 25 f4 83 bd
       -0.04450052 -0.02720159 -0.039626405 -0.06443051
0000b0 94 12 a5 bd 24 c7 2a bd 1c aa 59 bd 3b d2 4c bd
       -0.08060184 -0.04169382 -0.053140745 -0.05000518
0000c0 d1 bd 09 bd bc cd 23 bd 20 b9 45 bd d9 32 f3 3a
       -0.03362829 -0.039991125 -0.048272252 0.0018554582
0000d0 d5 06 b9 bd 6c 5a c8 bd 76 2e e1 bd f2 3f df bd
       -0.09034506 -0.097828716 -0.1099519 -0.109008685
0000e0 2e 56 ad bd 5c 54 da bd c1 88 b4 bd 2f 44 7f bd
       -0.08463703 -0.106606215 -0.08815146 -0.062320884
0000f0 f1 46 b9 bd 01 e4 ed bc ee a9 81 bd 24 36 76 bd
       -0.09046734 -0.029039385 -0.0633124 -0.060110226
000100 c0 86 b8 bd 60 40 43 bd 4b 44 8f bd 3b bd e7 bd
       -0.090100765 -0.047668815 -0.06995448 -0.1131539
000110 ad 95 08 be 22 4d 1e bd 09 b3 27 bd 77 9c fe bc
       -0.13338347 -0.03864778 -0.040942226 -0.031080468
000120 69 c3 8b bd 55 e2 d0 bd 71 95 49 bd e4 5b bb bd
       -0.06824381 -0.101994194 -0.049214784 -0.09148386
000130 9e 19 a9 bd ba e8 e6 bd 6b f0 e8 bd 75 7b bc bd
       -0.08256839 -0.11274858 -0.11373981 -0.09203235
000140 00 da 47 bd 3f 20 47 bd 34 c8 e8 bd f5 2c 07 be
       -0.048791885 -0.048614737 -0.11366311 -0.13200743
000150 b1 3e ff bd 83 f8 ec bd 7a f6 4e bd 45 eb d8 bd
       -0.12463129 -0.11570837 -0.050528027 -0.10591749
000160 69 83 f4 3c 91 58 ca 3c 55 ca 89 3b 04 73 12 bc
       0.029847817 0.024700435 0.004205028 -0.008938555
000170 70 63 e9 3d ef 08 2d 3c 67 c4 50 3c 32 4d a3 3d
       0.11395919 0.010561212 0.0127421385 0.07973708
000180 7c 28 05 3b 1d 74 37 bd f2 23 c2 bc a6 97 6b bd
       0.002031832 -0.04478847 -0.02369878 -0.05751767
000190 53 bc 99 3d 97 c3 a5 3d 58 ca f1 3c 6a 58 8c 3d
       0.07506623 0.080939464 0.02951543 0.06852801
0001a0 73 67 6b bd a7 23 b8 bd 85 97 ed bc 74 f1 bf bb
       -0.057471704 -0.08991175 -0.029002914 -0.005857641
0001b0 3d 8c d9 bc 42 9d a2 3c cf be ca bc f1 89 f3 bc
       -0.026556129 0.019850377 -0.024749188 -0.029728862
0001c0 a2 5f 20 bc cf 92 9b bd 3e 65 37 bc 6c 70 ff bc
       -0.009788426 -0.07596361 -0.011193572 -0.031181537
0001d0 fd 8d c3 bd 6a 68 8f bd a4 92 99 bd a8 c5 7c bc
       -0.095485665 -0.07002337 -0.074986726 -0.015427984
0001e0 ca e8 ba bc bb 47 2e bd 92 95 58 bd c7 5c a4 bd
       -0.02281608 -0.042548876 -0.052877016 -0.080255084
0001f0 1a 0c 3d bd fc 52 3d bd 9f df 97 3b 20 18 75 bd
       -0.04615412 -0.04622172 0.004634812 -0.05983746
000200 a4 30 e4 bb 39 f6 d5 ba 51 09 09 3d 33 8b 0c 3d
       -0.006963806 -0.001632399 0.03345615 0.03431244
000210 fc 28 b5 3c d8 50 36 3d 10 70 8c 3c 21 d4 d9 bc
       0.02211427 0.044510692 0.01714328 -0.026590409
000220 a4 f9 a8 bc cd fe 0d 3c 9b b8 2e bc 81 ca 43 3d
       -0.02062685 0.008666706 -0.010664131 0.047800545
000230 b8 6f c9 3c 03 6a 04 3d fa 32 25 3a cb 8b d1 bb
       0.024589404 0.032327663 0.00063018466 -0.0063948384
000240 bf 6a 25 bd 70 47 6a 3b 60 b4 64 ba 0f 80 00 3d
       -0.040385004 0.0035748146 -0.0008724388 0.031372126
000250 f6 32 0b 3d 3f 72 27 bd 2b 1f e4 bc 2b 9c dd 3c
       0.033984147 -0.040880438 -0.027846893 0.027052006
000260 5f 0b 9d bc 95 7d 64 3c cd d9 1e 3c 3b ea 82 bd
       -0.019170461 0.013945957 0.009695482 -0.06392332
000270 62 9d 07 bd 8b 50 2f bb 0a ba 23 3d 6f 06 67 3c
       -0.033109076 -0.0026750888 0.039972343 0.014100655
000280 92 50 cf bc cc d8 f4 bc 0e 2d 85 3c d0 4e 28 bd
       -0.025306974 -0.029888533 0.016256835 -0.041090786
000290 eb da a3 3c 59 95 02 3d 42 c4 13 3d 33 33 e1 3c
       0.02000185 0.03188071 0.036075838 0.027490234
0002a0 3f b6 3f bc 37 d0 1f bc b7 19 48 3d 0b 6f 35 3c
       -0.011701166 -0.009754232 0.04885265 0.011073838
0002b0 0f 3a bb bc ab 91 e3 bc b2 bf 2b 3c 5a a8 2b 3c
       -0.022854833 -0.02777942 0.010482715 0.01047715
0002c0 bb b7 05 3c 32 88 2d 3d b0 d7 b0 3c 90 9e 38 3d
       0.008161481 0.042366214 0.021587223 0.045073092
0002d0 e5 4a fe bc c8 3b 9f bc 21 21 33 bc 95 e1 d9 bd
       -0.031041572 -0.019437686 -0.0109331915 -0.106387295
0002e0 66 d6 1b 3d 3b 31 dc bc 77 f2 84 3d 5f 2f e7 3c
       0.038046263 -0.026878944 0.06491559 0.02822083
0002f0 53 b9 ee bc ca 7d ea bc b1 71 21 bd ae 23 ef bd
       -0.029141104 -0.028624434 -0.039415065 -0.11676727
000300 52 61 60 bc bf 9e 65 bd a4 f8 86 3b 1c 6e 95 3d
       -0.013695078 -0.056059595 0.0041189957 0.07296392
000310 bb a0 cf 3c e5 5e c5 bd f6 76 cf bd f2 17 d1 bd
       0.025345197 -0.0963724 -0.10130112 -0.10209645
000320 44 0a 73 3c 77 bb 0c 3c 32 a8 3f bb 6c 38 3c 3d
       0.0148339905 0.008589617 -0.002924454 0.045952246
000330 7f 7e 91 3b 07 b4 35 bd a9 06 c9 bd 69 48 01 bd
       0.0044401283 -0.04436114 -0.098157234 -0.031563196
000340 bc ab 0e 3d 77 b4 53 bd ac 83 e7 3c ac ac dd 3b
       0.034831747 -0.051685777 0.028261028 0.006764969
000350 72 12 83 bd 9e f0 7c bd 6c d6 f7 bb d6 f8 08 be
       -0.064000025 -0.061752908 -0.007563403 -0.13376173
000360 c4 54 d0 bc 20 6a 25 3d b0 85 59 bc ea ff 85 3d
       -0.025431044 0.04038441 -0.0132765025 0.06542952
000370 7b 58 67 bd ab b6 81 bd 93 cf cd bd ae de a7 bd
       -0.056480866 -0.06333669 -0.10049357 -0.0819677
000380 3b da fc bc 4d 5f 3c 3d 5f 14 53 3d c6 16 94 bb
       -0.03086578 0.045989323 0.0515331 -0.0045193164
000390 88 34 93 3c 7c 61 c2 3d d3 27 15 3e db d8 1a 3e
       0.017969385 0.0949125 0.14565973 0.15121786
0003a0 5d b3 3f bd d3 fd b8 3b e2 fb 7e 39 82 19 a0 ba
       -0.046801914 0.0056454926 0.00024317161 -0.0012214633
0003b0 a3 f6 a9 bd 7b b0 95 bd f9 66 d6 bd 14 f9 b6 bd
       -0.08298995 -0.073090516 -0.10468859 -0.08934227
0003c0 24 23 fc 3c 5a 64 94 bd ba ae 3b bd c9 3b 94 3d
       0.030778475 -0.07245703 -0.04582093 0.072379656
0003d0 69 56 66 3d 4a 46 b4 3d 26 ac 74 3d 57 f4 e8 3d
       0.05623475 0.08802469 0.059734486 0.11374729
0003e0 83 a0 d9 bc ef 5f df bd 91 f9 1a bd 62 41 d4 bd
       -0.026565796 -0.1090697 -0.03783566 -0.10364033
0003f0 c6 37 9c bc 57 af ec bd 96 2f 06 be c5 50 85 bd
       -0.019069564 -0.11556881 -0.1310409 -0.06509546

combined_encoder.patch_embedding.patch_convs.coarse.bias f4 [32]
000000 13 15 a3 bd 69 eb 9d bc 2e 4c c1 bd 5b fd cf bd
       -0.07963004 -0.019277291 -0.09438358 -0.101557456
000010 84 61 fa 3c ff e7 15 3c 8f f3 87 3d f7 6b 9c 3c
       0.030564077 0.00914955 0.06638252 0.01909445
000020 8f fd 6b 3d fd 56 ec bc a9 cf 7f 3c 8c cb c2 3c
       0.05761486 -0.028850073 0.015613475 0.0237787
000030 13 31 11 3d f7 d4 11 3d 2c c0 87 bd c4 80 53 bd
       0.03544719 0.03560349 -0.06628451 -0.051636472
000040 73 13 be bc 94 24 87 3d 63 43 35 bd 2c 92 72 bd
       -0.023202633 0.065987736 -0.044253718 -0.05922143
000050 27 0c 76 3d b7 57 22 3d c8 83 08 bd 57 bf 40 3c
       0.060070183 0.039634433 -0.0333288 0.011764369
000060 95 5e c7 bd 79 93 9c bd 99 63 ab 3b 38 11 f8 bd
       -0.09734837 -0.07645316 0.005230379 -0.12112659
000070 e2 51 24 bd da 0c 54 bd f2 6d be bc b5 5e d5 bc
       -0.040117152 -0.05177007 -0.023245785 -0.026046136

combined_encoder.patch_embedding.patch_convs.irregular.weight f4 [32, 45, 5]
000000 52 04 c4 bc c0 76 67 3d b2 44 74 3d 03 c0 8c 3c
       -0.023927841 0.056509733 0.059635825 0.017181402
000010 09 ea 70 3c 82 20 1d bd df 5b 52 3d 63 38 5b 3d
       0.014704236 -0.03836108 0.051357146 0.05352057
000020 5d d0 f1 bc f5 0e 83 3d 58 26 84 3d 77 37 9e bc
       -0.0295183 0.06399337 0.06452626 -0.019313557
000030 6f 0c 67 3d b8 d2 aa 3c 4f 10 b1 3d 08 18 d0 3d
       0.056408342 0.020852432 0.08645689 0.101608336
000040 36 2c ef 3c 63 07 c2 3d e1 bf 89 3c 5e 3e d9 3d
       0.029195886 0.09474065 0.016815128 0.10607599
000050 41 4c da 3d c2 c3 18 3d 39 8e d8 3d 7c fb bf 3d
       0.106590755 0.037296064 0.10574002 0.09374139
000060 31 1e 8b 3c ce c7 8e 3c 98 81 8f 3d 7d 61 47 bc
       0.01698217 0.017429259 0.0700714 -0.012169239
000070 42 3d 89 3d ad 0e 3a 3c ec dd 39 3d ca ea ee bc
       0.06701137 0.011356038 0.045377657 -0.02916469
000080 12 7b 30 bc 8b b8 60 3c 5e ff f4 bc e7 6d c1 bc
       -0.01077153 0.0137158735 -0.029906925 -0.023611976
000090 0c 01 4a 3d 46 7d 84 bc e3 30 87 3d 8d ad 8a bc
       0.049317405 -0.016173016 0.06601121 -0.016928459
0000a0 f4 0f 81 3d cb 22 c3 3d 18 63 a8 3d b2 b3 eb 3a
       0.06301871 0.095281206 0.08222026 0.001798263
0000b0 a4 7b 08 3c c5 c3 a7 3c 42 e0 94 3c da 20 0f 3c
       0.0083302595 0.020479092 0.01817334 0.00873586
0000c0 5d 64 9e 3d e9 d9 3a 3d f1 1b 9f 3c ad 0d 02 3e
       0.077339865 0.04561797 0.019422503 0.1270053
0000d0 ee 5f 74 3d 0d 77 ce 3c 2b 05 95 3d 07 d2 99 bd
       0.0596618 0.025203252 0.07276376 -0.07510763
0000e0 0c 04 5a 3c 15 2c 9a 3b 8e 09 98 bd 8e ad 84 bd
       0.013306629 0.004704962 -0.074236974 -0.064784154
0000f0 dc 0f ce bc 3d 0f 9e bd 98 7c 8e bd f1 ec 4f 3c
       -0.025154047 -0.0771775 -0.06957358 0.012690769
000100 21 38 70 3d d6 d5 bb bb 12 48 9f 3d fe 95 37 3c
       0.05864728 -0.0057322783 0.07777418 0.0112051945
000110 92 b1 7f 3c 95 8f 8c 3d 8f 90 66 3d 38 a3 47 3d
       0.015606301 0.068633236 0.056290206 0.048739642
000120 d4 86 47 3d ce bf be 3d 4f 8e ab 3c 13 87 75 bc
       0.048712566 0.093139276 0.020941881 -0.0149858175
000130 29 d5 0d 3c 9b 03 8d 3d 5b 16 c0 3d b9 0d 93 3d
       0.008656778 0.06885453 0.09379264 0.07180352
000140 6f 19 18 bd 1c 96 93 3d 8c fb 58 bd e7 76 73 3d
       -0.03713363 0.072063655 -0.05297427 0.059439566
000150 21 26 a6 3c 92 71 78 bc fc 21 92 3d 3a 94 9b b9
       0.020281853 -0.015163796 0.07135388 -0.0002967434
000160 db d4 b6 3c e8 bd 74 bc 3c 1e c1 bb 4e 49 42 bc
       0.022318294 -0.014937855 -0.005893497 -0.0118582975
000170 cd ef ea bc ae 9f a0 bd 3d 5f 22 3d 06 b1 37 3c
       -0.028678799 -0.078429565 0.039641608 0.011211639
000180 47 89 9b 3b 0d bc 25 3d d6 85 b4 3c 38 3a 92 3d
       0.0047465893 0.040462542 0.022036474 0.071400106
000190 3a 31 62 bd af 18 24 bd 31 92 0b 3c 5e 8d 4f 3d
       -0.055222727 -0.040062603 0.0085187415 0.050671928
0001a0 a3 72 28 bd a8 73 5a bd ff e1 fb 3b 29 ca 63 3d
       -0.04112495 -0.053332955 0.007686853 0.055612717
0001b0 7b f7 2f 3d 75 89 02 bd c3 15 2a bc f5 dd cd 3d
       0.042960625 -0.03186937 -0.010381165 0.100521006
0001c0 1d e9 01 bc fd b6 96 3d 05 a8 9a bc 21 78 02 bd
       -0.007929114 0.07359121 -0.018878946 -0.031852845
0001d0 d8 5b a4 3d 13 46 a3 3d 08 84 e1 3c a6 96 8d 3d
       0.0802533 0.0797235 0.027528778 0.069134995
0001e0 d9 aa 83 3d 27 1d 8f 3c 01 56 11 3d 51 c2 9a 3c
       0.06429071 0.017469956 0.03548241 0.018891485
0001f0 1b f0 d6 3c f3 a4 2f bd 7c 8f ad 3d 5e a5 7e 3d
       0.026237538 -0.042881917 0.08474633 0.062169425
000200 55 f8 1f bb 37 d6 19 3c 1f 45 8c bc 65 6c c8 3d
       -0.0024409492 0.009389452 -0.017122803 0.097862996
000210 05 88 81 3d c7 58 7f 3d 83 59 33 3d 0f 3f 68 3d
       0.06324772 0.062340524 0.043786537 0.056700762
000220 de 4c 99 bc 74 86 9a 3d d0 3e 12 bd 7b 38 7d 3d
       -0.018713411 0.07545176 -0.035704434 0.061821442
000230 1c e2 ce 3d 1e bb d8 bb 2e 26 1c 3d 49 74 b8 3d
       0.10101721 -0.006614103 0.03812235 0.09006555
000240 ad 8f ad 3d eb 7e 92 3c e7 df a3 3a 46 a2 0e bd
       0.084746696 0.017882785 0.0012502641 -0.034822725
000250 85 b9 b0 3c fb b6 ef bb a1 28 a3 3d f3 ab 95 3d
       0.021572838 -0.007315514 0.07966734 0.07308187
000260 d6 61 df 3d 91 25 32 3d d4 2b 1a bc 12 76 d3 3d
       0.109073326 0.043492857 -0.0094098635 0.103252545
000270 8e 8c bf 3c 30 d8 38 bc 46 71 51 ba 2d 21 4d 3d
       0.023382451 -0.011282012 -0.00079895963 0.050080467
000280 df 5f bd 3d e1 c3 9f 3d eb 3d 68 3d 79 15 92 3d
       0.092468016 0.07801033 0.056699675 0.07133002
000290 5d 27 27 3d 05 fa ab 3b 9f f9 9c 3d cc 04 38 3d
       0.040809024 0.0052483105 0.07664799 0.04492645
0002a0 36 0d 03 3d f7 5c 54 bb 11 7f 90 3d 15 c0 a2 3d
       0.03199502 -0.0032404044 0.07055486 0.07946793
0002b0 1b 00 58 3d c9 78 4c 3d 1e ff c8 bc 4f eb 20 bd
       0.052734476 0.049919877 -0.024535712 -0.039286908
0002c0 9e 16 b8 3d ff c3 53 bd 44 ca a0 bc 18 33 8d bc
       0.08988689 -0.05170059 -0.019627698 -0.017236277
0002d0 04 f6 92 3d b9 62 15 3d 91 e8 18 3d 18 14 0e bd
       0.0717583 0.036471102 0.037331168 -0.03468713
0002e0 7e f6 c8 3c da 92 99 3d cd 82 69 3d 92 b3 ae 3d
       0.0245316 0.07498713 0.057009507 0.08530344
0002f0 99 d6 6b 3d 3c 55 b2 3d 83 20 6d 3d 80 3b 88 3c
       0.057577703 0.087076634 0.057892334 0.016629934
000300 13 f7 82 bc 07 5a b6 3d 32 62 b0 3d 3e 8c 48 3d
       -0.015986955 0.0890389 0.08612479 0.04896187
000310 b9 14 19 bc a5 8b f9 3c 37 ee 5f bc ee 4d 91 3b
       -0.00934332 0.030462096 -0.013667635 0.004434339
000320 6a b1 8a 3c 78 e0 31 3d ac d3 20 3d a2 d4 73 bc
       0.0169303 0.04342696 0.039264366 -0.014882239
000330 1f c7 7c 3b 13 83 90 3d 75 fc 9e bc ac 32 b5 bb
       0.0038570834 0.070562504 -0.01940749 -0.005529722
000340 aa 6b a3 3d e7 5c f7 bb b0 8e b1 3d db a1 cb 3c
       0.0797952 -0.0075489166 0.086697936 0.024857452
000350 8e f0 da 3c 9f f8 2d bd 01 13 e8 3c f4 b3 d1 bc
       0.026726034 -0.04247343 0.028329374 -0.025598504
000360 5f 5e 82 bd 80 a7 92 bd 91 bf a3 bd 0e f1 63 3c
       -0.06365656 -0.07160854 -0.07995523 0.013912452
000370 e7 c1 a6 3a c8 e0 a9 3d 14 12 24 3d a3 93 62 3d
       0.0012722582 0.08294827 0.040056303 0.05531658
000380 dc 94 4d 3c e4 f1 b4 3c 00 af 5d bd fd e5 54 bc
       0.012547698 0.022087999 -0.05412197 -0.012994287
000390 03 87 84 bd 64 57 94 3c 68 ed fe 3c 75 0a 40 3d
       -0.06471064 0.018108077 0.031119063 0.046884973
0003a0 31 e1 9c 3c 51 65 b7 3c 5f f9 4d bd c4 46 88 3d
       0.019150348 0.022387179 -0.050286647 0.066541225
0003b0 31 66 56 3d ae d7 2d bd 4d 33 5f 3d d3 01 05 3c
       0.05234355 -0.042442016 0.054492284 0.008118111
0003c0 43 db 5c 3c 26 f7 5b bd e1 8e 5c bd 07 a2 2e 3d
       0.01348001 -0.053702496 -0.053847197 0.04263499
0003d0 46 7d e2 bc 37 fa 45 3d a5 cb 1c bc 4d c8 9f bc
       -0.027647626 0.048334327 -0.009570037 -0.01950469
0003e0 bd 81 ab 3c b4 74 81 bd 54 c9 58 3c 5c fc 88 bc
       0.020935887 -0.063210875 0.013231594 -0.016721897
0003f0 32 d1 88 3c cb 05 66 bd 86 93 86 bc a7 d7 1f bd
       0.016701315 -0.05615787 -0.016427767 -0.03902402

combined_encoder.patch_embedding.patch_convs.irregular.bias f4 [32]
000000 6e 83 4d 3d 2c 09 77 bd b3 3d 08 bd 35 94 b4 bb
       0.05017417 -0.06031148 -0.033261966 -0.0055108317
000010 f8 0c 18 3b 85 99 b9 bd a4 de 4e bd ec c5 e4 3d
       0.002320109 -0.09062485 -0.050505295 0.11170563
000020 9b 01 bd ba 3d 0c 16 bd 23 d0 5a 3d 55 9e c3 3d
       -0.0014420034 -0.036632765 0.05342115 0.09551684
000030 88 f9 7a bd 52 09 c9 3c e3 14 91 3c c6 25 ba 3d
       -0.061273128 0.024540577 0.017710155 0.09089236
000040 ea 99 d2 3c b7 c9 30 bd e1 ee 81 3c 61 9e 14 3d
       0.025708158 -0.04316112 0.015860977 0.036283854
000050 30 0a 86 bd fc 4b 55 3d 37 09 b9 3a 52 cd 47 bd
       -0.06544912 0.052074417 0.0014117126 -0.048779793
000060 c4 ca ba 3c a4 f7 b5 bc b6 0f 9f 3c c4 82 25 bd
       0.022801764 -0.02221281 0.019416671 -0.04040791
000070 7c f8 80 3d f9 eb c2 3d 99 2f cc 3c 6b 98 e6 bd
       0.06297395 0.095176645 0.02492504 -0.1125954

combined_encoder.patch_embedding.patch_projections.fine.weight f4 [32, 32]
000000 ae a5 a3 3d e6 77 a8 bd a9 32 e9 bd f4 61 e9 3d
       0.07990585 -0.08225994 -0.11386616 0.11395636
000010 e5 c4 30 3e cd 38 f1 3d ae ef 17 3e e3 d4 08 3e
       0.1726261 0.11778412 0.14837524 0.1336246
000020 89 4d fd bd df 9d 20 3e 32 73 2b 3e c6 f3 3c bd
       -0.12368304 0.15685223 0.16743162 -0.046130918
000030 43 1b f9 3c f0 01 2b bd 89 eb 47 3d 21 99 54 3e
       0.030408507 -0.041749895 0.04880861 0.20761539
000040 a3 1d 23 bd cf 50 17 3c d0 d8 05 be 47 bb 02 be
       -0.039823186 0.009235575 -0.13070989 -0.12766753
000050 15 ea a7 3d 9a 61 ab 3d 91 59 8d 3d 0a b3 7b 3d
       0.081989445 0.083682254 0.06901849 0.06145004
000060 3a 2f bc bd f2 db 1f 3d 9b f4 60 3c 97 73 64 bd
       -0.09188695 0.039028116 0.0137301935 -0.055774298
000070 d4 46 35 be f7 43 dd bd 62 e6 c6 bd 7c d0 08 3e
       -0.177028 -0.10803979 -0.09711911 0.1336078
000080 9d ea 97 3c 77 5a f2 3d 77 b2 31 3d ed 6b cf bd
       0.01854449 0.11833661 0.043383088 -0.10128007
000090 95 68 fd bd 17 a2 f2 bd b5 ff 9c 3d 16 a5 2d 3d
       -0.12373463 -0.118473224 0.0766596 0.042393766
0000a0 5d 86 87 3d dc 54 29 3e b5 94 bd 3d 4c 3e 08 3e
       0.06617425 0.16536278 0.09256879 0.13305014
0000b0 24 57 20 3e a0 9f 0c be 4e d9 2b be a6 5c ec 3d
       0.15658242 -0.13732767 -0.16782114 0.11541109
0000c0 ad 79 a7 bc 3b 59 02 be 24 72 aa 3c 95 cb 11 3b
       -0.020443762 -0.12729351 0.02080638 0.0022246588
0000d0 41 27 03 bd 65 13 26 3e ff c3 03 3e 77 e7 22 bc
       -0.032019857 0.16218336 0.12867735 -0.009942881
0000e0 fd 74 99 3d 45 ad 10 3e 38 17 c2 bd 71 84 f3 bd
       0.07493017 0.14128597 -0.09477085 -0.118904956
0000f0 68 c7 c1 3d b8 6a cf 3d f8 38 11 be 99 1d 55 bd
       0.09461862 0.10127777 -0.14181888 -0.05203018
000100 0b 1a f2 3d 7a 0e e4 3d ef 95 71 bd df 75 a4 bd
       0.118213736 0.11135574 -0.05898088 -0.080302946
000110 93 56 2b bd 2c 05 26 3e 5f 0b 87 3d 26 9f 28 be
       -0.04183061 0.1621291 0.06593966 -0.1646696
000120 05 be a8 3d e6 26 e8 bd 75 3a 24 be d1 1f d7 3d
       0.08239368 -0.11335544 -0.16037925 0.105041154
000130 0c 5b 40 bd 5c 34 c5 bd ef d9 8b 3d bc 56 d7 3d
       -0.04696183 -0.096291274 0.06828677 0.1051459
000140 2f ca 0e bd bd 40 dd bd 90 a6 66 3d de f7 d5 3d
       -0.034860786 -0.108033635 0.05631119 0.104476675
000150 08 d8 6b 3d bd b9 6c bd 22 9c 50 3e 91 3f 1c 3e
       0.05757907 -0.05779432 0.2037206 0.15258624
000160 ea d3 89 3d 6a 65 21 3d 70 58 85 3d ed 62 d1 3d
       0.067298725 0.039403357 0.06511009 0.10223947
000170 6e 63 e5 3d 03 2d bf bd 6e 41 be 3d 1a e6 25 be
       0.11200605 -0.09334757 0.092898235 -0.16201058
000180 6b 32 32 bd f3 72 0d be 54 ca 48 bd 02 a1 9c 3c
       -0.043505114 -0.13813381 -0.04902108 0.019119743
000190 7a 55 f0 bd 7e c7 63 3d de 82 c6 3d 2e 8f 0b be
       -0.11735053 0.055610172 0.0969293 -0.13628837
0001a0 e1 1d 3e bd 09 04 c1 3d e3 9c b9 bd fc f2 ad 3d
       -0.046415213 0.09424598 -0.09063127 0.08493611
0001b0 11 0f e4 ba f5 3e 2c be b8 01 2b be 3e e2 92 bc
       -0.001739951 -0.16820891 -0.16699874 -0.017930146
0001c0 e7 a9 3b bd 7a 94 31 be f7 1b 01 be 6b d3 0f be
       -0.04581633 -0.17341796 -0.12608324 -0.14045493
0001d0 22 d6 d7 3c b9 5e 2b 3e 6b d6 2e be 91 d5 41 3e
       0.026347224 0.16735353 -0.17073981 0.18929125
0001e0 b2 37 eb bd 0e e3 e7 bd 04 ba 00 3d 39 c3 e1 bd
       -0.114852324 -0.11322604 0.0314274 -0.11023564
0001f0 1f 96 10 3e bb 2f c0 bd 89 92 cb 3d 6a 1b 11 3e
       0.14119767 -0.09384104 0.09940059 0.14170614
000200 c8 04 19 3e a0 2a f0 bd 8a 36 dd bd ab 47 f4 3c
       0.1494323 -0.1172688 -0.10801418 0.02981933
000210 ff f4 28 bd f5 3d 2b be fb 68 a7 ba ea eb dc bd
       -0.04124927 -0.16722853 -0.0012772375 -0.107871845
000220 75 ae f2 bd 46 2e 6e 3c 62 0a 5f 3d ac fe 2a 3e
       -0.11849681 0.0145374 0.05445326 0.16698712
000230 5a 28 be 3b 3f 1e 04 be 08 d8 b5 bd 13 80 3f ba
       0.00580315 -0.12902163 -0.08879095 -0.00073051563
000240 0c a5 49 bd eb 96 13 3d 6f 7c db bd de d3 81 3c
       -0.049229667 0.0360326 -0.10717093 0.015848096
000250 3d 37 c1 bd 84 ba 4f 3d 0f 8e 0c 3e 29 a3 76 bb
       -0.09434364 0.050714985 0.13726066 -0.0037633872
000260 0f ee a0 3d 9e 61 99 bd 6a 43 c8 3b 10 81 09 3e
       0.07857906 -0.07489322 0.006111552 0.1342814
000270 81 b8 51 3d b2 3d 62 bd b8 d5 fb 3d d2 ce 16 3e
       0.051201347 -0.05523462 0.12296623 0.14727333
000280 34 20 28 be dd 6e 01 be 0c f8 96 3c 9c 86 33 be
       -0.16418535 -0.12639947 0.018428825 -0.17531818
000290 98 26 e3 3d 9d 77 e7 bd ee d8 ef 3d cd fc 8c 3d
       0.110913455 -0.11302111 0.11711298 0.068841554
0002a0 47 2f 0e be 7c 74 64 3d 6f 61 76 bd 7f 11 4a 3d
       -0.13885222 0.05577515 -0.060151514 0.04933309
0002b0 cf 5a 07 3e 13 10 87 3c 61 15 df 3c 47 ce 73 3c
       0.13218234 0.016487157 0.027231874 0.014880723
0002c0 bd 41 7f bd d8 a9 03 3e a0 f8 15 3e 9d 86 00 3e
       -0.062318552 0.12857759 0.14645624 0.12551351
0002d0 7d 80 21 be 4d 3c 98 bb 86 1d d5 bd 58 5d 25 be
       -0.1577167 -0.0046458603 -0.10406022 -0.16148889
0002e0 f7 6b 01 be c4 06 1d 3e d9 73 cc 3d b1 38 ea bd
       -0.12638842 0.15334612 0.09983034 -0.11436594
0002f0 fc b0 1d 3e 0e 59 e6 bd 6a 59 13 be eb 5f 92 3d
       0.15399545 -0.112474546 -0.14389578 0.07147201
000300 62 b2 2a be 6c 09 23 3e cb 28 e7 bc aa c0 00 be
       -0.1666961 0.15921563 -0.028217694 -0.12573496
000310 5b df ef 3d 2e d8 c6 3d ad 12 96 3c 3c d2 52 3d
       0.117125235 0.09709202 0.018319452 0.051470026
000320 45 f6 80 bd b5 61 78 bd 3b 4f 2d bc ec a4 17 bd
       -0.06296972 -0.060640056 -0.010577972 -0.037022516
000330 13 b5 ec 3d e5 3a a1 3c 17 95 20 be 75 cb 1a 3e
       0.11557975 0.019681403 -0.15681873 0.15116675
000340 df 13 0b 3e fe f0 19 3e be ae 29 3e a3 28 02 be
       0.13581799 0.15033337 0.16570565 -0.12710814
000350 7e a9 6a bd 88 ac df bd 04 68 fb bd 25 3a 04 be
       -0.057290547 -0.109215796 -0.12275699 -0.12912805
000360 ad b4 ad bd fc d2 a5 3d 5d 6c d3 bd 31 7c 14 3e
       -0.08481727 0.08096883 -0.10323403 0.145005
000370 8c 63 9a 3d 1c 4a c0 3a 37 f5 c7 bd 49 f9 5b bd
       0.07538518 0.0014670524 -0.09763568 -0.053704534
000380 a2 ca 2d 3e 0a f6 1c bd 2e 46 97 bd 6f 55 21 be
       0.1697183 -0.03832058 -0.073864326 -0.15755247
000390 dc bb 80 3c d4 9e fe bd 76 f9 a9 3c 22 8f b9 bd
       0.015714578 -0.12432638 0.020748835 -0.090605035
0003a0 47 fe 05 3e 20 c3 09 3e 85 37 28 be 81 c8 52 3c
       0.1308528 0.1345334 -0.16427429 0.012865187
0003b0 3c 2b 0a 3c a4 bb f1 bb 28 ea dc 3d 60 f5 31 be
       0.008433159 -0.007377105 0.10786849 -0.1737876
0003c0 a6 5b 95 3d 53 3c c7 3d 56 3e fb 3d aa b5 09 bd
       0.07292871 0.09728303 0.12267749 -0.033620514
0003d0 ec 83 21 3e 2d bf 8a 3d 95 78 0b 3e 7e 6d 72 bd
       0.1577298 0.06774745 0.13620217 -0.05918645
0003e0 94 a8 2b 3c e1 dd c9 3d 20 1c 21 3d 08 02 05 be
       0.010477204 0.09856773 0.039333463 -0.12989056
0003f0 68 74 be 3b 41 bb af bc ec 5b d3 bd 37 0a 8a 3d
       0.0058122166 -0.021451594 -0.10320267 0.067402296
