result/low_level/ETHUSDT/vol.C51/4.0/label_1/seed_12345/best_model.pkl (torch, 342497 bytes, 16 tensors)

support f4 [51]
000000 00 00 a0 c0 9a 99 99 c0 33 33 93 c0 cd cc 8c c0
       -5.0 -4.8 -4.6 -4.4
000010 66 66 86 c0 00 00 80 c0 33 33 73 c0 66 66 66 c0
       -4.2 -4.0 -3.8 -3.6
000020 9a 99 59 c0 cd cc 4c c0 00 00 40 c0 33 33 33 c0
       -3.4 -3.2 -3.0 -2.8
000030 66 66 26 c0 99 99 19 c0 cd cc 0c c0 00 00 00 c0
       -2.6 -2.3999999 -2.2 -2.0
000040 66 66 e6 bf cc cc cc bf 33 33 b3 bf 99 99 99 bf
       -1.8 -1.5999999 -1.4 -1.1999999
000050 ff ff 7f bf cc cc 4c bf 98 99 19 bf ca cc cc be
       -0.99999994 -0.79999995 -0.5999999 -0.39999992
000060 c8 cc 4c be 00 00 a0 b3 c8 cc 4c 3e ca cc cc 3e
       -0.19999993 -7.4505806e-08 0.19999993 0.39999992
000070 98 99 19 3f cc cc 4c 3f ff ff 7f 3f 99 99 99 3f
       0.5999999 0.79999995 0.99999994 1.1999999
000080 33 33 b3 3f cc cc cc 3f 66 66 e6 3f 00 00 00 40
       1.4 1.5999999 1.8 2.0
000090 cd cc 0c 40 99 99 19 40 66 66 26 40 33 33 33 40
       2.2 2.3999999 2.6 2.8
0000a0 00 00 40 40 cd cc 4c 40 9a 99 59 40 66 66 66 40
       3.0 3.2 3.4 3.6
0000b0 33 33 73 40 00 00 80 40 66 66 86 40 cd cc 8c 40
       3.8 4.0 4.2 4.4
0000c0 33 33 93 40 9a 99 99 40 00 00 a0 40
       4.6 4.8 5.0

fc1.weight f4 [64, 36]
000000 43 44 13 3e c0 7b 61 3d f0 b3 dc 3e 8a 56 c6 bc
       0.14381509 0.055049658 0.4310603 -0.024211187
000010 0d c2 09 be 44 c1 92 39 db 99 f1 bd 2e 92 a3 3e
       -0.13452931 0.00027991284 -0.11796924 0.31947464
000020 93 d7 45 bb 04 e7 cb bc 95 3a c0 3d 08 c5 8c 3e
       -0.0030188307 -0.02489043 0.09386174 0.27494073
000030 7a 84 9f 3e d9 20 16 bf ef e5 12 bf ff 3c f9 be
       0.3115576 -0.5864387 -0.573821 -0.4867935
000040 56 bf 42 3d cd cf 8f 3d 76 95 e4 bd 62 aa 74 3e
       0.047545753 0.07022057 -0.1116132 0.23893121
000050 5d dc 8b bc 59 71 f7 bc 90 62 63 be 32 d5 04 3d
       -0.01707285 -0.030205416 -0.22205567 0.03242988
000060 6f 7b 51 be 9d e0 33 bd a9 71 2e be ba e2 83 be
       -0.20457242 -0.04391538 -0.17035545 -0.25758916
000070 d9 ae bc be 75 33 a4 bc 2d 45 85 be 60 95 72 3d
       -0.36852148 -0.020044068 -0.2602934 0.059224486
000080 0f 26 83 be fe b3 5a 3d d9 4e 6e be 35 eb 99 bd
       -0.25614974 0.05339431 -0.23272265 -0.07515565
000090 19 fb 11 3e 63 54 8e be 31 5b a2 3e 0e 8d 81 3e
       0.14255942 -0.27798757 0.317102 0.2530293
0000a0 ca 78 e6 3d 73 e2 39 3e 6b 95 2f bc 08 ce bc 3e
       0.112535074 0.1815279 -0.010716776 0.3687594
0000b0 1d ad 4f 3e ad ab 29 3e dc 0e 6b 3e 81 d2 d1 3c
       0.20280881 0.16569395 0.22954887 0.025613071
0000c0 14 cb a7 bd 34 58 4e bf dc 7f 1a bf 6b 48 52 bf
       -0.08193031 -0.8060334 -0.6035135 -0.8214175
0000d0 ac 78 03 bd 6d 72 dd 3b 0a a3 b5 be fb 15 09 3f
       -0.032097504 0.0067580254 -0.3547595 0.53549165
0000e0 60 67 47 bc 03 39 b0 3d 14 9c f8 3d 76 da c2 bd
       -0.012170643 0.08604624 0.121391445 -0.09514324
0000f0 5f 2f 25 3e ff e9 29 3d 5b 37 2c 3e 7c 0d 78 3e
       0.16131352 0.04148292 0.16817991 0.24223894
000100 07 16 26 bf a6 24 7f 3d 98 fd bc be 10 35 9e bd
       -0.6487736 0.06229081 -0.36912227 -0.077249646
000110 99 40 58 be d2 1c 25 3e 28 e7 1d 3e 53 7a 68 3e
       -0.21118392 0.16124275 0.1542021 0.22702913
000120 77 3b 70 3d de fc 3b 3e f1 b8 6e bd 15 4a 67 3e
       0.05865046 0.1835818 -0.058281843 0.22586854
000130 f5 07 2e be 9a 9b 02 3e 9f bf d1 3c 91 24 96 be
       -0.16995223 0.1275467 0.025604067 -0.29324773
000140 40 ea f5 bc 65 d8 68 3d 29 48 80 be 9f 74 5e be
       -0.030018926 0.056846995 -0.25055054 -0.21724175
000150 8c 46 f6 bd 24 7d 1e 3c 36 dc 4a 3e 18 ee 50 3d
       -0.120251745 0.009673391 0.19810566 0.051008314
000160 49 59 c2 bd 19 f8 f9 bd 08 0e a2 3e 3f 1d 5d bd
       -0.09489686 -0.12205524 0.3165133 -0.05398297
000170 fc aa a6 3d 25 d6 30 bc ce bc 41 3c 1b 8d 58 3d
       0.081380814 -0.010793244 0.0118248 0.052868944
000180 37 65 c3 3c 6a e5 6a bc 9b 44 cb 3b c2 c5 3a 3e
       0.023851974 -0.014336923 0.006203247 0.18239501
000190 41 2b 12 bd 05 71 1e 3e ae a4 61 3e 99 c8 5d bd
       -0.03568578 0.15472801 0.22035477 -0.054146383
0001a0 24 c9 28 3e 82 d5 21 be be 56 ed 3d ec fc 41 3e
       0.16482979 -0.15804103 0.115888104 0.18944138
0001b0 39 6f 10 be 5b 42 15 3d f2 55 8a 3e c0 11 48 bb
       -0.14104928 0.036440235 0.27018696 -0.0030528158
0001c0 50 9b a5 3d 29 70 82 3e 41 d7 8a ba 30 8e 8a bc
       0.08086264 0.25476196 -0.0010592715 -0.016913503
0001d0 66 b4 b2 3c 6a 2f 8e 3d 3f cb 87 3d 60 20 be 3c
       0.021814536 0.06942637 0.06630563 0.023208797
0001e0 ff 3e ae bd 92 55 ff bd 59 e9 5e be 1f 12 28 be
       -0.08508109 -0.12467493 -0.21768703 -0.16413163
0001f0 5e ab 6b 3d a3 09 06 3e 26 6a 1a 3d 11 17 ca bc
       0.057536475 0.13089614 0.037698887 -0.024669202
000200 84 12 60 bd 30 dd 18 3d 2d 29 38 bd 18 74 0e 3d
       -0.054705158 0.037320316 -0.044961143 0.034778684
000210 42 da 38 3e 46 3d 8a 3e 4f a2 63 3e 4f 73 57 3e
       0.18052009 0.26999873 0.22229885 0.2104008
000220 44 53 bd be d0 30 b5 3d 7e 87 0f be 16 56 44 3e
       -0.3697759 0.08847201 -0.1401653 0.19173464
000230 da 9a 9b be 08 a9 04 3e 97 9f f6 3d 0b 0b 83 bd
       -0.3039158 0.12955105 0.12042158 -0.06398591
000240 14 a1 ff bd fe 45 25 3e 16 86 50 3e 8a 10 fa 3d
       -0.12481895 0.16139981 0.2036365 0.12210186
000250 a6 15 fc bd 17 ab 35 bb 2a 68 91 3d c1 9f 46 be
       -0.123088166 -0.0027720386 0.07099946 -0.19396879
000260 3c b2 11 3e 83 dd 1c 3e 2f 01 ab 3e a3 b6 97 3d
       0.14228147 0.15318875 0.3339934 0.07407882
000270 dc 66 d9 3d b7 eb 03 be 13 af aa be e7 74 a5 be
       0.10615322 -0.12882887 -0.33336696 -0.32315752
000280 22 c0 d1 bd 87 bb 4a bc 61 a9 b1 3d 87 2b 34 bc
       -0.102417246 -0.012373812 0.086748846 -0.010996706
000290 df 80 99 3d 46 68 b4 3d d5 16 7a 3c 69 99 81 bd
       0.07495283 0.08808951 0.015264233 -0.06328089
0002a0 c4 97 13 be c9 7a ab bd 99 50 58 3d d0 c7 25 be
       -0.14413363 -0.08373029 0.05281124 -0.16189504
0002b0 80 77 bc be 8a a1 9f bb 56 5a a5 bd f3 46 5c bc
       -0.3680992 -0.004871552 -0.08073871 -0.01344465
0002c0 42 61 80 bd 1e 50 5d 3e 19 1f 1b be a0 0b 81 bc
       -0.062685505 0.21612594 -0.15148582 -0.015752614
0002d0 69 88 8e 3d 02 f6 15 3e 94 a0 a7 be d1 e9 a7 bd
       0.06959612 0.14644626 -0.327397 -0.08198894
0002e0 87 47 68 bd b2 89 02 be 00 0f e1 bd a6 7d 58 bd
       -0.05670884 -0.12747839 -0.10989189 -0.052854203
0002f0 97 be 04 bd 0d 77 92 be 2d ce 8e be a7 97 17 be
       -0.032408323 -0.28606454 -0.27891675 -0.14803945
000300 0c 8f 2a be 80 a3 dc 3e ce e6 ea 3e f3 5c 0d 3f
       -0.1665613 0.4309349 0.45879215 0.55219954
000310 3a 29 d8 3d 51 95 bf 3d aa 36 ab 3e bb e6 8f be
       0.10554738 0.09354652 0.33440143 -0.2810572
000320 3f 2d e0 bd b0 40 00 bd f1 36 bb bd e1 d8 7e bd
       -0.1094613 -0.03131169 -0.091413386 -0.06221855
000330 2d da 54 bd e1 06 19 be ec d2 4a be 7a b3 4f be
       -0.05196588 -0.1494403 -0.19807023 -0.20283309
000340 69 73 c5 3e 22 ea 01 bd d2 9f 5e bd 23 ef 73 be
       0.38564613 -0.031717427 -0.054351635 -0.23821692
000350 82 40 63 3e b5 70 d0 bd 4b ac e0 bd 3a 02 6f be
       0.22192577 -0.10177747 -0.10970362 -0.23340693
000360 32 af 5f 3d 82 04 e0 bd 92 ff 1f 3f d9 55 05 3e
       0.05461044 -0.1093836 0.62499344 0.1302103
000370 f3 bd f6 3d 4d 7f a3 3e 72 2c dd bd f6 1d 10 3f
       0.12047949 0.3193306 -0.10799493 0.56295717
000380 0a eb 82 3e cf 89 fd 3e 1f 23 ab 3e af a4 e5 bd
       0.25569946 0.49519202 0.33425233 -0.112130515
000390 53 db 57 bd 90 1f 31 bf 85 f5 1d bf 4d 66 0c bf
       -0.0526994 -0.69188786 -0.6170276 -0.548436
0003a0 47 6e 2d 3e 4d a9 03 be b2 79 29 bd 9c 6f d2 3e
       0.16936599 -0.12857552 -0.041375823 0.41100776
0003b0 1d 53 13 3d 7a 9e d4 bc 3f 3f 98 bd 6c 8e 42 3c
       0.035967935 -0.025954474 -0.07433938 0.011874776
0003c0 4d 2f f8 bd 0b 67 02 3e 86 8b 23 be 53 a0 f6 bd
       -0.12118397 0.1273462 -0.15971193 -0.12042298
0003d0 16 8d ff be 08 c3 03 be e2 96 62 be 98 3a 81 3e
       -0.49912328 -0.12867367 -0.2212787 0.25240016
0003e0 97 a4 cb be cc 89 10 bc 56 83 89 be b1 28 1e be
       -0.3977401 -0.008821916 -0.26858014 -0.1544521
0003f0 33 a8 79 bd 1e f2 2a 3e 35 dd e0 be 14 80 df be
       -0.060951423 0.16693923 -0.43918768 -0.43652403

fc1.bias f4 [64]
000000 0f 50 39 3c 66 75 ae bd 16 fa b8 bd aa 04 bc 3c
       0.011310591 -0.08518486 -0.09032075 0.022951443
000010 a5 67 d8 3d b7 ee 35 3d 79 d1 68 3d 33 0f d4 be
       0.105666436 0.04441711 0.056840394 -0.41417846
000020 86 7e 51 be 2f f5 92 3d ce b3 5b 3e 5b 79 92 bc
       -0.20458421 0.07175671 0.21455309 -0.017880132
000030 b3 2a 32 be 99 09 59 3e b9 70 6e be 46 59 00 3e
       -0.17399101 0.21195067 -0.23285188 0.12534055
000040 00 92 42 be 7f 73 a5 3e 08 40 37 3b 07 5c c4 bc
       -0.19001007 0.3231468 0.002796175 -0.023969663
000050 f5 dd 58 bd 3d 17 6c 3d 83 1f 15 be d2 5e 7d 3e
       -0.05294605 0.05763935 -0.14562802 0.24743202
000060 7b 55 60 be 3a 3e 75 3e b4 4b b6 b9 fe c8 e9 3d
       -0.21907608 0.23949519 -0.00034770148 0.11415289
000070 b0 e6 10 be 6e 9f 42 be 94 6c 60 bd 6f a1 c6 bd
       -0.141505 -0.1900613 -0.05479105 -0.0969876
000080 85 03 e8 3d bf 78 04 3d 0c 38 6f 3e 04 a5 1b 3e
       0.11328796 0.032341715 0.23361224 0.15199667
000090 e0 30 86 be d5 e8 15 3e d2 f7 7d 3d 10 7c c7 be
       -0.26209164 0.146396 0.062003918 -0.3896184
0000a0 78 00 a6 bd c4 29 b3 3e bb 1e af bd 76 db 74 be
       -0.08105558 0.34992802 -0.08550783 -0.23911843
0000b0 d5 69 9d 3d 18 4c 1b 3d 99 32 99 3e b9 5d fa 3d
       0.076862015 0.037914366 0.29921415 0.122249074
0000c0 57 07 51 be a6 a6 c3 be ac 15 06 b9 56 e0 05 be
       -0.20412956 -0.3821308 -0.00012787309 -0.13073859
0000d0 e7 b3 76 bc 54 a2 6d bd 40 f0 ae 3b 3e a2 83 be
       -0.0150575405 -0.058016136 0.0053386986 -0.25709718
0000e0 0b 45 b1 bd 8a 82 80 be 90 5f c7 bd ab ba 7e be
       -0.08655747 -0.25099593 -0.09735024 -0.24875896
0000f0 c5 29 ea 3e f5 1e a8 bd 80 0b 85 be 37 0a 13 3e
       0.45734993 -0.082090296 -0.25985336 0.14359365

fc2.weight f4 [64, 9]
000000 0c de 9d bd 92 7a 2b 3e f6 f8 41 be 4e 34 83 be
       -0.07708368 0.16745976 -0.18942627 -0.25625843
000010 66 0b 69 be d0 8d 82 be 1e 44 1e bc ca bd 88 bd
       -0.22758254 -0.2549882 -0.009659795 -0.066768244
000020 d7 6f a5 3e 2f 20 97 bd bd d6 f0 bd d8 14 0e 3d
       0.3231189 -0.073791854 -0.11759708 0.034687847
000030 3c 3f 08 be 98 55 16 3e 33 13 0f bd 3b 42 f3 bd
       -0.13305372 0.14681089 -0.03493042 -0.11877867
000040 a5 b3 1c be 0e 20 55 3e 88 39 a9 bd d3 80 0d 3e
       -0.15302904 0.20813009 -0.08262926 0.13818674
000050 b1 88 81 be e0 44 6f 3c a4 65 56 3e e8 9b 1f 3d
       -0.252996 0.014603823 0.2093721 0.038967043
000060 50 04 4a bd 1f fa 41 3d 9b f5 a5 3e bd ee 45 3d
       -0.04932052 0.047357675 0.32413945 0.04832338
000070 11 03 e3 3d 3e 6f 09 bf d6 62 ff 3d cd 04 a3 be
       0.11084569 -0.5368537 0.12470023 -0.318396
000080 f8 55 82 bc 86 db 85 3e d5 d7 98 3d b2 fd 92 3e
       -0.015910134 0.26144046 0.07463042 0.2870918
000090 1a d9 9f be b7 95 91 3e c3 b3 f4 3e 5a cf e5 3e
       -0.31220323 0.28434536 0.47793397 0.4488476
0000a0 d0 9e 28 3e 1e 7d ad be 52 03 b2 3e 27 92 3a be
       0.16466832 -0.3388452 0.34768158 -0.18219815
0000b0 36 b2 dc be cb a1 28 3e 1d 90 c2 be de fc 2f 3e
       -0.43104714 0.16467969 -0.38000575 0.17186305
0000c0 e7 66 a4 3e 9a b4 66 be 35 a1 9b be 6b f8 03 3e
       0.32109758 -0.22529832 -0.3039643 0.12887733
0000d0 f1 0e cf 3d f7 c9 a2 be 49 f8 10 be ec f6 3a 3e
       0.10110272 -0.31794712 -0.14157213 0.18258256
0000e0 88 d3 84 be 16 36 c4 be d9 be 4f bc ae 90 3c be
       -0.25942636 -0.38322514 -0.012679779 -0.18414566
0000f0 da 37 55 3d 9a 65 7a be b1 99 bc bc 30 a2 82 3e
       0.052055217 -0.2445282 -0.023022505 0.25514364
000100 82 8e 00 3c 62 c6 ea bd 4d e3 ed be 2e 2e 3e be
       0.0078464765 -0.1146362 -0.4646248 -0.18572304
000110 34 ec a6 be 2b 5c 73 be 7d 21 de 3e 22 51 89 bd
       -0.32602084 -0.23765628 0.43384925 -0.06704928
000120 b3 86 86 3e 74 11 bf 3e b0 29 29 3d 54 79 88 be
       0.26274642 0.37318003 0.041299522 -0.26655066
000130 bf f6 f9 bc 8a b8 94 3e 85 22 92 3e 91 32 c0 3e
       -0.030513166 0.29047042 0.2854196 0.3753858
000140 db 8e 58 3e f5 c2 d1 3d e9 a0 cb 3d ac 62 ce 3e
       0.21148245 0.10242263 0.099428006 0.40309656
000150 b9 e4 9a be 97 7f 84 be 68 76 2c 3e 4c ec b6 3c
       -0.30252627 -0.25878593 0.16842043 0.022329472
000160 b7 b9 27 3e 85 74 54 bd 68 07 8b be 15 56 c1 be
       0.16379438 -0.051868934 -0.27154088 -0.37760988
000170 c9 da 24 3e 10 fc 0c be 2e 72 a0 be d9 18 f4 bd
       0.16099085 -0.13768029 -0.31337112 -0.11918802
000180 bd 62 a8 3e 03 b0 d9 bd 00 3d 87 bd 8a 52 83 be
       0.3288783 -0.10629275 -0.06603432 -0.2564891
000190 e3 b5 c0 be b3 bf c2 3c a7 90 a3 3e a7 05 ae bd
       -0.3763877 0.02377305 0.31946298 -0.08497172
0001a0 12 44 2a 3d 5a 89 00 3e 07 5c a1 be 46 cf b4 3e
       0.041568823 0.12552395 -0.31515524 0.35314387
0001b0 73 ee 57 be 36 a2 9a be 8e 05 1d 3f b8 9f b4 3e
       -0.21087055 -0.30201882 0.613366 0.35278106
0001c0 a6 a5 dd 3d 80 ca 5d 3c ba 7b 76 be 4e 89 90 3e
       0.108226106 0.013537049 -0.24070635 0.28229755
0001d0 fe 22 f1 be 5b 8e a3 be 38 a7 90 3e db a7 b4 3e
       -0.4709701 -0.31944546 0.28252578 0.35284314
0001e0 a9 e0 6f 3d c9 bf 6a be 5e cd ac bc 39 50 c4 3d
       0.058563862 -0.22924723 -0.02109402 0.09585614
0001f0 d8 30 70 bd 06 66 16 3e b0 7f 6f be 69 97 7e be
       -0.05864033 0.14687356 -0.23388553 -0.24862446
000200 2a 01 32 be a5 86 ae bd e7 de c6 bd a5 74 ba bd
       -0.17383257 -0.08521775 -0.09710484 -0.091042794
000210 56 a1 4e be 3a f1 0d be 60 69 af bd 9b cf 30 bd
       -0.20178732 -0.13861552 -0.085650206 -0.043166738
000220 f1 c1 a4 3d 76 50 dd be 29 4b 8c be ea 7e 9f 3e
       0.08044804 -0.4322545 -0.27401093 0.31151515
000230 cc ee 17 3e bd 15 54 be 8e e7 43 bd 26 47 b0 3e
       0.14837188 -0.20711417 -0.04782825 0.34429282
000240 7e 70 91 3d 06 18 6e be 65 8f 47 3e 6c e3 40 3e
       0.07101534 -0.23251352 0.19488294 0.18836755
000250 98 cb 48 3d e4 fc 65 be e5 90 e4 bd 8e b8 58 be
       0.049022287 -0.22459751 -0.11160449 -0.21164152
000260 70 8a 5d be c3 46 a1 3e f7 c6 d2 3e 65 3d 85 3e
       -0.21634841 0.314993 0.41167423 0.26023403
000270 e2 ba 06 3d 79 44 8b 3e 07 fc ec 3e db 17 92 be
       0.03289307 0.27200678 0.46286032 -0.28533825
000280 09 81 44 be 41 1a d5 be 2d a0 53 be 0c eb 92 3d
       -0.19189848 -0.41621593 -0.20666571 0.07173738
000290 6b 53 f3 3d 5f 9b bd be bf 02 29 3e b3 59 ab 3e
       0.11881145 -0.370326 0.16504954 0.33466873
0002a0 a1 35 98 be 7b fb af 3e 26 cd 83 be 2f d7 59 be
       -0.29728416 0.34371552 -0.25742453 -0.21273492
0002b0 90 82 af 3e e6 e8 e0 3e 0d 69 9d 3e 99 07 0b 3e
       0.342793 0.43927687 0.3074421 0.13577117
0002c0 38 c7 c3 3d 81 20 30 3e c4 5d 94 be 5f 91 9a 3e
       0.09559482 0.171999 -0.28977787 0.30189034
0002d0 1b 53 80 bd cc d4 ad 3e ed 1b 93 3e 9b 44 54 be
       -0.06265851 0.33951414 0.28732243 -0.20729296
0002e0 3e 97 97 3e ff 4e 13 bd 86 29 7c bd d3 75 c7 3d
       0.29607576 -0.03596401 -0.061563037 0.0973927
0002f0 2e 7c 4a bd 34 97 fc bd 8c ba 62 3e 8e 62 26 bf
       -0.049434833 -0.12333527 0.22141474 -0.6499413
000300 b1 62 e1 bd 29 9b 31 3e f5 d5 93 bd e6 b7 1e 3e
       -0.11005152 0.17344345 -0.072185434 0.15499839
000310 b3 28 24 be f5 8b a9 3e ac 34 a4 3e af 0f 86 be
       -0.1603115 0.3311459 0.32071435 -0.2618384
000320 cd 93 8b 3d 5a 4a 27 be 0f d2 ba 3e 7f d3 18 3e
       0.068153 -0.16336957 0.36488387 0.1492443
000330 8d 57 43 be c2 cc a0 3e 78 69 8c be a7 41 a1 3e
       -0.19076367 0.31406218 -0.27424216 0.314954
000340 c5 60 33 3e f6 3a d6 be c4 73 ab 3e 99 58 30 be
       0.17517383 -0.4184186 0.3348676 -0.17221297
000350 cb 06 5f 3e 65 25 d9 3e 1e c3 be be 84 91 89 3c
       0.21779935 0.42411342 -0.37258238 0.01679302
000360 4a 9d 23 be 79 1b 4e 3e 9c 58 62 3e ad a8 82 3e
       -0.1597797 0.20127667 0.22104114 0.25519314
000370 b9 82 ae 3e 07 c4 26 3d 6b 6d b5 3d 58 cb a0 3e
       0.34084108 0.04071429 0.088587604 0.3140514
000380 fc b3 c8 bc b1 c5 e4 bc 50 e9 0f 3e c2 61 c4 bd
       -0.024499886 -0.027926298 0.14053845 -0.09588958
000390 8d ec e8 3c 02 1e 2e 3e 8c d0 5a bd c0 11 bf 3e
       0.028433109 0.17003635 -0.053421542 0.3731823
0003a0 69 1a 62 3d 42 3e c1 be 49 9d be 3d c6 a0 c0 be
       0.055200968 -0.3774281 0.093073435 -0.3762266
0003b0 c4 70 f7 3e 77 41 51 3d 04 19 4a be 0c 3a c9 bd
       0.4832822 0.051087823 -0.19736105 -0.09825525
0003c0 c3 5e 8d 3c 76 94 2b be 5e 21 81 be f3 f9 a2 3e
       0.0172571 -0.16755852 -0.2522077 0.3183132
0003d0 32 5b 4b bd 47 2a 60 3e 12 0e f7 3c a6 ff 0b 3e
       -0.049647518 0.21891128 0.030158076 0.13671741
0003e0 cc 01 fa bd 1a a4 4a 3e 50 a6 92 bd e8 66 1f be
       -0.12207374 0.19789162 -0.07160628 -0.155666
0003f0 b7 da a6 3e 8c 84 b9 3e 1e 0a 10 3f 6f 3a a5 3d
       0.3258874 0.36233938 0.5626544 0.08067786

fc2.bias f4 [64]
000000 79 46 54 3e 3a 81 b7 3e 3f 47 2c be 07 e9 87 3e
       0.20730008 0.3584078 -0.16824053 0.26544973
000010 4d 24 42 3e 67 67 80 3e 0e 5f 51 be 5b fe bb 3e
       0.1895916 0.2507889 -0.20446417 0.36717495
000020 15 73 0b 3e 01 74 8c bd 71 a9 17 3e d9 34 87 bd
       0.13618119 -0.068580635 0.1481073 -0.06601877
000030 08 fd 8d 3e ae b9 60 be 12 ce 41 3e 38 ea 8f 3e
       0.2773211 -0.21945831 0.18926266 0.28108382
000040 5c 9d b0 3d 0d c8 37 3e ee 4c 07 be 43 4a 3d 3d
       0.08623764 0.17947407 -0.1321294 0.0462134
000050 67 58 03 3e 44 69 bd 3e ed 7c 00 be aa 78 b0 3e
       0.12826692 0.36994374 -0.12547655 0.3446706
000060 43 c0 14 be 03 b5 35 3e f8 12 29 3e 4e a8 89 3c
       -0.14526467 0.17744832 0.16511142 0.016803887
000070 1d e3 1c 3e 67 d6 bc bd c9 31 b4 3e 43 91 90 be
       0.15321012 -0.092205815 0.35194233 -0.28235826
000080 a4 95 ae 3e 96 fe 8e 3e 42 05 7e be 29 24 83 bd
       0.34098542 0.2792861 -0.24806693 -0.064033814
000090 ab 47 03 be 8b dd 82 3e 86 bb 0d 3e e1 55 86 3e
       -0.12820308 0.2555965 0.13841066 0.26237395
0000a0 6a 04 97 3e c7 26 88 bc a6 1c 80 3e ed ac a3 3e
       0.29495555 -0.016620053 0.25021857 0.3196787
0000b0 55 fc aa 3d ea b0 fa 3d 42 d1 b0 3e d8 14 9d bd
       0.0834891 0.12240775 0.3453465 -0.07669991
0000c0 04 af 8c bd f5 2c a0 be f5 40 bb 3e 79 e6 5c be
       -0.06869319 -0.312843 0.36572996 -0.21572293
0000d0 05 8a ef 3d 0f b8 ea bd 5a f0 b3 bd 52 19 24 3e
       0.11696247 -0.11460888 -0.08786078 0.16025284
0000e0 94 65 a6 3e de 81 7d 3d 36 d5 75 3d d2 51 9d 3e
       0.32499373 0.06189143 0.060017787 0.30726486
0000f0 3f 08 a1 3e 56 12 ea 3d fe 30 41 be 01 63 34 bd
       0.31451604 0.114292786 -0.18866345 -0.04403973

embedding.weight f4 [2, 64]
000000 1a ff 73 bf 4b 31 b8 bf ea 89 16 40 2a 86 b7 3f
       -0.9531113 -1.4390043 2.3521676 1.4337819
000010 10 d2 a1 3f 5e 85 31 bf 7d fe a8 3f 50 a4 ff bb
       1.2642231 -0.6934413 1.3202664 -0.00780157
000020 4e ba e6 be 5b 23 28 c0 8f 1b c0 bd f9 21 2e 3f
       -0.45064014 -2.627158 -0.093802564 0.6802059
000030 18 44 2b 3f 76 bb 86 3f 25 02 1c 40 83 42 ae bf
       0.6690078 1.0525959 2.437631 -1.3614048
000040 e5 d5 75 bf ce f9 08 bf c0 2f a7 3f b7 03 17 bf
       -0.960295 -0.5350617 1.3061447 -0.58990043
000050 e2 36 a4 bf 25 94 23 3f 46 47 ea 3e 4b d2 77 bf
       -1.2829249 0.63897926 0.45757502 -0.96805257
000060 86 70 cc 3f f1 29 96 3f db df 25 bf 53 37 d5 be
       1.597184 1.173155 -0.647947 -0.41643772
000070 8a b8 dc bd 27 75 95 3f 95 a1 8e 3c a2 98 16 3f
       -0.107773855 1.1676377 0.017411033 0.5882665
000080 27 8c 9a be dc 6c 32 bf 8c 9b 00 40 d2 a3 a0 bf
       -0.30185053 -0.69697356 2.0094938 -1.2549994
000090 a6 28 08 c0 c6 e7 b2 3f e2 71 01 c0 82 72 79 3d
       -2.127481 1.3976982 -2.0225759 0.06090022
0000a0 66 ef f2 bf 6e b2 a2 bf 26 ed 49 3f 6c 89 28 3e
       -1.8979309 -1.2710702 0.78877485 0.16458672
0000b0 2d 3b 19 bf e6 2c 75 be 3f 5a 83 3f 81 3f 0a 3f
       -0.5985592 -0.23942909 1.0261916 0.5400315
0000c0 6f 20 ca be 10 8f df 3e f7 a2 cd bf d7 c2 c1 3e
       -0.3947787 0.43663836 -1.6065358 0.37843964
0000d0 2b 03 02 c0 91 24 a5 bf 5b 82 a1 3f 3b 65 80 3e
       -2.0314434 -1.2901784 1.2617906 0.25077233
0000e0 71 f6 de 3e c7 3f c0 bf ce 1e 3e bf ff 15 0e bd
       0.43547395 -1.5019463 -0.74265754 -0.034688946
0000f0 02 8e 00 be 51 ee 1d c0 80 a1 02 c0 f5 06 d6 3f
       -0.12554172 -2.4676707 -2.0411072 1.6720873
000100 8a 47 f9 be 99 28 8d 3f 4b 49 97 bf f2 13 d1 bf
       -0.48687392 1.1028014 -1.1819242 -1.6334212
000110 61 9f 44 bf bf cc 21 bf ff 16 67 3f fb f5 84 bf
       -0.7680569 -0.6320304 0.90269464 -1.0387567
000120 41 ca ee bd 66 6c 64 3f 7b 99 1f c0 ec 38 ff bf
       -0.116596706 0.892279 -2.4937427 -1.9939246
000130 96 30 1f 3f 3c c6 ab 3f 9b 9a e8 bd 14 79 73 be
       0.6218351 1.3419871 -0.11357614 -0.23776656
000140 cb 6a 69 3e 84 6d 32 be da 49 37 3f 33 4a d6 bf
       0.22794645 -0.1742459 0.71597064 -1.6741394
000150 2c 7d 53 be 8a a2 41 bf e5 99 4d 3f 80 78 99 3f
       -0.20653218 -0.7563864 0.8031295 1.1989899
000160 96 6f e7 bd e2 66 d8 3f 4a b9 88 be fe 9b 9a be
       -0.1130058 1.6906397 -0.26703864 -0.30197138
000170 9c 49 d0 bd c0 a9 f2 3f dd 14 e5 3f 6b 38 25 3e
       -0.1017029 1.8958054 1.7896992 0.16134803
000180 e0 c9 cd 3d 78 4d e8 bf 6d bd 30 3f e5 67 f4 3e
       0.1004827 -1.8148642 0.6903904 0.47735515
000190 7b b8 65 3e 03 aa 81 3e 00 ed 92 be c0 f6 08 3f
       0.22433655 0.2532502 -0.28696442 0.5350151
0001a0 64 0f c6 be f1 b3 71 3f 00 09 b3 3f a6 44 88 3f
       -0.38683617 0.94415194 1.3987122 1.064595
0001b0 88 45 c6 3f 9f 8f e1 3e a8 22 a4 3f e1 5d 58 3f
       1.5489969 0.44054887 1.2823076 0.8451825
0001c0 5a b1 ef bf b4 97 ea be bd bb 0c 40 38 c0 1c c0
       -1.8725998 -0.45818865 2.1989586 -2.449232
0001d0 4c 7b ec bf 18 b7 f1 3f fa f1 e6 be c6 4c 03 3f
       -1.8475127 1.8884001 -0.45106488 0.5128902
0001e0 1f a8 72 3f 07 92 44 3f 90 30 22 bf a2 09 db be
       0.9478778 0.7678532 -0.6335535 -0.42780787
0001f0 e8 4a a1 bf 2e c2 72 bf 2d b7 d5 3f f9 10 99 3d
       -1.2600985 -0.94827545 1.6696526 0.074739404

adaLN_modulation.1.weight f4 [128, 64]
000000 19 53 c2 3d e4 a1 02 3e c5 36 e1 bd e2 4e 08 3b
       0.09488506 0.12757069 -0.109967746 0.002079897
000010 e6 6b b9 bd 20 30 e6 3d 16 71 8e 3d de e5 d1 3d
       -0.09053783 0.11239648 0.06955163 0.10248922
000020 e1 a5 4e 3c 12 49 9d bd 20 49 34 3e 61 04 0b 3e
       0.012612791 -0.07679953 0.1760602 0.13575889
000030 be 47 16 bd 45 1d 95 3d c8 c6 df bd f4 2a d3 3d
       -0.036689512 0.07280973 -0.109265864 0.10310927
000040 a5 15 cf 3c 97 b6 23 bd ab f1 86 3d c7 e0 56 3d
       0.025278876 -0.039969053 0.06589063 0.052460458
000050 d4 c5 79 3d dd fb 85 bd 07 bd 99 bd c6 82 8e 3d
       0.06097968 -0.0654218 -0.07506757 0.06958537
000060 9d 49 15 be 0b de 42 bd 8e 4a ca 3d d8 76 9c 3d
       -0.14578862 -0.047575038 0.098775014 0.07639855
000070 2b a4 a0 3d 88 1b 31 3d 30 c7 65 3d 83 4a c0 3d
       0.078438126 0.043239146 0.056098163 0.09389212
000080 a5 ea 8b bd 63 cf 89 3d 1d 8b 98 bc da 5a 83 bc
       -0.06831864 0.06729009 -0.018621022 -0.016034532
000090 6a 2a 81 3d 4d 79 99 bd 37 ae f0 bc 4d 8a 9f bc
       0.06306918 -0.074938394 -0.029379947 -0.019475127
0000a0 44 84 c9 bc 5e 6c 2a bc 33 5d 0d 3e 42 5c 7c 3d
       -0.024599202 -0.010401813 0.13805084 0.06161142
0000b0 89 31 81 3d 80 d9 08 3d 51 ed 56 bc e5 c0 c4 bb
       0.06308276 0.03341055 -0.013118104 -0.00600444
0000c0 9b 65 27 bd 7f 74 e0 3c 13 a6 45 bd c0 e8 dc 3d
       -0.040868383 0.0273993 -0.048254084 0.10786581
0000d0 48 bd 86 bb c2 90 73 3d ce da 3d 3d ab ec 35 bc
       -0.0041119196 0.059464224 0.046351247 -0.011103789
0000e0 36 d9 ab 3b ef ea 8e 3d b4 fd 91 3c f1 e0 ff bd
       0.0052443994 0.06978404 0.01782117 -0.12494076
0000f0 83 3a 7f 3d c3 ef 6a bd c0 7c a6 bd c0 18 c6 3b
       0.06231166 -0.05735756 -0.08129263 0.006045431
000100 9b 06 d9 3c ee 70 cd 3d e4 c2 7d bc bf ef e9 bd
       0.026492408 0.10031305 -0.01548836 -0.11422681
000110 2e f4 0d bd 74 88 ab 3d 4c 93 e3 bc 2c c0 45 3d
       -0.034656696 0.08375636 -0.027780198 0.048278973
000120 5f 9f e8 3d 03 b8 c4 bd 71 7b f8 bd 16 29 84 bd
       0.113585226 -0.0960541 -0.121329196 -0.06453149
000130 6d 3e eb 3d 04 e8 ab bd 8d d6 a2 bd aa a2 6b 3d
       0.11486516 -0.08393863 -0.079510786 0.057528175
000140 b6 ea ae 3d c6 e3 54 3d 62 37 39 39 2a 3c 7b 3d
       0.08540861 0.051975034 0.00017663607 0.061336674
000150 ae 90 1e 3c ad 96 0c be d6 fa 1a 3d 0b 09 ca bd
       0.009678049 -0.13729353 0.037836872 -0.09865006
000160 53 c7 c0 3d 25 e6 fe bc 8e ec ff bd e6 96 b1 3d
       0.09413018 -0.0311156 -0.12496291 0.0867136
000170 5b 37 ee 3d 5d 5a da 3c 05 28 16 3d 19 a3 ee 3d
       0.11631652 0.026654417 0.03665926 0.11652202
000180 b7 a5 bb 3d 30 7b 2a be 50 5d 12 bd c5 31 be bd
       0.09162467 -0.16648555 -0.03573352 -0.092868365
000190 a5 2c b0 b9 25 54 b5 3d bf e0 77 bd 63 3e 03 bd
       -0.000336026 0.0885394 -0.06051707 -0.03204192
0001a0 fa f4 d5 bd 59 74 00 bb 22 9c d1 3d 28 a9 7d bd
       -0.10447116 -0.0019600599 0.10234858 -0.061928898
0001b0 f5 54 82 3c a7 be 7e 3c d8 35 1c ba b4 fd 8a 3c
       0.015909651 0.015548385 -0.0005958951 0.016966678
0001c0 91 86 fd bc 5f 01 e7 3d 19 8b aa bd 28 f5 15 bd
       -0.030947955 0.112795584 -0.08327312 -0.036610752
0001d0 c6 74 57 bd 89 11 03 be a3 d7 62 bd 71 dd d1 3d
       -0.0526016 -0.12799658 -0.05538143 0.10247315
0001e0 ac 6b e3 bd 9f a0 a7 bd 8e c3 59 3d 8b ff e1 3c
       -0.11104521 -0.08184933 0.05316501 0.027587673
0001f0 25 3e c6 bd 6b d6 12 be 8c 57 03 3d 6c b8 90 bb
       -0.09679822 -0.14339606 0.032065913 -0.004416516
000200 f5 fe 69 bd a9 58 c9 bb 87 b1 1d 3d de b5 db 3c
       -0.05712791 -0.0061446023 0.03849938 0.02682012
000210 47 fd a0 bd 66 28 48 bc cd f4 8a 3d 08 60 45 bc
       -0.07860809 -0.012216663 0.06784973 -0.012046821
000220 61 aa 85 3b 1b a3 dd bc 8b 34 d9 bd 1e 3e 6d bd
       0.0040791486 -0.027055314 -0.10605725 -0.057920568
000230 01 4f d5 bd c5 02 95 3d b2 71 de 3d 0f 35 9b 3d
       -0.104154594 0.07275919 0.108615294 0.075784795
000240 c2 a7 ae bc 45 f6 b2 3d 06 40 88 bc 9c c2 7a 3d
       -0.021320228 0.087383784 -0.016632091 0.06122075
000250 15 24 01 bd e4 dc 37 3d cc ec ac 3d e6 38 17 3d
       -0.03152855 0.044888392 0.08443603 0.036919497
000260 3b 4b 8f 3d 1e 79 9c 3c 67 dc 6b bd b1 d8 a7 bd
       0.06996771 0.019100722 -0.05758324 -0.081956275
000270 c8 f2 89 bd cd e0 03 be 08 28 9d bc dc f2 d3 3c
       -0.0673576 -0.12878723 -0.019184127 0.02587264
000280 b1 ec 6e bd 95 3c 07 3d 88 ed b0 bd a9 4f fa bc
       -0.058331195 0.03301676 -0.086390555 -0.030555563
000290 ec 4a bd bd 3e b0 91 bd 2f 3d 14 3c fc eb 04 be
       -0.09242806 -0.07113694 0.00904779 -0.12980646
0002a0 b4 cd 96 bd aa 43 0f 3c 77 66 a6 bd f2 60 88 3d
       -0.073634535 0.00874416 -0.08125012 0.06659116
0002b0 27 54 d5 bd a6 3c 05 be 4f 30 d8 bc dc 70 ec bd
       -0.104164414 -0.13011417 -0.026390223 -0.11544964
0002c0 17 fb f1 3d 40 73 de 3c 51 26 07 be 1e 99 2c 3d
       0.1181547 0.027154565 -0.1319821 0.04213821
0002d0 8d 93 c7 bd 4a 2f 53 3c 35 6e 45 3b 7a d2 ed 3b
       -0.0974494 0.012889693 0.0030125503 0.007257757
0002e0 26 be c7 bb c5 91 fe bc e8 9f a0 bd 9c cf e8 bd
       -0.0060956655 -0.031075368 -0.07843 -0.11367723
0002f0 e5 e4 2f bd fb c1 af 3d 63 ff 87 3d 4d 19 3a bd
       -0.0429429 0.08581921 0.06640508 -0.045434285
000300 83 3e 47 bc d8 c7 d6 bd a1 7f 21 3d e6 dc d0 3c
       -0.0121609 -0.10487336 0.039428357 0.025495958
000310 35 d3 b4 3a ab 5f fd 3d 43 ec 58 3c a8 9f 7e 3d
       0.0013795855 0.12371763 0.013239923 0.06216398
000320 8f fc d6 bd f0 af fb 3c 2e 51 9f 3d 06 0e fa 3d
       -0.104973905 0.030723542 0.07779156 0.12209706
000330 c0 98 46 bd 4c 51 86 3d 3f ee 04 3e 91 0e 35 be
       -0.048485518 0.06558475 0.12981509 -0.17681338
000340 dc e8 84 3d 55 95 8e bc a0 86 5e bd 9d 33 13 be
       0.06489727 -0.017405191 -0.054327607 -0.14375158
000350 b0 f9 89 bd c1 83 6e bd b9 ad 2c 3d ac 01 b5 3d
       -0.06737077 -0.05823112 0.042157862 0.088382095
000360 15 77 9c 3d c7 70 8a bd 7e 46 fc 3d da a6 4f 3d
       0.076399006 -0.06759792 0.12318133 0.05069623
000370 a2 cd 26 bd fe 47 52 3c e6 2a f8 38 48 4d 60 3d
       -0.04072345 0.012834547 0.00011833552 0.0547612
000380 16 0c 36 3d 5c a4 26 3c 3e 28 68 3d 3e 2f 13 be
       0.04444512 0.010171022 0.056679003 -0.1437349
000390 6d b6 80 bc dc 44 87 3d 94 34 ef bd dd 79 13 bd
       -0.015711987 0.06604931 -0.1167995 -0.03600489
0003a0 db fb 28 bd ff 65 90 bd 97 61 9c bd d4 75 fa bc
       -0.041255813 -0.07050704 -0.07635801 -0.030573763
0003b0 04 9f cd bd 6a 08 a0 bd e5 c8 71 3b 88 0b a2 3d
       -0.100400954 -0.07814105 0.0036893424 0.07912356
0003c0 04 c6 bc bd 46 df d4 bc 36 f4 c3 3d 8f 54 07 bd
       -0.09217456 -0.025985371 0.09568064 -0.033039626
0003d0 de 65 59 bd 5e a5 86 3d eb 81 5e 3d 04 37 ae 3d
       -0.053075664 0.0657451 0.05432312 0.08506587
0003e0 05 25 3a 3d 12 4f e4 3c 88 96 b2 bd 35 4a 57 bd
       0.04544546 0.027869735 -0.08720118 -0.052561004
0003f0 36 52 e8 3d 17 d4 0b 3d 51 2c 04 bd b3 3f 33 bd
       0.113438055 0.03413781 -0.032268826 -0.04376192

adaLN_modulation.1.bias f4 [128]
000000 ee de 98 bd c5 0d 94 3d bb 11 4a bc 0c 9c d5 3c
       -0.074643955 0.07229189 -0.012333329 0.026075386
000010 c7 db da bd c4 8f c7 bd 57 64 8b bd 31 a9 28 bd
       -0.106864505 -0.09744218 -0.06806248 -0.04117698
000020 b3 28 3e bd ea c4 2c bd a8 af 78 3d 4c 4d d4 3d
       -0.046425533 -0.04217998 0.060714394 0.10366306
000030 f0 20 cb 3d 4d 92 64 3c 26 01 00 bb 07 62 ce bd
       0.09918392 0.013950896 -0.0019531935 -0.10077291
000040 9d 49 d9 3d 6f 95 a4 bc ea 99 fb bd 42 4f a9 bc
       0.10609744 -0.020090787 -0.12285216 -0.020667676
000050 ad 50 08 3d 3e d8 16 bc b0 19 9a bc f7 c2 3a bc
       0.033280063 -0.00920683 -0.018811077 -0.011399022
000060 ec 2d d8 bd 3f 3a e9 bd 02 a1 fe 3d 04 84 c7 bd
       -0.10555634 -0.11388063 0.124330536 -0.09741977
000070 48 eb b4 3d 29 be b3 bd 29 c2 b1 3d 60 6a cd 3c
       0.08833939 -0.087765045 0.08679611 0.025075138
000080 5d 20 ff bd 08 d4 61 bd 9b f4 c3 bd 6a d6 ce 3b
       -0.12457345 -0.05513385 -0.09568139 0.0063121812
000090 84 f2 79 bd a7 66 97 3d e4 7d 86 bc f5 22 66 3d
       -0.061022297 0.07392626 -0.016417451 0.05618568
0000a0 8e 18 9e 3d 39 82 de 3d 22 2a bf 3d 9f 9b b2 bd
       0.07719527 0.10864682 0.09334208 -0.087210886
0000b0 36 68 2e bd bd 3e 94 3a 14 02 98 3d 5a 4d b2 3d
       -0.042579852 0.0011310201 0.07422271 0.0870616
0000c0 af af d1 3d 96 a7 fc bc a4 85 ef bd 17 90 9d 3d
       0.10238587 -0.03084163 -0.11695412 0.076934986
0000d0 56 68 c7 3c a0 65 90 bd 9e c6 d2 3d 78 05 80 bc
       0.024341743 -0.070506334 0.102917895 -0.015627608
0000e0 4b 42 b7 3a 07 b8 8c bd 57 9a c6 3c 87 24 c8 3c
       0.0013981549 -0.06871038 0.024243517 0.02443148
0000f0 cf 6d 46 bd 69 7d 95 bd ad 31 78 bc f8 cd f7 3b
       -0.048444565 -0.07299311 -0.015148562 0.007562395
000100 70 c9 d0 3d 4d 8c 10 3e f8 67 b6 bc dd 53 ab 3d
       0.10194671 0.1411602 -0.022266373 0.08365605
000110 1b f2 5b bd 3c 40 ec bc 62 ce 43 3e 33 55 64 bd
       -0.053697687 -0.028839223 0.19121698 -0.055745315
000120 28 8c 99 bd ab 7c 0a be bb 74 7f 3c c2 48 8a bd
       -0.07497436 -0.1352412 0.015591796 -0.06752159
000130 3b 0e 82 3d 19 34 c2 3d 08 b1 ba 3c f9 63 d0 3d
       0.063503705 0.09482593 0.022789493 0.10175318
000140 42 e6 35 3e 8a 13 f9 3d 2e 3a 57 3d d7 20 10 3e
       0.17763618 0.1216193 0.05254572 0.14075027
000150 67 91 3f 3d ec 09 1e 3e 42 3b 29 bd b1 69 d5 3c
       0.046769526 0.15433472 -0.04131628 0.026051374
000160 b0 ad a0 bd 7c 43 dd bd e8 0a 68 3d 01 a8 8b bd
       -0.07845628 -0.10803887 0.056651026 -0.068191536
000170 fb 8c 9a bd 0f 66 d7 3c 2c 87 08 3b 50 21 81 bd
       -0.07546421 0.026293783 0.0020832522 -0.06305182
000180 53 d4 8f bb 06 2f 11 3e 8b c6 dd 3d 20 29 de 3b
       -0.0043893247 0.14178094 0.10828885 0.006779805
000190 f6 79 e5 bc f9 4f b5 bd fa 0e a0 3d 50 f5 7f 3d
       -0.028012257 -0.08853144 0.078153566 0.062489808
0001a0 4a 70 80 3d 58 3e bc 3d 2f 8f 64 bd 17 d3 c1 bd
       0.062714174 0.091915786 -0.055800613 -0.0946409
0001b0 a1 85 66 3d 6c af 90 bd 73 da eb bb ff 8c c1 bb
       0.056279782 -0.07064709 -0.007197672 -0.0059067006
0001c0 ee d7 5e 3a 99 8c 99 3b 8f 4c 52 bb c7 39 09 3e
       0.0008500804 0.00468595 -0.003208909 0.13400947
0001d0 11 50 8f 3d b6 9f 7c bc 9a 3d 84 3d d0 d4 30 3d
       0.06997693 -0.015418937 0.06457062 0.043171704
0001e0 64 dc c1 3d 96 41 14 3e 8f 16 0c 3e b3 5a 63 bd
       0.09465864 0.14478144 0.1368048 -0.05550642
0001f0 b7 20 d7 3d 25 6b 91 3c 1a 32 a6 bd f7 40 09 3e
       0.10504287 0.017751286 -0.08115025 0.13403688

advantage.0.weight f4 [256, 64]
000000 66 63 e9 3d db ad 0a be a9 8f ea 3c c3 60 ef 3d
       0.11395912 -0.13542883 0.028632956 0.11688378
000010 59 08 e5 3d ff 2d 01 be 94 a0 47 3c 2d a6 86 bd
       0.11183233 -0.12615202 0.012184281 -0.06574664
000020 7d 0e b9 3d d2 9b c7 bd 6b 60 f6 bd 1a c4 f9 bc
       0.090359665 -0.09746517 -0.12030109 -0.030489016
000030 86 18 a1 bd 62 04 f1 bc 3a ef 89 bd 99 c1 18 bd
       -0.078660056 -0.029421035 -0.06735082 -0.037294004
000040 85 9a 5c bd 0d 53 02 3e a0 88 ab 3c 5e c9 c1 bd
       -0.0538583 0.12726994 0.020939171 -0.09462236
000050 96 7c 17 3e bb 5f a5 3d 2a 67 6a bd 35 8d 6f 3d
       0.1479362 0.080749 -0.05722729 0.058484275
000060 aa 91 89 bc cd ed 22 3d c1 a4 cb bc 5d fe e0 3c
       -0.01679309 0.039777566 -0.024858834 0.02746504
000070 13 b0 19 be 5d 73 8c 3c 65 7f 7d bc 5f f0 ad bb
       -0.15008573 0.017144853 -0.015472268 -0.0053081955
000080 1d 03 e4 3d 0f 98 3e 3d 86 5b 11 be d8 52 e8 bb
       0.11133406 0.046531733 -0.1419507 -0.007089954
000090 68 90 ed 3d e0 c9 e0 bb 29 ed 34 bd 45 f6 ce 3d
       0.11599809 -0.006860003 -0.044171486 0.10105566
0000a0 ae 50 e0 3d 34 56 4b 3d d4 bc 5a 3d d4 e9 c7 bd
       0.109528884 0.049642757 0.053402737 -0.09761396
0000b0 c6 22 c0 bc b4 85 42 bb 39 65 13 bd a2 a9 06 be
       -0.023454081 -0.0029681744 -0.035985205 -0.13150647
0000c0 ec 0a 88 3d 13 64 89 bd 48 56 4d 3c 57 02 92 3c
       0.06642708 -0.06708541 0.012532778 0.017823381
0000d0 da 8d 67 3d df a8 d0 3d 83 4a f2 3b 66 c2 95 bd
       0.056531765 0.101884596 0.0073941364 -0.07312469
0000e0 5d 07 ea 3a b7 39 07 3e 70 e7 d2 3d 8f d8 c0 bd
       0.0017854978 0.1320561 0.102980494 -0.09416305
0000f0 eb bb 75 3c f7 bc 0b 3b 39 5f 9c bd 8b 0e 8d bd
       0.014998416 0.0021322349 -0.0763535 -0.068875395
000100 48 d3 28 bd 2b 83 69 3d 52 6a 97 bd 24 30 4a bd
       -0.04121712 0.057009857 -0.07393326 -0.049362317
000110 86 ae ab bd a6 ba 95 3d da ef bd bd 91 44 b9 bd
       -0.08382897 0.07310991 -0.09274264 -0.09046281
000120 33 d6 a8 3d 96 9d c8 bc 19 56 04 3e 2d a5 f1 3d
       0.0824398 -0.024489205 0.12923469 0.11799083
000130 f9 15 2b 3d a1 a8 2b bd cd cd 20 bd 6e a5 e0 bb
       0.041769 -0.041908864 -0.039258767 -0.0068556583
000140 27 1d cc 3d 10 58 b2 3d e0 6c 06 3e 4b c3 f2 3d
       0.09966498 0.08708203 0.1312747 0.118536554
000150 70 d0 bb 3d a3 a8 f6 bd 77 9d a9 3d 5f 00 bc bd
       0.09170616 -0.12043884 0.08281987 -0.09179758
000160 a5 b9 62 3d d2 3f d2 3d 2a d5 0f be 73 1a 88 bd
       0.055352826 0.10266079 -0.1404616 -0.0664567
000170 80 a0 9c 3d 88 95 9a bc 0b 4f 6c bd 3c e6 46 3c
       0.076478004 -0.01887013 -0.05769257 0.012139853
000180 ad 41 88 bd 14 a4 d0 bd 1a b9 35 3d 0c 4e af bd
       -0.06653152 -0.101875454 0.04436598 -0.08559808
000190 b8 07 d2 3d 2b 97 42 3d 0a f9 68 3d 15 12 8c bd
       0.102553785 0.047507446 0.056878127 -0.068393864
0001a0 68 30 aa bd e8 7c d9 bd 35 a6 b0 bd e9 f8 91 bd
       -0.08310014 -0.10619527 -0.086254515 -0.07127554
0001b0 79 27 15 3d 36 08 34 3d 39 2f 1c bd 07 c2 0d 3d
       0.036414597 0.043953143 -0.038130973 0.034608867
0001c0 2d 2e f5 bd 56 bd 89 3d 35 eb 8e ba 02 88 34 3d
       -0.11971698 0.06725566 -0.0010903837 0.04407502
0001d0 22 52 98 3c 86 78 a0 3d 47 e5 73 bd db 61 8b 3c
       0.018593851 0.07835488 -0.059544828 0.017014435
0001e0 6c 3c 8e bc c7 c6 19 bd 8a 5b f4 3c 7c b0 da bd
       -0.017362796 -0.037543084 0.029828805 -0.10678193
0001f0 0a c9 06 bd 71 a1 5a bc 1d ae bd bd 7f 80 ea bd
       -0.03290657 -0.013344155 -0.09261725 -0.1145029
000200 e0 cd 78 3c 71 8a 58 3d 17 3d d9 3d 35 77 ef bd
       0.015185803 0.052866403 0.10607355 -0.11692659
000210 b1 fa 2b bc fe fa d6 3d 61 98 e2 bd e0 1f 05 3d
       -0.010496781 0.10497092 -0.1106422 0.0325011
000220 6e e7 cb bd ac 00 31 bd a5 cc d3 3d 91 e8 33 bd
       -0.09956251 -0.04321353 0.10341767 -0.043922964
000230 70 f6 05 be d6 9d 71 bd 55 85 ca bd 39 9b 06 3e
       -0.1308229 -0.058988415 -0.09888712 0.1314515
000240 41 f8 f8 bd bf e6 88 3d 75 7d 1e 3d 6b 7a e0 bd
       -0.12156726 0.06684636 0.038693864 -0.109608494
000250 af fa ec 3c 47 1e 95 3b 28 46 8f 3c bb 42 2d bd
       0.028928129 0.0045507285 0.017489508 -0.042299967
000260 c4 92 dc bd 7f c6 1e 3d e5 f5 06 3c 1c 09 2e 3d
       -0.10770181 0.03876352 0.008237337 0.042489156
000270 5f 67 0e 3e 0c 6b e2 3d 61 e2 06 3d 16 5c 8f bd
       0.1390662 0.11055574 0.032930735 -0.06999986
000280 8d a7 5e bd 9e b1 90 3d e6 56 e9 bc d8 bd fe bb
       -0.054359008 0.07065128 -0.02848382 -0.007774096
000290 de 6f d7 bd f0 a4 01 bd 83 53 39 3d 9d fd 15 3e
       -0.10519384 -0.031651437 0.04524566 0.14647527
0002a0 42 84 81 3d 40 f0 88 bc 24 58 cd bd 08 ac fc bd
       0.06324054 -0.016716123 -0.10026577 -0.123375
0002b0 e1 75 af bd d9 f5 03 3e 13 c9 dc bd b0 1d a0 3d
       -0.085674055 0.12886752 -0.10780539 0.078181624
0002c0 8c 2d 93 3d 75 65 e2 bd d6 b7 88 bd 2f d3 2c bd
       0.07186422 -0.11054508 -0.06675689 -0.042193588
0002d0 2c 9c b0 3d 29 09 84 bd 4c 33 55 bc b0 6b 07 3e
       0.086235374 -0.0644706 -0.013012718 0.13224673
0002e0 f4 ac 11 3e 00 b0 9c bd 9a e7 98 bd 7f 5c 90 3d
       0.14226133 -0.07650757 -0.074660495 0.07048892
0002f0 a3 0c 09 3e c5 b7 a0 bd 1d e0 d7 bd b6 2e 46 bc
       0.13383727 -0.07847551 -0.10540793 -0.012096098
000300 0e 1c 93 bd 7b 02 c7 3d cd 1f c1 ba 35 38 7a 3d
       -0.071830854 0.0971727 -0.0014734209 0.06108876
000310 06 82 1a 3d 65 c6 e3 3c 38 f6 dc bd f5 51 e9 3d
       0.037721656 0.027804563 -0.1078915 0.11392585
000320 aa a7 a0 3a 66 16 9c 3d 39 fb fc 3d f2 6c 85 bd
       0.0012256999 0.0762146 0.123526044 -0.0651492
000330 37 49 38 bd 42 2b 01 3d 3a 53 ff bd 77 40 a9 bd
       -0.044991698 0.031535394 -0.12467046 -0.08264249
000340 61 ae 3c bd 0c d9 d8 bc 2b 10 ea bd 0e 01 89 bd
       -0.04606474 -0.026470684 -0.11428865 -0.06689654
000350 38 6a c1 bd df a5 b9 3d 5e 1a 95 3d f5 a3 09 be
       -0.09444088 0.090648405 0.0728042 -0.13441451
000360 32 30 98 3d 08 7e d7 3d 7a ea 7a bc 63 ee a4 bd
       0.074310675 0.105220854 -0.015314693 -0.08053281
000370 7d f3 cf 3c ee 12 23 3e 21 3b 02 be 2f b1 c4 3b
       0.025384659 0.1592519 -0.12717868 0.0060025672
000380 a8 2b 18 bd 36 c4 b2 bd f3 af ac bc 31 b3 af bb
       -0.03715101 -0.087288305 -0.021079993 -0.0053619375
000390 8f e5 5d bc de 46 29 bc 26 14 bf bd f8 8d e4 3d
       -0.013543501 -0.010331837 -0.09330015 0.11159891
0003a0 4d 42 c4 bc b3 23 ab bc df 34 f5 3b f9 28 35 bd
       -0.023957396 -0.020891046 0.0074831094 -0.044228528
0003b0 bd fc d7 bd 0f 12 18 be 64 c1 05 3e 62 fb c2 3d
       -0.10546253 -0.14850639 0.13062054 0.09520604
0003c0 8e 69 89 3d 5f a7 e4 bd 2d 53 f8 bc e9 02 b9 bd
       0.06709586 -0.11164736 -0.030313099 -0.09033758
0003d0 9a 0c 07 3a fc 6e 0e 3e d3 5e fd 3d bf 94 af bd
       0.0005151719 0.13909525 0.12371602 -0.08573293
0003e0 86 9b 84 bc 11 dd ab bd 60 c2 f0 bd d1 a9 3a bd
       -0.01618744 -0.083917744 -0.11755824 -0.045572106
0003f0 f6 72 dc 3d c2 94 bd 3c 71 a3 04 3e 27 60 6e bc
       0.107641146 0.023142222 0.12952973 -0.014549292

advantage.0.bias f4 [256]
000000 ad 32 2b 3d e6 b8 c9 3d b3 ce da 3d 2c e6 1b 3d
       0.041796375 0.0984972 0.10683956 0.038061306
000010 82 69 5e 3d 24 9f f2 bd 45 06 ab bd 40 dc de bd
       0.05429984 -0.1184676 -0.08350805 -0.10881853
000020 09 0a 82 3c f2 ed d4 bb 20 2c 0c 3e cd 02 6e bd
       0.015873926 -0.006498092 0.13688707 -0.05810814
000030 73 b0 29 bd 15 7c 21 3d 07 35 cd 3d f7 ad 73 3c
       -0.04142804 0.039424974 0.1001988 0.014873019
000040 55 7a ed bd d4 a0 d0 3d b4 5b 6c bd d8 f0 83 3d
       -0.115955986 0.101869255 -0.057704642 0.06442422
000050 79 ca cd bd 75 2a 03 3e cd 53 61 bc 68 79 ba 3d
       -0.10048384 0.12809165 -0.01375289 0.09105188
000060 99 5e 35 bd 4f 20 05 3d 8f 96 41 3b d2 c7 42 3d
       -0.04427967 0.032501515 0.0029539203 0.047553845
000070 8f bf df 3d 49 d8 14 bd f9 0b 06 bc a5 74 3e 3d
       0.10925209 -0.036339078 -0.008181565 0.04649796
000080 b6 9a 86 bd 93 b9 ac 3d 80 9e ab bd d6 4e 23 bd
       -0.065724775 0.08433833 -0.08379841 -0.039870106
000090 d9 56 d0 3d 39 7a 17 bd fc fc 96 3c 1c 6a eb 3d
       0.10172815 -0.036981795 0.01843118 0.11494848
0000a0 ae d1 0c 3c 34 ec 16 3e 0c b3 90 3d b3 ea 55 bc
       0.008594913 0.14738542 0.070654005 -0.013056445
0000b0 f9 fe 4e 3c e4 35 f7 bc 34 c5 35 3d b2 d1 62 bd
       0.012634032 -0.030177064 0.04437752 -0.055375762
0000c0 c1 93 ae 3c dc 36 11 bd fb 28 7b bd ec a0 2e 3d
       0.021310689 -0.03545271 -0.06131838 0.042633936
0000d0 90 c5 ae 3d 2f 49 9e 3d 13 8d 2b bd 49 b4 85 bd
       0.08533776 0.077288024 -0.041882586 -0.06528527
0000e0 1a 56 bb 3d b9 45 e1 bc 1c c7 8e bd 34 45 dc 3b
       0.09147282 -0.027499067 -0.06971571 0.006722117
0000f0 2f 86 7f 3d 51 93 e2 bd 23 09 86 3c 33 df 3f 3c
       0.062383827 -0.110632546 0.016361779 0.01171093
000100 39 5a 84 bc de ca 97 bc 78 8f 80 3c f9 43 bf bd
       -0.016156303 -0.018529352 0.015693411 -0.09339137
000110 7e 89 ce 3d 79 ac 7c 3d 5b 95 2b bd d8 3a 9f bd
       0.10084818 0.06168792 -0.041890483 -0.077748954
000120 9d 0a 18 3d 8c dc 98 3d 56 58 13 3e 02 41 e6 bd
       0.037119497 0.07463941 0.14389166 -0.11242868
000130 d7 c8 11 3c dd 6f a1 bd ac fc a9 bd 18 b1 d7 bd
       0.008897982 -0.07882664 -0.083001465 -0.10531825
000140 f8 98 84 3b f3 38 5e 3d 02 67 f7 3d 76 73 86 3b
       0.0040465556 0.05425353 0.12080194 0.0041031195
000150 2c 9c a2 bd cd d1 f0 3c 42 14 21 3d d4 00 e2 3d
       -0.07939944 0.029396916 0.03932596 0.11035314
000160 a1 6b 01 bc ce 92 84 3d 1a f0 c5 3d 74 a1 c4 3d
       -0.007899196 0.06473313 0.09664936 0.09601107
000170 d1 de bc 3c 93 7b 0e bc 37 97 6d bd 2e 32 47 3d
       0.023055466 -0.008696455 -0.058005538 0.04863184
000180 24 8f f3 3d 87 9d 79 bc 49 3f 80 bd ea 7b b6 bc
       0.11892536 -0.015235311 -0.06262071 -0.022275884
000190 1b c8 81 3d 3a db 05 3d 5f 36 a4 3d aa e5 b9 3d
       0.06336995 0.032679774 0.08018183 0.09077008
0001a0 c0 6d cb bd 6c fb d1 bd e6 c4 29 bd d4 9e fe bc
       -0.099330425 -0.10253033 -0.041447543 -0.031081595
0001b0 3b 7f fe b9 87 f0 7f bd da b1 82 3d 0f ba 92 bb
       -0.0004854145 -0.062485244 0.06381579 -0.0044777463
0001c0 e3 55 30 3c c6 25 a1 3c 1c b1 00 be 95 6d c5 bc
       0.0107626645 0.019671332 -0.12567562 -0.024100104
0001d0 d5 4a 86 bc de 07 a9 bc b9 73 a3 bd df e5 d2 3d
       -0.016393105 -0.020633634 -0.07981057 0.10297751
0001e0 e1 8b f8 bb de f8 09 3e 34 b0 e6 bd ab fc 45 3d
       -0.0075850342 0.13473842 -0.11264077 0.048336666
0001f0 c1 33 5b 3d 10 dc 0b 3d 2c 16 cc 3d 6f 32 e7 3d
       0.053516153 0.034145415 0.099651664 0.11288916
000200 cb 43 d8 3d 03 93 8c bd 13 88 49 3d bb 3a ce bd
       0.105598055 -0.06863978 0.049202036 -0.10069796
000210 38 b6 a2 3a 85 7a fd 3d 91 6d a7 bb 22 ac 43 3d
       0.0012413925 0.12376884 -0.005109497 0.04777158
000220 16 1b ff 3d ec 39 cf bd ad 12 44 3d eb 6d 03 3d
       0.12456338 -0.101184696 0.047869373 0.032087248
000230 b8 5c 93 bd dc 59 3f bc e1 1a 14 3d 19 d0 04 3e
       -0.07195419 -0.011679139 0.036158446 0.12970008
000240 1a c0 2a bc ec 3e d7 3d cc b8 ac 3d b4 1d e8 3d
       -0.010421777 0.10510048 0.08433685 0.113337904
000250 4c 3b 76 bd ee 62 1f 3d 69 c5 e9 bd 38 3a c8 bd
       -0.060115144 0.038912706 -0.11414606 -0.09776729
000260 ab c7 6e 3a 4b 5c ca 3d 79 2a e2 3d 66 8d d4 bd
       0.00091087323 0.09880885 0.11043257 -0.10378532
000270 60 ba f9 3d ff 51 91 3c 26 75 57 bd fc f1 6c 3d
       0.12193751 0.017739294 -0.052601956 0.05784796
000280 4c b3 a3 3d c2 75 cf 3d 77 d9 f5 bd 26 50 a6 3d
       0.079931825 0.101298824 -0.12004369 0.08120756
000290 7d a1 ba bd aa 1e 22 3d 6b f1 67 3d a4 3e 36 bd
       -0.09112833 0.039580025 0.05662672 -0.044493333
0002a0 50 2a 89 3d c6 fe a1 3d 16 fa a5 3d 36 d2 ab 3d
       0.066975236 0.07909922 0.08104341 0.08389704
0002b0 60 49 a8 bd e4 97 e4 bd 96 63 e1 3d f9 57 bb bc
       -0.0821712 -0.11161783 0.11005323 -0.022869097
0002c0 06 9f c4 bd 07 2a a5 3d ec ad 4a 3b 14 92 32 bd
       -0.09600644 0.08064657 0.003092642 -0.043596342
0002d0 06 71 02 bd 10 10 94 bd 35 81 f8 3c 36 6e 6e bd
       -0.03184607 -0.07229626 0.030335048 -0.058210574
0002e0 e4 e3 eb 3b 12 d9 04 bd db a3 bf 3d 43 1d 8f 3d
       0.0071987975 -0.032433577 0.09357425 0.06988003
0002f0 8a cd d7 bd 40 2a b3 3c 78 b1 de bd 0e 58 9b bd
       -0.1053725 0.021870732 -0.10873693 -0.075851545
000300 e7 2a ac bd c0 38 9d bd c5 37 d8 3d 34 ac 63 3d
       -0.084066205 -0.0767684 0.10557512 0.055584148
000310 1c 1f 4f b9 9d 12 72 3d 93 30 81 bd f9 85 a4 3d
       -0.00019752647 0.059099782 -0.06308093 0.08033366
000320 01 f9 b2 bd 8f c1 76 3b 8a f7 cd 3d c8 87 b1 3c
       -0.087389 0.003765199 0.1005698 0.02167119
000330 04 94 af 3c b4 df ba 3d af b4 c1 3b 02 39 6b 3c
       0.021432884 0.09124699 0.0059114317 0.014356853
000340 b1 80 96 3d 51 76 92 3d af 7d ed 3c 75 7d 26 bc
       0.07348765 0.07151473 0.028990595 -0.010161747
000350 a1 58 b1 3d 06 ba e5 3d 05 44 30 bc 99 3d d5 bd
       0.08659483 0.11217122 -0.010758405 -0.104121394
000360 e4 88 06 bc eb d1 98 bc eb b0 5f bd 3c 79 9e bd
       -0.008211348 -0.018654784 -0.05461208 -0.07737967
000370 8b 3b a3 bd e5 35 d3 3d 33 d8 8c 3c 70 b6 86 3d
       -0.07970341 0.10313014 0.017192936 0.06577766
000380 e6 4d e9 3c b9 a2 d7 3d 4d d6 93 3d 89 6d 56 3d
       0.028479528 0.10529084 0.07218609 0.052350555
000390 0b 65 95 3d 99 02 c6 3c 68 c5 cf 3d c6 53 b9 bd
       0.07294663 0.02417116 0.10145074 -0.09049182
0003a0 33 27 0c bd 77 6b b5 39 b6 ff ee bd 17 40 e0 bd
       -0.03421707 0.00034603078 -0.11669867 -0.10949724
0003b0 d0 a4 69 bd b9 ac 5d 3d df 1d 37 bd b1 15 c3 bd
       -0.057041943 0.0541198 -0.04470622 -0.09525622
0003c0 e6 72 a3 3c d6 de a8 3c d8 4b b3 bd 0c 77 b7 bd
       0.019952249 0.020614069 -0.087547004 -0.08958253
0003d0 cd 85 9b bd ec 32 4a bc fb 54 f7 3d 67 97 92 bc
       -0.0759388 -0.012341242 0.120767556 -0.01789446
0003e0 86 c9 0e 3e 23 03 94 3d 5c 16 d0 bd 79 21 e4 3b
       0.13944063 0.07227161 -0.10160515 0.006961998
0003f0 fa bd 99 3d 99 0f e1 bd 96 7f 42 3d 85 96 6d 3d
       0.07506938 -0.10989303 0.047484957 0.058004875
