result/low_level/ETHUSDT/vol.C51/1.0/label_3/seed_12345/best_model.pkl (torch, 659234 bytes, 24 tensors)

support f4 [51]
000000 00 00 20 c1 9a 99 19 c1 33 33 13 c1 cd cc 0c c1
       -10.0 -9.6 -9.2 -8.8
000010 66 66 06 c1 00 00 00 c1 33 33 f3 c0 66 66 e6 c0
       -8.4 -8.0 -7.6 -7.2
000020 9a 99 d9 c0 cd cc cc c0 00 00 c0 c0 33 33 b3 c0
       -6.8 -6.4 -6.0 -5.6
000030 66 66 a6 c0 99 99 99 c0 cd cc 8c c0 00 00 80 c0
       -5.2 -4.7999997 -4.4 -4.0
000040 66 66 66 c0 cc cc 4c c0 33 33 33 c0 99 99 19 c0
       -3.6 -3.1999998 -2.8 -2.3999999
000050 ff ff ff bf cc cc cc bf 98 99 99 bf ca cc 4c bf
       -1.9999999 -1.5999999 -1.1999998 -0.79999983
000060 c8 cc cc be 00 00 20 b4 c8 cc cc 3e ca cc 4c 3f
       -0.39999986 -1.4901161e-07 0.39999986 0.79999983
000070 98 99 99 3f cc cc cc 3f ff ff ff 3f 99 99 19 40
       1.1999998 1.5999999 1.9999999 2.3999999
000080 33 33 33 40 cc cc 4c 40 66 66 66 40 00 00 80 40
       2.8 3.1999998 3.6 4.0
000090 cd cc 8c 40 99 99 99 40 66 66 a6 40 33 33 b3 40
       4.4 4.7999997 5.2 5.6
0000a0 00 00 c0 40 cd cc cc 40 9a 99 d9 40 66 66 e6 40
       6.0 6.4 6.8 7.2
0000b0 33 33 f3 40 00 00 00 41 66 66 06 41 cd cc 0c 41
       7.6 8.0 8.4 8.8
0000c0 33 33 13 41 9a 99 19 41 00 00 20 41
       9.2 9.6 10.0

fc1.weight f4 [64, 36]
000000 13 72 e3 3d dd e6 b2 3d 7d 73 c1 be d5 b0 43 bf
       0.11105742 0.0873544 -0.37783423 -0.764417
000010 58 33 64 bf e4 09 48 bf e0 2f 93 3d 87 d5 13 bf
       -0.89140844 -0.7814009 0.07186866 -0.5774769
000020 65 1e 49 bf be 96 38 bf ce 80 17 bf a3 40 72 3e
       -0.78562003 -0.72105014 -0.59180915 0.2365747
000030 92 fe 8c 3e 55 11 83 bf e8 77 65 bf fe d6 4e bf
       0.27537972 -1.0239664 -0.8963609 -0.807968
000040 81 b9 1f 3c 88 e0 1b 3d 2e d0 9c be a9 a4 8d bc
       0.009748817 0.038055927 -0.30627578 -0.01729043
000050 ba 6a f9 bc 11 6e 85 bc 12 6e 66 be 53 18 ff 3c
       -0.030446399 -0.016287835 -0.22502926 0.031139528
000060 db 6c 53 be 63 23 3f bd ec 87 30 be 8c 9f 53 be
       -0.20646994 -0.046664607 -0.1723935 -0.20666331
000070 ca 46 58 be 9f f0 13 be 01 9d 6f be 6f 39 2a be
       -0.21120754 -0.14447258 -0.23399736 -0.16623472
000080 30 eb e0 bd c6 3d 15 be 04 08 e5 bd 26 ac 25 be
       -0.109823585 -0.14574346 -0.111831695 -0.1617895
000090 2a 53 f9 3d d1 58 fd be 4e 6d 0d bf fa 3f 2e bf
       0.121740654 -0.49481824 -0.5524491 -0.6806637
0000a0 38 f9 5a bf d4 e1 4e bf 29 8f 9f be e4 e6 40 bf
       -0.8553653 -0.80813336 -0.3116391 -0.7535231
0000b0 bf ae 44 bf bc e4 74 bf b6 5d 56 bf df ae a7 3d
       -0.7682914 -0.9566152 -0.8373674 0.08187651
0000c0 24 66 ff bc 25 dc a6 bf bb dd 5d bf 5e 0e 93 bf
       -0.031176634 -1.3035933 -0.8666646 -1.148876
0000d0 16 22 0a bd 90 4c fe bc bf bd 56 3e 7e 1f 8d bd
       -0.033723913 -0.031042367 0.2097082 -0.06890772
0000e0 f4 95 c2 3c 7a 12 4e 3d e2 35 60 3d 2d 9b 24 be
       0.023753144 0.05031059 0.054738887 -0.1607482
0000f0 42 30 c2 3d be 7d e6 bc 9f ae d1 3d ba 18 3b 3e
       0.09481861 -0.02813613 0.102383845 0.18271151
000100 a6 71 27 be 5c a2 92 3d 3d f4 af bd 6b 7f ba be
       -0.16351947 0.07159874 -0.08591507 -0.36425337
000110 65 fc d7 3d a9 84 41 be 3f a2 16 3e 27 44 5e 3e
       0.10546187 -0.18898262 0.1471033 0.21705686
000120 56 16 9f 3d a2 09 1c 3e 5b d9 95 3e 32 b4 10 3f
       0.07767932 0.1523805 0.29267392 0.56524956
000130 9b 2c 9f 3e 0b cc 00 3f cb c5 12 bd 66 fb 87 3e
       0.3108872 0.50311345 -0.03583316 0.2655899
000140 d9 57 ea 3e 0e 7b 0a 3f 14 a2 94 3e 88 8a 5f be
       0.45770147 0.54094017 0.29029906 -0.21830189
000150 88 e4 f6 bd 94 95 10 3f ca 77 1b 3f c4 c8 fe 3e
       -0.120553076 0.5647824 0.6072966 0.49762547
000160 b4 fd c5 bd fe 4a a2 bd fd c6 fd 3d 40 2e c7 3d
       -0.09667531 -0.0792446 0.1239147 0.09725618
000170 b3 47 3c 3d 3c bc c0 3c 19 3c 9f 3d 2a 18 f8 3d
       0.045966815 0.023527257 0.077751346 0.12113984
000180 d8 94 b8 3d 8f 75 5f 3d 93 4e 93 3d 5c 51 15 3e
       0.09012765 0.054555472 0.07192721 0.14581817
000190 fc cd e5 bd d6 cd cf 3d bd 90 81 3e d6 d4 48 3e
       -0.11220929 0.10146682 0.2530574 0.1961244
0001a0 f5 34 8a 3d 68 79 85 bd 1f 0d 83 3c d2 9f 3c 3d
       0.06748382 -0.06517297 0.015997468 0.046050854
0001b0 14 63 06 be 41 18 82 3d 0d 42 f2 be 90 66 0f bf
       -0.13123733 0.06352282 -0.47316018 -0.5601587
0001c0 6d 00 d9 be 51 18 06 be db d5 a8 3d a5 22 1d bf
       -0.42383137 -0.13095213 0.08243915 -0.6138099
0001d0 ed 10 1c bf 1b 51 ee be d5 b7 ee be a3 97 a8 bd
       -0.60963327 -0.46546254 -0.46624628 -0.082320474
0001e0 44 fc 42 be b7 1e 0d bf 37 f2 f9 be 9d 52 fa be
       -0.19041544 -0.5512499 -0.48817608 -0.48891154
0001f0 f9 08 0e 3d 84 b8 2d 3e 60 f0 1e 3d e6 93 c6 bd
       0.034676526 0.16964918 0.03880346 -0.09696178
000200 69 a2 e3 bc 7c 7c 0e 3c 24 16 11 3d b4 03 ec 3d
       -0.027787404 0.008696672 0.035421506 0.11524144
000210 a5 17 85 3e 23 2c b3 3e 83 06 9b 3e 36 20 92 3e
       0.25994602 0.3499461 0.30278406 0.285402
000220 c4 41 52 be e8 b5 62 3e 78 05 8a bd cf 11 55 bc
       -0.205329 0.22139704 -0.06739324 -0.013004734
000230 3e bb 3d bd f6 80 e8 3d 9b b0 a2 3e ba 0b 26 3e
       -0.046321146 0.11352722 0.31775364 0.16215411
000240 b7 d6 87 bd 47 f3 9f 3d ba 13 19 bf 6e ee 27 bf
       -0.066327505 0.07810073 -0.59795725 -0.6559819
000250 71 69 4d bf 50 62 18 bf 10 7c 8d 3d 18 e3 84 bf
       -0.80239016 -0.5952501 0.06908429 -1.0381804
000260 3a bb 41 bf 54 c8 27 bf 5d 84 e3 be 20 65 cf 3d
       -0.7567631 -0.6554005 -0.44436923 0.1012671
000270 11 a8 0c 3e 7c 4a 4b bf 69 ab 68 bf 48 21 68 bf
       0.13735987 -0.7941053 -0.9088655 -0.90675783
000280 8e 0b 9d bd 0b 7b 9a 3d d6 1e 7c 3e 7e 66 e1 bd
       -0.076682195 0.07543 0.24621138 -0.11005877
000290 60 09 93 3d 78 f7 bb 3d 63 c0 c8 3c 90 df 5a bd
       0.071795225 0.0917806 0.0245058 -0.053435862
0002a0 36 9b 09 be 3e a7 99 bd c7 4e 80 3d 5f 6e 11 be
       -0.13438115 -0.07502602 0.062650256 -0.1420226
0002b0 d2 16 e3 be 73 26 e7 3d 44 b3 8a bd c6 bc 8e be
       -0.44353348 0.112866305 -0.067724735 -0.27878398
0002c0 0c 55 ee bd 11 ef 1a bd 80 c1 1f be 65 8a bf 3d
       -0.11637315 -0.037825648 -0.15601158 0.093525685
0002d0 31 ea 81 3d 4d 30 11 be ef 0c 8c 3e 62 4c 73 be
       0.063434966 -0.14178582 0.27353618 -0.23759606
0002e0 b0 67 b3 be ab c4 05 bf 64 46 81 be bb eb 08 3f
       -0.35040045 -0.52253217 -0.25249016 0.53484696
0002f0 85 54 c0 3d 30 6c 74 be 40 a9 91 be 8f 56 ef bd
       0.09391121 -0.23869395 -0.2844944 -0.116864316
000300 b9 d8 06 be fd 2c 7b bf 14 c8 24 bf 76 d8 0b bf
       -0.1316861 -0.9811552 -0.64367795 -0.5462717
000310 2b 97 64 3d 5d 2a f6 3d bd 4a d6 be cc f5 ab 3d
       0.055808228 0.12019799 -0.41853896 0.083964914
000320 02 b7 cf bd 54 63 20 bd 57 5d 9c bd 55 22 49 bd
       -0.10142328 -0.039157227 -0.07634991 -0.049105007
000330 18 a8 0f bd 30 2f 06 be ba 25 3b be ef 50 7a bd
       -0.035072416 -0.13103938 -0.1827611 -0.06111234
000340 c1 41 c4 be 2f e2 a6 bd 15 d9 e0 be d7 f4 63 be
       -0.38331416 -0.0814861 -0.4391562 -0.22261368
000350 1b f5 b4 be ad fd 85 be 7d 08 9c bd 4f e8 bb be
       -0.3534325 -0.26170102 -0.076188065 -0.36700675
000360 64 2b 26 3d 6b 0f 11 bd 29 0b 2a be 54 3f c4 be
       0.040568724 -0.035415094 -0.1660582 -0.38329566
000370 cb 11 e1 be 25 ca 5f be fe 07 1b be 25 7e 77 be
       -0.43958887 -0.21854456 -0.15139768 -0.24169214
000380 08 95 a9 be 00 cd 42 be b5 83 e0 be 40 eb 1b be
       -0.33121514 -0.19023514 -0.43850484 -0.1522646
000390 a2 ad c0 bd c0 68 c4 be 2f cc 2e be 59 7a ad bd
       -0.09408118 -0.38361168 -0.17070077 -0.084706016
0003a0 66 26 2f 3e f3 f9 1f be cd 5c 20 3f 64 7f 03 be
       0.17104492 -0.15622692 0.626416 -0.12841564
0003b0 12 2b b6 3c f0 6e 44 bc 88 4d fa bd 5d 30 0e bd
       0.022237334 -0.01198934 -0.12221819 -0.03471409
0003c0 46 0c 2e be aa b1 9f 3d e9 8c 54 be 11 bb 23 be
       -0.1699687 0.077975586 -0.20756878 -0.15989329
0003d0 26 89 80 3e 7c 60 3b bc 6c 75 af 3d 43 85 60 bd
       0.25104636 -0.011436578 0.08567318 -0.05481459
0003e0 c9 c8 57 3e 16 4d 18 bd 6b 1f 15 be 25 48 d8 3d
       0.21072687 -0.03718289 -0.14562766 0.105606355
0003f0 e0 0b 2d bd b7 e0 6c 3d aa da 57 3f 9f b5 b3 3e
       -0.042247653 0.057831492 0.8431803 0.35099503

fc1.bias f4 [64]
000000 19 1c b1 be a1 f2 40 bf 6b ed 03 3e a8 34 82 be
       -0.3459175 -0.7537022 0.12883537 -0.254308
000010 f7 68 a9 be a8 49 1e bd f6 9a 89 be 15 14 ee 3b
       -0.33087894 -0.038644463 -0.26876038 0.0072655776
000020 1f 23 9e be 6b 2d e5 3c 5f be 53 bd 4c 66 53 bd
       -0.3088617 0.027975759 -0.051695224 -0.05161123
000030 5b 21 98 3e 79 e8 02 bf ae 81 ab be 5a b4 64 3e
       0.29712948 -0.51135975 -0.33497375 0.22334424
000040 e6 9a 31 be d2 28 a5 3d 13 43 4c bc 70 2e ce be
       -0.17344245 0.080644265 -0.012467164 -0.40269804
000050 b0 90 c7 3d 6b 9c a9 be 65 12 ad 3e 2d 0f 98 bd
       0.09744394 -0.3312715 0.33803096 -0.074247696
000060 c1 e8 c5 3d 81 ca 7c 3e 8a f9 56 b9 d1 39 2c 3f
       0.09663535 0.24686624 -0.00020501591 0.6727572
000070 9c 3a f3 be 5f 41 9e bd 86 07 92 be 4e 5c aa 3e
       -0.47505653 -0.07727312 -0.28521365 0.33273548
000080 b6 7d 26 3d 49 78 d0 be 16 80 e6 3e e8 a3 e7 be
       0.04064723 -0.4071677 0.45019597 -0.45242238
000090 c0 1f b3 be 98 f5 7f be 00 22 d4 3d a7 c2 8e 3e
       -0.3498516 -0.2499603 0.103580475 0.27882883
0000a0 f1 ee 37 3e a3 6c 1d be 3d d6 14 3f aa ef e6 be
       0.17962243 -0.15373473 0.581394 -0.45104724
0000b0 1f 47 be be ba cb 86 be 66 2d 5c be e7 96 e4 be
       -0.37163636 -0.26327306 -0.21501693 -0.4464638
0000c0 ab ce f0 bd 55 40 34 3e 51 c7 85 3e 0a 22 d3 be
       -0.11758169 0.17602666 0.2612863 -0.41236907
0000d0 b2 63 68 bd e0 1e 3f 3e a7 e1 5e be e8 b2 30 3e
       -0.0567357 0.18664122 -0.21765767 0.17255747
0000e0 53 4a 64 bd 6c 43 cf 3e 9f 4d 1b be c1 89 89 3d
       -0.055734944 0.40481126 -0.15166329 0.067157276
0000f0 66 72 81 bd 80 be 03 3f 56 6e 99 be dd c3 59 be
       -0.06320648 0.51462555 -0.29966992 -0.21266122

fc2.weight f4 [64, 9]
000000 f5 bf 2b be 72 1a 9e 3d 10 5d 14 bf a8 17 22 bf
       -0.16772445 0.07719888 -0.579545 -0.63317347
000010 b7 ab a2 be 08 2b b0 be a4 1e 31 3c c1 3e de bc
       -0.31771633 -0.3440783 0.010810528 -0.027129533
000020 df e0 b3 3e c3 89 4a be 80 63 77 be 1f b9 b7 3e
       0.351325 -0.19779114 -0.2415905 0.35883424
000030 a4 fe b8 3e 13 f3 bc 3c 77 b2 20 be d7 ef 6a be
       0.36131775 0.023065126 -0.15693079 -0.22943054
000040 08 8a 81 bd ee 82 90 3d 58 56 a0 bd 1b f2 10 3e
       -0.063251555 0.07056223 -0.07828969 0.14154856
000050 c6 de 7c be 7f 69 6a bd 2c 52 5a 3e 04 e5 32 3d
       -0.24694356 -0.057229515 0.21320409 0.043675438
000060 a9 a4 7f 3c e5 a7 f0 bc 40 93 b3 3e 8b e5 aa 3d
       0.015603223 -0.029376933 0.3507328 0.08344563
000070 54 f3 14 3e c4 e5 93 bf a7 c0 b8 be da 69 91 be
       0.14545947 -1.1554494 -0.36084482 -0.2840107
000080 e2 c7 91 3c c8 54 89 3e 6e 5a df 3d 1e 62 e7 3e
       0.017795507 0.26822495 0.1090592 0.45192045
000090 56 f2 8e be cb 48 a2 3e d5 bf 3b 3f 03 5f 03 3f
       -0.27919263 0.31696162 0.7333959 0.5131685
0000a0 63 e2 49 3e e3 9f 9d be 8e c3 9a 3e e6 7d 29 be
       0.19715266 -0.30786046 0.3022732 -0.16551933
0000b0 c1 56 ec be d6 4e 3b 3e cf 37 b9 be ac 8a 9f 3e
       -0.46159938 0.18291792 -0.3617539 0.31160486
0000c0 b1 6e b8 3e 49 1b 54 be 17 f0 92 be da 2f 65 3d
       0.3602195 -0.20713533 -0.286988 0.055953838
0000d0 49 f1 0d 3e 5d cb 02 bf a0 34 ac bd 37 68 75 3e
       0.13861574 -0.5109156 -0.08408475 0.23965536
0000e0 11 16 04 3f 8e f3 08 be d0 23 38 3d 7b f7 01 be
       0.5159617 -0.13374159 0.04495603 -0.12692063
0000f0 2e 70 dd 3d 9c 82 a5 be ae c6 58 be 91 be 2c 3e
       0.10812412 -0.3232621 -0.2116954 0.1686957
000100 08 3e a1 bd ab 7a a0 be 84 67 a3 be 5b 52 8b be
       -0.0787316 -0.31343588 -0.31914914 -0.2721127
000110 e0 93 d2 be 40 32 84 be ea 01 ef 3e fe 03 1f be
       -0.41128445 -0.25819588 0.46681148 -0.15528867
000120 fe a3 a6 3e 1c dd de 3e cb f9 76 3e cf 7e 9d be
       0.3254699 0.43528068 0.24118726 -0.3076081
000130 3e 5d 02 3d c4 5d b4 3e b4 c6 ad 3e ce f5 ab 3e
       0.031827204 0.35227787 0.3394066 0.33585972
000140 1f 7e 3a 3e 2c e2 89 3d ed c5 83 3d 31 d5 d8 3e
       0.18212174 0.06732592 0.06434236 0.42350152
000150 e9 ff 9d bd b0 4e 96 be 6d ea 0a 3e 52 3d 86 bd
       -0.077148266 -0.2935691 0.13565989 -0.06554665
000160 8f 20 83 3e bd 21 09 bd 4d 20 bc be c6 a9 f2 be
       0.25610778 -0.03347944 -0.36743394 -0.47395152
000170 e8 d1 8e be 89 8b ac be b6 76 d1 be 8e 28 5b be
       -0.2789452 -0.33700207 -0.40910882 -0.21402189
000180 11 dd 98 3e f9 0d 66 bd 32 05 9e be b6 dc 8e be
       0.2985616 -0.05616567 -0.3086334 -0.27902764
000190 66 f2 cb be e9 68 87 be 25 6e 42 3e ee fe db bd
       -0.39833373 -0.26447228 0.1898733 -0.10741983
0001a0 20 16 9e 3c 23 7f fb 3d 37 d6 96 be 0d 06 ca 3e
       0.01929766 0.12280109 -0.29460308 0.3945774
0001b0 e9 ca 43 be 4b c5 90 be 96 b5 6f 3f 4b 66 85 3f
       -0.19120373 -0.28275523 0.93636453 1.0421842
0001c0 70 4a 03 3e 4f a6 10 3d 2f 55 ca be 33 71 c9 3e
       0.12821364 0.035314854 -0.39518115 0.39344177
0001d0 35 72 fd be 6e f4 93 be 57 fa 9f 3e b1 0f 4b 3f
       -0.49501196 -0.28897423 0.31245682 0.7932082
0001e0 e5 ff 05 3e 83 44 4c be 82 4f df 3b 16 2d 29 3e
       0.13085897 -0.1994801 0.006814898 0.16521105
0001f0 e1 96 1e be 9a 00 15 3e 02 09 47 be ee 6f 57 be
       -0.15487243 0.1455101 -0.1943703 -0.21038792
000200 ce c9 78 be ba 49 15 be 14 7d 6d bd a1 5c 4f bd
       -0.24295732 -0.14578906 -0.057980612 -0.050625447
000210 ef 36 67 be 5e 8c ee bd 46 4d 41 bd 17 89 51 bc
       -0.22579549 -0.11647867 -0.047192834 -0.012789032
000220 ce 08 e3 3d 89 b8 08 bf 66 2b ec be 58 ed ae 3e
       0.11085664 -0.5340658 -0.4612686 0.34165454
000230 08 a4 35 3e c9 15 8d be 88 77 ee 3b 2a a4 ae 3e
       0.17738354 -0.27555683 0.007277433 0.34109622
000240 43 e7 d3 3d 7d e7 4c be cf 9c 0b 3f 6a d2 d4 3e
       0.10346844 -0.20010181 0.54536146 0.41566783
000250 7d 4f a7 3d 6b c3 45 be 57 fd 0f be fa 60 67 be
       0.08169458 -0.19312827 -0.14061485 -0.22595587
000260 ce 1b 52 be ba 8e 88 3e e6 52 ba 3e 51 ff e0 3e
       -0.20518419 0.26671392 0.3639137 0.4394479
000270 f5 e3 19 3f 04 7f 65 3e 73 e2 d4 3e 89 d4 70 be
       0.6011346 0.22411734 0.41579017 -0.23518576
000280 e0 99 69 be bf 6b fd be c4 9b 6c be f8 5c 3c 3d
       -0.22812605 -0.49496266 -0.23106295 0.0459871
000290 10 be 12 be 82 94 e3 be cc 4b 0f 3e 14 e8 9e 3e
       -0.14330316 -0.4444924 0.13993758 0.31036437
0002a0 42 7c bd be 6c d3 cf 3e af 23 b4 be b4 5f f2 bd
       -0.37008864 0.4059099 -0.35183474 -0.1183466
0002b0 32 1f e0 3e f5 a7 cf 3e a1 16 da 3e 6e 65 6b 3e
       0.437738 0.4055783 0.4259539 0.22987911
0002c0 64 2a 41 3e f8 f3 2e 3e 23 71 9b be f6 66 9c 3e
       0.18863827 0.17085254 -0.30359754 0.30547303
0002d0 09 6e 97 bd 3f 04 a8 3e 39 c1 3b 3d 61 cd c9 be
       -0.073940344 0.3281574 0.04583857 -0.39414504
0002e0 d4 ba 91 3e ce af 40 bd 15 ee 33 be 58 4b 3b 3e
       0.2846285 -0.04704266 -0.1757129 0.1829046
0002f0 e7 49 34 bc e2 ce 18 be 3c 4f 48 3e 06 94 57 bf
       -0.011003948 -0.1492267 0.19561476 -0.8421024
000300 5a e3 82 bd b3 6d 17 3e 0c 2b c7 bd 3b fa 05 3e
       -0.0639102 0.1478794 -0.097250074 0.13083737
000310 05 39 d7 bd 8f 9a e0 3e 23 e8 83 3e 5c c1 a6 be
       -0.105089225 0.4386792 0.25763044 -0.32569396
000320 8f 62 aa be 2c 71 f4 bd e9 73 9a 3e d8 d6 b3 3d
       -0.3327832 -0.11935648 0.30166557 0.087812126
000330 51 9e 98 be e0 1b cd 3e 15 36 89 be ad a7 ad 3e
       -0.29808286 0.4006033 -0.26799074 0.3391699
000340 9a 18 4c 3e 14 cd ac bd ab e0 37 bd 80 bb 17 be
       0.1993126 -0.08437553 -0.044891994 -0.1481762
000350 48 bf 75 3e 0a fd e3 3e ab 2e cd be 21 81 4f bd
       0.2399875 0.4452899 -0.40074667 -0.050660256
000360 f9 6b 38 be a5 68 38 3e f6 cc d2 3e 7c 92 ff 3e
       -0.18009938 0.18008669 0.41171998 0.49916446
000370 6e 12 a4 3e cb 3d af 3c a9 43 3c 3d ef a0 b3 3e
       0.3204531 0.02139177 0.045962963 0.3508372
000380 d7 22 b1 bd 13 ab 09 bd ee 82 09 3e aa c8 3b 3e
       -0.08649223 -0.033610415 0.13428852 0.18338266
000390 82 9d 29 3e 93 28 27 3e 58 e1 80 bd 1d e6 9e 3e
       0.1656399 0.16324072 -0.06292981 0.31034938
0003a0 a5 82 ad 3d 23 e8 0a bf 1f fb 39 3e fc 41 93 be
       0.08472184 -0.5426046 0.18162201 -0.2876128
0003b0 8e c0 66 3e bb bc f5 bd 6e 06 e0 bd 01 70 33 bc
       0.22534391 -0.11998888 -0.10938726 -0.010951997
0003c0 31 0b fd bd a6 88 92 bc 28 9f 3c be e9 29 ba 3e
       -0.1235565 -0.017887425 -0.18420088 0.363601
0003d0 dc 62 a3 bb 89 f0 07 3f 61 23 a5 bd 6a b8 39 3e
       -0.00498615 0.531014 -0.080633886 0.18136755
0003e0 13 f0 a2 bd e2 a8 5a 3e 19 6a cf bd f8 e5 23 be
       -0.07955947 0.21353486 -0.101276584 -0.16005695
0003f0 50 22 89 3e 90 56 9b 3e 40 f7 1e 3e 74 b3 58 bd
       0.2678399 0.3033948 0.15524006 -0.052905515

fc2.bias f4 [64]
000000 1c 50 92 3e 6c 3e c1 3e 78 9d 49 be e5 48 71 3e
       0.28576744 0.37742937 -0.19688976 0.23562963
000010 2c a1 22 3e bc 55 8b 3e a7 f3 89 be 69 3a b4 3e
       0.15881795 0.27213848 -0.26943704 0.35200813
000020 73 37 cc 3d 56 b4 15 bd 40 95 51 3e 89 24 b9 bd
       0.099715136 -0.036548935 0.2046709 -0.09040172
000030 88 6d 94 3e 48 bf 5c be 89 16 28 3e 41 ae 99 3e
       0.28989816 -0.21557343 0.16414846 0.30015758
000040 ee 17 18 3e bb 6d 2d 3e 4f 6e 10 be 4e 1f de 3d
       0.14852878 0.1693639 -0.1410458 0.10845815
000050 78 2a 07 3e 0d 3a b6 3e 3b 52 0a be 52 2b ba 3e
       0.13199794 0.35591164 -0.13507931 0.36361176
000060 de 09 38 be 7d f2 29 3e 3a 29 01 3e 07 35 86 3d
       -0.17972514 0.16596408 0.12613383 0.06553083
000070 ac f1 16 3e 7b 2b 84 bd 24 3c bd 3e 4a 6e 9e be
       0.14740628 -0.06453606 0.36959946 -0.3094352
000080 80 63 c7 3e 0c 69 97 3e 94 67 86 be 21 f0 a7 bd
       0.389431 0.29572332 -0.262509 -0.08200098
000090 8d e2 0f be 61 d5 68 3e 43 ed 4f 3e 0c 6c 8b 3e
       -0.14051266 0.22737648 0.20305352 0.2723087
0000a0 c1 f7 96 3e 92 c9 83 3d 00 23 65 3e 61 2b 96 3e
       0.29485896 0.06434931 0.22376633 0.2932997
0000b0 b5 15 af 3d ed e9 1d 3e 21 c5 ae 3e b8 e3 0b be
       0.08549062 0.15421267 0.34134772 -0.13661087
0000c0 43 68 d9 bb cc c4 82 be c5 1c ca 3e b0 64 73 be
       -0.0066347434 -0.2554077 0.39475074 -0.23768878
0000d0 89 ec 20 3e ef c1 a6 bd d4 ad f3 bd f6 d0 37 3e
       0.15715231 -0.08142459 -0.118983895 0.17950806
0000e0 93 57 a7 3e d7 1e af 3d 15 02 87 3d 45 ba af 3e
       0.32684 0.08550804 0.06592194 0.343218
0000f0 32 a4 96 3e 45 e2 0b 3e 39 b1 88 be 8f 8a 4b bd
       0.29422146 0.13660534 -0.2669771 -0.049692687

embedding.weight f4 [2, 64]
000000 15 03 5b bf ad 75 ac bf eb 6d 14 40 45 c5 b2 3f
       -0.8555158 -1.3473412 2.3192089 1.3966452
000010 6a ef 9d 3f f8 61 23 bf 2b 76 a4 3f 1a b0 9b bd
       1.2338688 -0.63821363 1.2848562 -0.07601948
000020 db f0 fb be 6b fc 2b c0 3f 15 2f bd 9c 32 27 3f
       -0.49207196 -2.6872814 -0.04274487 0.653116
000030 57 97 35 3f bf d3 85 3f cc 5a 1a 40 28 aa aa bf
       0.7093405 1.0455245 2.4117918 -1.3333178
000040 c5 50 54 bf 6f e4 01 bf 71 2a a7 3f 27 4b 08 bf
       -0.82935745 -0.50739187 1.3059827 -0.53239673
000050 b3 71 a4 bf 6e d5 1f 3f 38 2c ea 3e 64 99 77 bf
       -1.2847198 0.6243504 0.4573686 -0.9671843
000060 03 20 c7 3f 2f 96 95 3f 62 7c 26 bf 3e e6 c5 be
       1.5556644 1.1686457 -0.65033543 -0.38652223
000070 a9 48 0b be 78 e0 94 3f 85 e2 84 3d 80 fe 11 3f
       -0.13601936 1.1631002 0.06488518 0.5702896
000080 aa 37 76 be e5 42 2c bf cd 07 00 40 c5 23 a3 bf
       -0.24044672 -0.6728957 2.0004761 -1.2745291
000090 99 f2 0b c0 cb f3 ad 3f a5 a3 00 c0 17 03 8a 3d
       -2.186682 1.3590025 -2.009988 0.067388706
0000a0 b9 bf f7 bf 26 eb 92 bf 7d b1 49 3f aa ba 24 3e
       -1.9355384 -1.1478012 0.7878645 0.16086832
0000b0 d3 ff 04 bf c6 61 62 be 33 7d 88 3f 64 c1 f4 3e
       -0.51952857 -0.2210761 1.0663208 0.47803795
0000c0 8d 4d a3 be c0 41 ee 3e 77 79 bc bf 76 c4 c3 3e
       -0.31895104 0.46534538 -1.4724568 0.38235825
0000d0 c5 8a fd bf 4a 98 91 bf 1a fa 9f 3f 34 3a 91 3e
       -1.9807974 -1.13746 1.24982 0.28364718
0000e0 5e 74 f5 3e e1 46 ba bf 87 c0 47 bf 0a 0b 58 bc
       0.47940344 -1.455288 -0.7802815 -0.013186226
0000f0 f7 c8 18 be 8a de 19 c0 dd 45 08 c0 f1 9d d3 3f
       -0.14920412 -2.4042077 -2.129264 1.6532575
000100 80 17 fd be 46 94 8c 3f fc 95 8c bf 80 8b c2 bf
       -0.49431992 1.098275 -1.0983272 -1.5198822
000110 60 6c 4e bf 02 9d 2e bf 9c c5 56 3f 67 3a 7f bf
       -0.8063412 -0.68208325 0.8389528 -0.9969849
000120 f9 02 fc bd 1e b7 71 3f 9a 74 1f c0 9b 0a ff bf
       -0.123052545 0.9442004 -2.4914918 -1.9925112
000130 27 51 19 3f 19 14 b2 3f bc 31 b8 bd 75 75 a0 be
       0.59889454 1.3912383 -0.08993861 -0.31339613
000140 9b c4 41 3e ef b6 63 be 03 73 2e 3f 71 df dd bf
       0.18922655 -0.22237752 0.68144244 -1.7333814
000150 57 9c 80 be 26 cf 4b bf 62 ed 47 3f 70 4a 9d 3f
       -0.25119278 -0.7961296 0.7809659 1.2288342
000160 9b 23 ea bd 1f d5 db 3f 7d 25 a7 be a3 0a 87 be
       -0.114325725 1.7174414 -0.3264579 -0.26375303
000170 93 89 74 bd 12 de f6 3f 8f 07 e3 3f 06 ae 0d 3e
       -0.059701513 1.928652 1.7736682 0.13835916
000180 44 f2 a8 3d e7 ec f2 bf 70 cd 35 3f 53 2c da 3e
       0.082493335 -1.8978547 0.710166 0.42611942
000190 d9 35 7f 3e 09 81 79 3e aa 14 85 be 8b 4c 17 3f
       0.24922885 0.2436563 -0.25992328 0.5910117
0001a0 e0 5f d0 be 9c 3e 6d 3f 7c 1a b6 3f 57 6b 86 3f
       -0.40698147 0.9267366 1.4226832 1.0501508
0001b0 3b d7 b9 3f 1f 93 d5 3e 51 64 a3 3f c1 99 51 3f
       1.4518808 0.41713807 1.2764989 0.81875235
0001c0 d3 21 f9 bf fb e2 d6 be 6c be 0b 40 d7 b7 20 c0
       -1.9463447 -0.41970047 2.1834974 -2.5112207
0001d0 59 8f ea bf e5 1c f1 3f 2f 4e e3 be f9 a1 0c 3f
       -1.8324996 1.8836943 -0.44395587 0.5493465
0001e0 f5 4d 74 3f 5b 43 49 3f 5f 4f 2d bf d8 64 e6 be
       0.95431453 0.786184 -0.67699236 -0.44998813
0001f0 34 4c 9f bf 53 56 87 bf 88 b4 cd 3f f4 39 be 3d
       -1.244513 -1.0573219 1.6070719 0.092883974

adaLN_modulation.1.weight f4 [128, 64]
000000 4e 91 86 3d 58 88 06 3e 4a d8 0f be 1d d1 95 bd
       0.065706834 0.13137949 -0.14047351 -0.07315276
000010 85 ae 99 bd 55 28 65 3e f8 a3 5e 3d f2 3b 0e 3e
       -0.0750399 0.22378667 0.05435559 0.13890055
000020 6f f5 53 3d ef bd 9d bd 71 f4 4d 3e ad 9d 53 3d
       0.051747736 -0.077022426 0.20112778 0.051664043
000030 f5 d4 2b b8 4a 20 a5 3c f2 2c 00 be 3f f5 0e 3e
       -4.096791e-05 0.020156998 -0.12517145 0.13960741
000040 e1 46 88 3d 01 31 2e 3d 20 7d 01 3e 0e 6b 15 3c
       0.06654144 0.042527203 0.12645388 0.009119762
000050 db 0a dd 3d 6a ba 28 be ed 90 1e bc 49 e8 78 3c
       0.10793086 -0.16477361 -0.009678108 0.0151921
000060 79 65 00 be 34 cf 20 bd fd 97 14 3e 80 5d b4 3d
       -0.12538709 -0.039260104 0.14511104 0.08806896
000070 e0 f1 1c 3e 63 be d4 3c 8b ff 20 3d 01 c1 f9 3c
       0.15326643 0.02596969 0.039306205 0.03048754
000080 a2 92 33 bd e4 97 14 3e 91 c8 36 bd b1 37 42 3c
       -0.04384101 0.14511067 -0.04462487 0.011854098
000090 a3 be d8 3d 33 38 b0 bd 8b 24 63 bb 7c 67 9e bd
       0.10583236 -0.08604469 -0.0034659232 -0.07734582
0000a0 53 09 07 bc e4 ca d6 3b fd dc d4 3d 9c 18 8c 3d
       -0.008241969 0.006554948 0.10393713 0.06840631
0000b0 6a 59 ac 3d 3e b0 a5 bc cd 6d f2 3b 4d 5c df 3b
       0.08415492 -0.02022564 0.007398343 0.006816423
0000c0 c8 22 f7 3c 48 b1 50 3d cb 12 59 bd 94 7e 20 3e
       0.030167952 0.05095032 -0.052996438 0.15673286
0000d0 db c2 72 3d c1 b3 d5 3d 5e 3d 82 bc 67 14 c0 bd
       0.05926786 0.10434676 -0.015898403 -0.093788914
0000e0 7c b5 00 bd 79 02 1b 3d 5c 5e 09 3d 67 04 64 bd
       -0.031423077 0.037844155 0.033537254 -0.05566826
0000f0 34 c0 cc 3b 75 02 3e bd 5e 75 c1 bd 26 5d 33 3c
       0.0062484983 -0.046389062 -0.09446214 0.010947501
000100 a3 ea c4 3c 9e ee 07 3e 02 f8 a8 bd 08 6e 45 be
       0.024037665 0.13274619 -0.08250429 -0.19280255
000110 ac 1a 6c bd 61 23 96 3e eb 25 4c bd 5e bd f7 3d
       -0.057642624 0.29323867 -0.04984085 0.12096666
000120 1a e7 f2 3d d6 0c c2 bd ff d2 b4 bd 59 f3 b7 bd
       0.118604854 -0.094751045 -0.08829307 -0.08981962
000130 b2 2e 39 3e de 90 dc bd c4 ff e3 bd ab 9d af 3d
       0.18084219 -0.10769819 -0.11132768 0.08574995
000140 07 37 37 3e 01 a3 57 bc bb 71 33 bd 38 bb 34 3e
       0.17892085 -0.013161422 -0.043809634 0.17649543
000150 99 59 5e 3d fd 56 54 be e7 61 b8 bb a4 cb e4 bd
       0.054284666 -0.20736308 -0.0056269052 -0.11171654
000160 4a 7d 1b 3d e0 2e b6 bd 2b d4 bb 3c e8 27 ee 3d
       0.03796128 -0.088956594 0.022928318 0.11628705
000170 94 1c 8a 3d 9c 92 04 3d 8f 13 8f bc 97 4a d4 3d
       0.06743732 0.03236638 -0.017465381 0.103657894
000180 50 95 fa 3d 14 4b be bd 4f 77 99 bd 0c dc 8b bd
       0.1223551 -0.09291664 -0.074934594 -0.0682908
000190 48 ad ac 3d 04 bc ad 3c 59 d1 5f 3c 80 e5 f0 bc
       0.08431488 0.021207817 0.013660752 -0.02940631
0001a0 b5 43 3d bd 6b a2 05 bd c2 e5 bd 3d 08 73 db bd
       -0.04620715 -0.032625597 0.092723384 -0.107153
0001b0 89 bb e8 3c a9 e3 8b bc 6b 2d 36 bd 64 2d c1 3d
       0.028409736 -0.01707633 -0.044476908 0.09432486
0001c0 bf 68 fb 3d 5f b7 58 3d 3b 7d b2 bd 29 fd 2b 3c
       0.12275838 0.05290925 -0.08715292 0.01049737
0001d0 57 cd a9 3c 4b 75 ea bd bd 48 7a bd 59 8a 9c 3d
       0.020727796 -0.11448153 -0.061104525 0.07643575
0001e0 8f 5f 40 be a1 1e a4 bd 11 1c 12 3e d8 b4 bc 3d
       -0.18786453 -0.080136545 0.14268519 0.09214181
0001f0 83 6e 80 bd b2 82 a5 bd f2 57 b8 3c af 4c 3a bd
       -0.062710784 -0.08081569 0.022502873 -0.045483287
000200 58 73 82 bd 63 8c c9 3c 49 e2 03 3c a8 bf f1 bb
       -0.06369656 0.024603074 0.008049556 -0.0073775835
000210 05 47 91 bc bd f0 23 3d c9 5c 77 3d 93 f3 48 bd
       -0.01773406 0.040024508 0.06039122 -0.049060415
000220 c2 e3 16 bd 8d 3c 9d 3b df 22 1c be 15 05 fc bd
       -0.0368383 0.004798478 -0.15247677 -0.12305657
000230 c4 85 09 bd c0 ee a2 3d 0a 6b a7 3d b2 44 90 3d
       -0.033574834 0.07955694 0.08174713 0.070443526
000240 77 aa 36 3d e8 c9 b3 3d e4 d5 53 bd e7 3f d5 3d
       0.04459616 0.08778745 -0.051717654 0.10412579
000250 c3 68 8a bd 4d ad 65 3c 41 07 39 3d c4 1f 91 3d
       -0.06758263 0.014018369 0.045172933 0.07086137
000260 b7 8b 85 3d 81 06 52 3d de 34 1d bd 1b 94 57 bc
       0.06520789 0.051275734 -0.038380496 -0.01315787
000270 c0 ed eb bd 61 b1 e4 bd f3 f5 3e bd 0e f2 b4 bc
       -0.115199566 -0.11166645 -0.046621274 -0.022088077
000280 44 0c 21 3d 36 37 e9 bc 7f 01 a2 bd ae dc e0 bc
       0.039318338 -0.02846871 -0.079104416 -0.027448978
000290 10 54 44 bd 5e 6e 0a be 6a 2c 76 3d d8 07 f3 bd
       -0.04793173 -0.13518664 0.06010095 -0.118667305
0002a0 7b 07 df bd c0 d8 54 3b 57 c4 99 bd e5 c6 01 3e
       -0.10890099 0.0032477826 -0.07508152 0.12673528
0002b0 00 2f 76 bd 26 75 00 be 45 b3 fc bc 0c fb 96 bd
       -0.060103416 -0.12544689 -0.030847201 -0.07372102
0002c0 87 82 e4 3d a4 23 98 3d b9 58 d8 bd 43 20 c2 3d
       0.111577086 0.07428673 -0.105637975 0.0947881
0002d0 d4 05 9d bd 26 8e 82 3c 41 01 02 bd 9b db 53 bb
       -0.07667127 0.015936922 -0.031739477 -0.003232694
0002e0 df dd b1 3b 63 a7 ce 3b 0e 95 d2 bd 9f b8 de bd
       0.0054280604 0.006306575 -0.10282336 -0.108750574
0002f0 3f 67 d7 bd ac f8 91 3d e4 a0 03 3e 52 02 91 bc
       -0.105177395 0.071275085 0.12854344 -0.017701302
000300 b6 d4 88 3d 26 af e8 bd d0 bf aa 3d c4 9c 9b 3d
       0.066811964 -0.11361532 0.083373666 0.0759826
000310 47 ba 95 bd 4c a3 90 3d 6c 67 39 bd 29 a3 25 3e
       -0.0731092 0.070623964 -0.045264646 0.16175522
000320 ff 61 b2 bc d6 49 8a bc 10 db b6 3d a6 6a 3f 3e
       -0.021775244 -0.01688091 0.089285016 0.18693027
000330 df b8 7e bd 72 04 33 3d f4 a9 0e 3e f2 13 29 be
       -0.062188026 0.04370541 0.1393202 -0.16511515
000340 06 2a 44 3c 3d 7d b3 3c fe 48 f0 bc 81 63 d0 bd
       0.01197291 0.021910304 -0.02933168 -0.10175229
000350 56 c6 52 bd 8a 83 d7 bb 46 37 5b 3d f0 e5 89 3d
       -0.05145868 -0.00657696 0.05351951 0.0673331
000360 4c ea e0 3d 67 71 04 be 28 54 b7 3d 6d ec 3f 3d
       0.109821886 -0.12933885 0.089515984 0.046856333
000370 d8 40 c4 3c 2c 05 0d bc ec 11 f7 3c b8 0c d9 3d
       0.023956701 -0.00860719 0.030159913 0.10598129
000380 64 f1 73 bd df 19 9f 3d ae ed e2 3c d4 b5 22 be
       -0.05955638 0.077686064 0.027701225 -0.15889674
000390 ed 37 0b bd bc 4e 0a 3e 08 e1 00 be 1f 38 8d 3b
       -0.03398888 0.13506597 -0.12585843 0.0043096687
0003a0 17 ea b1 bc 39 d4 ac bd 05 39 03 bd cf 7f fa bd
       -0.021718068 -0.08438916 -0.0320368 -0.12231409
0003b0 3b f8 23 be e3 98 c6 bc 1d fd 90 bb 67 ae 8f 3d
       -0.16012661 -0.024242824 -0.0044247047 0.070156865
0003c0 a2 ac 03 be 66 dd 32 bc 13 c5 7b 3d 6e b4 40 be
       -0.12858823 -0.010917043 0.06146724 -0.18818828
0003d0 4c 80 82 bd 8e 0a 1e 3d ff be f2 3d f3 93 d4 3d
       -0.06372127 0.038584284 0.11852836 0.103797816
0003e0 46 87 2d 3b 73 5c 47 bb 6d ef a8 ba fe 7e 90 bb
       0.0026478334 -0.0030420094 -0.0012888737 -0.00440967
0003f0 e3 52 68 3e c0 53 38 3b d5 d7 a1 bd 69 5f dc bd
       0.22687869 0.002812609 -0.07902495 -0.107603855

adaLN_modulation.1.bias f4 [128]
000000 13 67 d0 bd c1 97 de 3b 3e de a7 bc 9d 63 c3 3c
       -0.1017591 0.006792993 -0.020491716 0.02385121
000010 29 36 f5 bd 28 ca 0f be ff e4 ac bd fc 82 f3 bc
       -0.11973221 -0.1404196 -0.08442115 -0.029725544
000020 34 71 68 bd ff 24 26 bd b2 6c 97 3d 8f 3f 02 3e
       -0.056748584 -0.040562626 0.07393779 0.12719558
000030 9b 27 d7 3d 20 81 ec 3c 70 59 e5 3b 01 0d c8 bd
       0.10505601 0.028870165 0.006999187 -0.09768105
000040 f3 98 dd 3d cd cf 66 bc f5 e4 09 be cf b1 a8 bb
       0.108201884 -0.0140876295 -0.13466246 -0.0051481496
000050 01 cf c0 3c 66 58 06 bd a8 26 8f bc 29 e0 be bc
       0.023536207 -0.032799147 -0.017474487 -0.023300247
000060 44 9a 08 be 7b cd 06 be 31 de 0c 3e d2 bc 9c bd
       -0.13340098 -0.13164322 0.13756634 -0.07653202
000070 e2 af 9e 3d 92 87 81 bd 19 19 96 3d e1 f8 d0 3c
       0.07748391 -0.06324686 0.07329006 0.0255093
000080 bf f9 0a be d4 12 80 bd d2 3c ec bd 12 74 04 3c
       -0.13571833 -0.06253591 -0.11535038 0.008084314
000090 9e 5e 82 bd c0 ed 8e 3d 0a d1 28 bd 1a 32 4b 3d
       -0.06365703 0.06978941 -0.04121498 0.049608327
0000a0 b1 d4 95 3d 73 b3 fa 3d 6a c8 85 3d ac 72 cd bd
       0.07315958 0.122412585 0.065323666 -0.100316375
0000b0 df f4 28 bd aa 1b 77 ba 65 a3 d5 3d 7a 3f db 3d
       -0.041249152 -0.00094264245 0.10431556 0.107054666
0000c0 50 f3 5f 3d 40 81 69 bd 45 5d f6 bd fc a6 08 3d
       0.0546754 -0.057008028 -0.120295085 0.033362374
0000d0 d4 0a b8 3c 1b 59 84 bd 50 66 08 3e 26 e8 bd bc
       0.0224661 -0.06462308 0.13320279 -0.023181986
0000e0 c9 2c f9 bc c3 d1 b8 bd e9 35 07 3d 2e 97 0b 3d
       -0.030416863 -0.09024384 0.033010397 0.034079723
0000f0 5b 23 b3 bc 28 c0 bd bd 40 8f b5 bc 4e f8 f6 ba
       -0.021867445 -0.092651665 -0.022163033 -0.0018842311
000100 c0 ea f6 3d 15 65 24 3e c2 ae 93 bc 78 35 d7 3d
       0.12056494 0.16054185 -0.018027667 0.10508245
000110 63 51 32 bd 9f 9d 13 bd be 55 21 3e 0d 9d a1 bd
       -0.043534648 -0.03603899 0.15755364 -0.07891283
000120 ae 85 bd bd ae ab ca bd 8b 1b 83 bc bc 42 86 bd
       -0.09254013 -0.098960266 -0.016004344 -0.06555697
000130 d9 63 35 3e 79 c1 06 3e f2 7c 1e bc 74 c2 96 3d
       0.1771387 0.13159741 -0.009673344 0.07361308
000140 e1 81 41 3d ce c8 a1 3d fa df 6a 3d 30 4c 24 3e
       0.047243003 0.078996286 0.057342507 0.16044688
000150 4a 74 20 3d 6f 57 23 3e 2b 67 22 bd 23 b6 89 3c
       0.039173402 0.15951322 -0.03964917 0.016810482
000160 63 e2 0d be 9d 14 fd bd 79 8f 7e bd c7 07 37 3e
       -0.13855891 -0.12357447 -0.062148545 0.1787406
000170 8c 0c a9 bd 4d 6f 31 3c af b3 98 3d 3a 80 50 bd
       -0.08254346 0.010829759 0.07456147 -0.050903536
000180 ff e8 88 3c cd 6d 0f 3e 16 f7 31 3e ea e2 78 3c
       0.016712664 0.1400673 0.17379412 0.015190819
000190 e1 59 53 bd a3 52 2f bc 4e c4 ee 3d e6 79 4f 3d
       -0.051599387 -0.0107008545 0.11658536 0.05065336
0001a0 a7 b3 ee 3c d3 98 ab 3d 4b c1 8c 3d 06 14 f3 bd
       0.0291384 0.08378758 0.06872805 -0.118690535
0001b0 50 c3 92 3c 2a dd b4 bd 91 81 53 3c dd 24 ba bc
       0.017915398 -0.08831246 0.012909309 -0.022722656
0001c0 6f 35 5b 3c cc 0e 17 3c 77 ae 9b bd 0b 51 0d 3e
       0.013379439 0.009219836 -0.07601636 0.13800447
0001d0 79 a5 be 3d 6e 97 ee bc 26 90 5f 3d c8 5f 0f 3d
       0.09308905 -0.029124942 0.05458083 0.035003453
0001e0 79 94 04 3e a6 82 46 3e 90 fa e7 3d 86 cb 79 bd
       0.12947263 0.19385776 0.11327088 -0.06098511
0001f0 41 72 5f 3d b6 62 0c 3d e9 d3 bf bd 39 4c 49 3e
       0.05455232 0.034273826 -0.093665905 0.19657983

advantage.0.weight f4 [256, 64]
000000 7f ee 9b 3c 07 ab 0a be 77 4a 14 3e b1 2f a4 3d
       0.019034622 -0.13541804 0.14481531 0.08016909
000010 bb 89 79 3e ea ce 08 be 32 b6 da bb 64 53 81 bc
       0.24368946 -0.13360181 -0.0066745514 -0.015786834
000020 73 76 bf bc d6 2b c1 bc 21 9f 65 bd 16 0f 85 bd
       -0.02337191 -0.023580473 -0.05605996 -0.06497018
000030 cb c9 fd bd bf e0 3d bd a0 14 a8 bd df 09 99 3d
       -0.123920046 -0.046356913 -0.08207059 0.07472586
000040 dc 0e 13 3e 19 64 b3 3d b1 c6 eb 3d 2b c9 0f be
       0.14361137 0.087593265 0.11512507 -0.14041583
000050 61 ee 04 3e c2 f9 bc 3d 02 f6 84 3c cd 29 ae 3c
       0.1298156 0.09227325 0.016230587 0.021260167
000060 13 2e 95 3c 91 85 b4 bc 56 43 6e be 61 f2 04 3e
       0.018210446 -0.022036346 -0.23267874 0.12983085
000070 a5 71 1a be 09 db 25 3e e7 e8 14 bd 6d 37 95 3d
       -0.15082414 0.16196837 -0.036354925 0.07285962
000080 e4 71 0d 3e e1 ae 0e be fb 11 ec bd 64 de 05 bd
       0.13812977 -0.13933899 -0.11526867 -0.03268279
000090 64 fc b0 3d b3 6c bc bd aa 26 01 be 23 27 df 3d
       0.0864189 -0.0920042 -0.12612405 0.108961366
0000a0 6f f1 e4 3d 05 38 03 3e 9f 90 6c 3d ea ed b8 bd
       0.11178862 0.12814339 0.05775511 -0.090297535
0000b0 ed aa 05 3c 16 42 11 be 49 70 4d bd 6e 4a b6 bd
       0.008158428 -0.14185366 -0.05015591 -0.08900915
0000c0 74 ca 9e 3d 9e 79 07 3e 8d 6b e1 bd de 69 46 bd
       0.077534586 0.13229987 -0.11006842 -0.048440807
0000d0 65 0d a4 3d b2 cb 96 3e 4e d6 96 ba fa f7 25 be
       0.08010367 0.29452282 -0.001150796 -0.16207877
0000e0 0a f7 dd 3c 91 7c 5a 3e 65 7a 4b 3d c4 f8 36 be
       0.027095336 0.21336581 0.04967727 -0.17868334
0000f0 e0 7b 13 3e dc f3 14 bd ce 92 b1 bd b4 6f 9c bd
       0.14402723 -0.036365375 -0.08670579 -0.07638493
000100 af 07 47 be 5f 55 e5 3c e3 28 20 bd 39 dc ce bd
       -0.19436525 0.02799481 -0.039101493 -0.10100598
000110 1f 55 34 be 71 ad 5b 3d 92 b6 f8 bd 3c 49 62 bd
       -0.17610596 0.053632203 -0.121441975 -0.055245623
000120 94 48 b9 3d ec 05 72 bd 2c de 59 3e b1 07 06 3e
       0.09047046 -0.05908768 0.21276158 0.13088872
000130 45 43 11 3d 31 61 14 be 08 bb 15 bd 29 7c ba bd
       0.035464544 -0.144902 -0.03655532 -0.09105713
000140 2a 27 d3 3d 57 b6 9b 3d 88 f2 97 3e 62 1b 29 3e
       0.10310204 0.07603138 0.29677224 0.16514352
000150 94 31 05 3e 7b 96 90 be 75 ba 6d 3e 87 c5 df bd
       0.13007194 -0.28239807 0.23215659 -0.10926347
000160 5a 65 12 bd b6 40 81 3d 4d 10 08 be 95 d1 b5 bd
       -0.035741188 0.06311171 -0.13287468 -0.08877865
000170 76 34 31 3a 5a f5 2c 3d f1 bc 89 3c b0 94 48 37
       0.00067598314 0.042226173 0.016813727 1.1955548e-05
000180 51 1b 90 3c 5f dc 2f bd 39 fb a8 3d 7c cd b1 bd
       0.01759115 -0.04293477 0.08251042 -0.08681771
000190 4f cf ff 3d 8b 7e cf bb b4 e3 12 3d 9c f5 85 bd
       0.12490713 -0.006332224 0.035861686 -0.06540987
0001a0 ee 0c e4 bd ce cc 73 be 26 d7 37 be e3 ac af bd
       -0.11135279 -0.23808596 -0.17953166 -0.085778974
0001b0 8f 02 46 3e e2 16 7e 3d 0e a0 8e bd 3d 15 d2 3d
       0.19336914 0.06203354 -0.06964122 0.10257957
0001c0 25 33 9d be 02 42 d7 3d 0c 71 50 3c ef 54 e0 3d
       -0.30703083 0.10510637 0.012722265 0.109537
0001d0 e5 31 42 ba 89 d3 63 3e 60 6b 8e bd 64 ff 2e bd
       -0.00074079476 0.22248663 -0.06954074 -0.04272403
0001e0 d6 24 f4 3c 96 69 08 3d ff b6 19 3e 24 ca 2b be
       0.029802721 0.03330382 0.15011214 -0.1677633
0001f0 58 d7 ce bd 4a e6 75 bd 5e 22 8e bd 4e 04 ea bd
       -0.10099667 -0.060034074 -0.06940149 -0.11426602
000200 69 83 1a 3c 59 60 c1 bd e3 4f f3 3d 6c 6b 3e be
       0.009430745 -0.09442205 0.118804716 -0.18595666
000210 2f db 0c bd 3e ee 04 3e ca fb 16 bd 1c 74 8f 3d
       -0.034388717 0.12981507 -0.03686122 0.07004568
000220 a9 d3 56 bd f2 71 ba bd 89 cc 5a 3e 1d fb a5 bd
       -0.05244795 -0.091037646 0.21367086 -0.08104537
000230 66 b1 7f bd 61 78 d5 bd 46 47 05 be c8 b3 90 3d
       -0.06242504 -0.10423351 -0.1301547 0.070655406
000240 46 9b 06 be 98 b3 bb 3b cd ea a6 3d 0f 49 36 bb
       -0.1314517 0.0057281964 0.081502534 -0.0027814542
000250 ab f3 a3 3d e4 75 a7 bc 99 c3 40 3d 20 4c 27 bd
       0.0800546 -0.020441957 0.047061536 -0.040844083
000260 a0 46 0a bd 96 27 bf 3d d0 a5 0c bd 9b 20 20 3d
       -0.03375876 0.09333722 -0.03433782 0.039093595
000270 48 f3 80 3d 5b ad f9 3d 5c a3 b7 bc e9 77 0e be
       0.06296402 0.12191268 -0.022416763 -0.1391293
000280 e0 80 0a 3a cd 18 1c 3e 6c c7 07 3c dd 2f c6 bd
       0.0005283486 0.15243836 0.008287292 -0.09677098
000290 03 0a c2 bd 8c 89 a2 bd ec 02 3a 3e 0a 8c 0e 3e
       -0.09474566 -0.07936391 0.18165177 0.13920608
0002a0 f1 98 50 3d 03 93 10 be 85 30 cf bd 31 b8 e9 bd
       0.050927106 -0.1411858 -0.10116676 -0.11412085
0002b0 f6 f1 37 bb 0a 2f f8 3d e0 e7 1a be 28 76 0f 3d
       -0.0028067804 0.12118347 -0.15127516 0.035024792
0002c0 b4 ca 05 3c 9d 6d c4 bd 1b a9 83 bd 59 f7 79 bd
       0.008166004 -0.095912196 -0.06428739 -0.061026905
0002d0 59 52 d6 3d b3 ce c5 bd 8c 70 9d 3b 38 86 07 3e
       0.10464925 -0.09658565 0.0048046764 0.13234794
0002e0 a6 c3 2f 3e 3c ef 85 bd 23 66 83 bc 03 14 25 3c
       0.17164478 -0.06539771 -0.016039914 0.010075572
0002f0 f3 1e c6 3d 60 b0 21 be 8a f0 02 be db ee 2d bc
       0.09673872 -0.15789938 -0.12787071 -0.01061603
000300 d2 a6 3d bd 8b d4 8c 3d 86 d0 96 ba c8 2f 85 3d
       -0.04630167 0.06876477 -0.0011506237 0.06503254
000310 91 af ca 3b 1a e9 74 3d f7 f6 22 be 41 2b ef 3d
       0.00618548 0.059792615 -0.15914522 0.11678172
000320 11 bb af 3c 1a 0b 4f 3d df 23 e9 3d 05 a4 fa bc
       0.021451505 0.050547697 0.11383795 -0.030595789
000330 a9 a6 b3 bd 8b b1 b6 3c d7 71 28 be ff 22 26 be
       -0.08772022 0.022301456 -0.16449676 -0.16224287
000340 11 ce a5 bd 72 99 56 bd 60 9e fb bd 5d 87 90 bb
       -0.08095945 -0.05239243 -0.12286067 -0.004410668
000350 d2 49 96 bd 11 b7 69 3d 12 83 8a 3d 4f 36 0b be
       -0.07338299 0.05705935 0.06763281 -0.13594936
000360 fd 88 cd 3d 76 99 f6 3d 00 9c 8b 3b bf 34 03 be
       0.10035894 0.12040989 0.00426054 -0.1281309
000370 36 c4 06 3c d4 31 af 3d ca 45 26 be f3 a2 37 bd
       0.008225491 0.08554426 -0.1623756 -0.044833135
000380 20 fa ad 3c a2 40 ed bc 35 37 84 bd cb 42 7c 3b
       0.021237433 -0.028961483 -0.064558424 0.003849196
000390 8d 64 1f bd 34 4e 0b bd 56 84 80 bd 7b fa db 3d
       -0.038914252 -0.034010127 -0.06275241 0.10741135
0003a0 85 52 d7 bb 61 ca 8c bd 5a 53 27 bc 38 9c 7f bd
       -0.0065711164 -0.06874538 -0.010212744 -0.06240484
0003b0 cc 23 c5 bd ae 0a 01 be bb 9d 9b 3d 85 fc 8e 3d
       -0.09625968 -0.1260173 0.07598444 0.06981758
0003c0 ef 72 5f 3d 3c 96 ca bd 60 b1 e4 bc 96 dc a8 bd
       0.05455297 -0.09891936 -0.02791661 -0.082451984
0003d0 91 5a 28 bd e0 7a f2 3d a9 19 97 3d 5d 37 c9 bd
       -0.041101996 0.11839843 0.07377941 -0.09825013
0003e0 6a 34 37 3d 6b 01 9d bd ab f4 92 bd 3e 46 82 bd
       0.04472772 -0.07666286 -0.07175573 -0.06361054
0003f0 d6 b8 38 3d 15 f9 5e 3c f0 d6 bc 3d 7c 33 6e bc
       0.04509815 0.0136091905 0.092206836 -0.014538642

advantage.0.bias f4 [256]
000000 e1 d0 02 3c d9 04 cf 3d 9a aa 90 3d 5c 23 07 3d
       0.007984371 0.101083465 0.0706379 0.032992706
000010 c4 55 2e 3d de e8 f6 bd c9 60 c0 bd 3a 40 db bd
       0.04256226 -0.12056135 -0.0939346 -0.107056096
000020 db 07 c6 bc 9c df 4e bc 39 56 07 3e cb 2f 99 bd
       -0.024173668 -0.012626555 0.13216485 -0.07479819
000030 4e 16 b5 bc 00 49 82 3b c7 79 b1 3d 1d 4f 5e 3b
       -0.022105362 0.0039759874 0.08665805 0.0033921667
000040 4c ef 0c be be 8b 67 3d 1c 4b 69 bd 51 b6 51 3d
       -0.1376316 0.056529753 -0.056956396 0.05119926
000050 27 99 d7 bd 54 bf 8e 3d 6f eb 3a bd 28 3e 81 3d
       -0.10527258 0.06970087 -0.045634683 0.063106835
000060 62 f5 b4 bd 79 4e 01 3d 53 d8 19 bd be 15 0f 3b
       -0.088358656 0.031568978 -0.03755982 0.0021833028
000070 88 ab d0 3d d1 d4 e4 bd 1f 4f d9 bc 87 00 84 3c
       0.10188967 -0.11173404 -0.026526986 0.016113533
000080 c3 e9 54 bd 11 aa 79 3d ea e9 f5 bd b5 11 f9 bc
       -0.051980745 0.060953204 -0.12007506 -0.030403951
000090 ec a1 7a 3d b7 ba 34 bd db 8f 8a 3c 7d 18 b7 3d
       0.061189577 -0.044123378 0.016914299 0.08940218
0000a0 64 15 f3 bc 31 fe b1 3d 11 d0 77 3d db 4b 6e bd
       -0.029673286 0.08691061 0.060501162 -0.05817781
0000b0 9f 0f 45 bc c9 d1 84 bd fe 17 0d 3d 2e 9d 5b bd
       -0.01202765 -0.06485326 0.03444671 -0.053616695
0000c0 8f f6 4d 3c d0 8b 27 bd d3 ea 5c bd e7 dc 57 3d
       0.012570991 -0.04090482 -0.053934883 0.052700903
0000d0 4b 9d 91 3d 9b 0a 81 3d cd ac 58 bd 08 0c b3 bd
       0.071100794 0.06300851 -0.05289917 -0.08742529
0000e0 58 a5 ba 3d 7f b7 f6 bc d9 70 b9 bd a8 8f 49 ba
       0.09113568 -0.030116795 -0.09054727 -0.0007688948
0000f0 e6 e3 4f 3d 16 dd fe bd 69 c4 9c bc e9 e4 0e bd
       0.05075445 -0.124445125 -0.019136624 -0.034886274
000100 4d 3f 33 bd 0a 56 9f bd fc 1a a5 bb c0 5a 17 be
       -0.04376154 -0.077800825 -0.005038617 -0.14780712
000110 82 c5 c6 3d 19 10 19 3d ed 47 0d bd 97 2d e0 bd
       0.097056404 0.037368868 -0.034492422 -0.109461956
000120 c2 ae 8c 3c 2d f8 a5 3d ec ce 1b 3e ce 6c 28 be
       0.017173175 0.081039764 0.15215653 -0.16447756
000130 e3 e7 cc 3c db 47 e5 bd 60 0d b9 bd 09 5a cb bd
       0.025012916 -0.11195346 -0.09035754 -0.09929282
000140 fd cf 74 bc 9f d9 7a 3d 03 10 18 3e b7 95 8e 3c
       -0.014942166 0.061242696 0.14849858 0.017405374
000150 4b 10 61 bd f7 11 e1 3b a1 5e eb bb 0f 7e c4 3d
       -0.05494718 0.0068685967 -0.0071829115 0.09594356
000160 44 58 90 bc 8f fb ae 3d 50 67 79 3d 75 6e 23 3d
       -0.017620213 0.08544075 0.060889542 0.039900262
000170 6f f9 f7 3b fc 16 bb bc 0b 6a a7 bd 55 c7 2d 3d
       0.0075675766 -0.022838108 -0.08174523 0.042426426
000180 77 32 ef 3d c6 30 8f bd ae c6 f1 bd e2 bc 75 bc
       0.11679547 -0.06991725 -0.11805473 -0.014998646
000190 c6 df 94 3d 20 5e 50 3c 34 84 3d 3d 2e cf 56 3d
       0.07269244 0.012717754 0.046268657 0.052443676
0001a0 8a 09 18 be 0c 0c 04 be 73 64 6f bd 56 11 8e bd
       -0.14847389 -0.1289522 -0.058445405 -0.069369
0001b0 06 ff ad bc 2f 4d 83 bd 46 d1 90 3d c2 7d 83 bc
       -0.021239769 -0.06411206 0.07071166 -0.016051177
0001c0 bc 37 56 bc 02 f0 80 bb ba 64 ea bd 6c 9b 7e bc
       -0.013074812 -0.003934861 -0.11444993 -0.015539985
0001d0 cd 7a 4d bd f3 12 3b bd ce b3 c6 bd 0a 77 23 3d
       -0.05016594 -0.04567237 -0.09702264 0.039908446
0001e0 76 85 91 bc c3 e8 bb 3d 8e 47 1d be 98 bb 1e bc
       -0.017763834 0.09175255 -0.15359327 -0.0096882805
0001f0 5c 51 98 3b 3d e4 17 3d 43 90 e6 3d 00 f9 c5 3d
       0.0046483707 0.0370829 0.112579845 0.096666336
000200 f8 88 b8 3d 8f cf a9 bd c8 83 50 3d cc 1c a3 bd
       0.090105 -0.08291542 0.050906926 -0.07964477
000210 1c b2 30 bb 43 6e ea 3d c0 c3 cd bc 85 61 15 3d
       -0.002696163 0.11446812 -0.025117755 0.036469955
000220 33 0b ce 3d 99 0e 08 be 58 9a a7 3c af 89 06 bc
       0.1006073 -0.13286819 0.020459339 -0.008211537
000230 f6 b8 e0 bd 1d e0 7a bc 4e 41 67 3c 70 89 04 3e
       -0.109727785 -0.015312222 0.014114691 0.12943053
000240 db a5 65 bd f7 92 b7 3d 14 86 89 3d d0 61 c7 3d
       -0.056066375 0.08963578 0.067150265 0.09735453
000250 96 1f 6f bd 82 3d d4 3b 3b f7 e0 bd 09 68 a7 bd
       -0.058379732 0.006477059 -0.109846555 -0.0817414
000260 f0 df 03 bb 67 1f 40 3d 1d c5 80 3d d3 e9 d3 bd
       -0.002012249 0.046904948 0.062875964 -0.10347333
000270 7d 08 e4 3d ae 8d c6 3c 01 e0 17 bd e1 f6 b9 3c
       0.111344315 0.02423748 -0.03707886 0.022700729
000280 b3 4c b8 3d 1c 6a bd 3d 73 33 19 be 76 5d 8a 3d
       0.08999004 0.092487544 -0.14961033 0.067561075
000290 d1 0d ef bd 07 6e d4 3c ba e1 9f 3c e6 90 b7 bd
       -0.11672557 0.025931371 0.019516815 -0.08963184
0002a0 07 22 38 3d 9b 6c 4e 3d 38 38 7b 3d 4b d2 c3 3c
       0.044954326 0.050396543 0.06133291 0.023903986
0002b0 cd 1b 12 be 61 5a 07 be fa 72 c6 3d 2a 72 be bc
       -0.14268418 -0.1321807 0.09689899 -0.023247797
0002c0 ee 9a b6 bd 68 e8 80 3d 82 51 a2 bc a1 5d 55 bd
       -0.08916269 0.06294328 -0.019814257 -0.052091245
0002d0 aa c1 70 bd a6 d0 92 bd 12 ec 31 3c 38 a6 87 bd
       -0.058778442 -0.07168703 0.010859506 -0.066235006
0002e0 7d 4a 77 bc ca 37 fc bc a4 87 9d 3d 22 d1 c2 3c
       -0.015093443 -0.030788321 0.07691887 0.023781363
0002f0 f2 0f 19 be d9 16 2c bd 8b 2c e1 bd 1c b7 d4 bd
       -0.14947489 -0.042013977 -0.10994824 -0.10386488
000300 9c 3d 17 be c6 d4 e4 bd 31 2c ee 3d ec d2 a8 38
       -0.14769596 -0.11173396 0.116295226 8.0501515e-05
000310 00 ac 11 bd d9 30 5d 3d 4f 3d d5 bd 46 54 91 3d
       -0.035564423 0.054001663 -0.10412084 0.07096152
000320 af 7b ea bd 44 28 67 3a 45 dd a4 3d 8e e3 7e bc
       -0.11449372 0.0008817951 0.08050016 -0.015557183
000330 04 36 85 3c 36 b4 b9 3d 9f 99 4f 3d 02 71 9f bc
       0.016261108 0.09067576 0.050683614 -0.019463066
000340 4f a7 6e 3d c9 37 56 3d e2 60 72 ba de 5d ca bc
       0.058265027 0.052299295 -0.0009246004 -0.024702962
000350 b6 46 4b 3d dd b0 c5 3d 95 61 ea bc 71 9b e6 bd
       0.049627982 0.096528746 -0.028610984 -0.11260117
000360 2d a6 9c bc b8 d7 08 bd 0f cd dd bd a1 b8 d2 bd
       -0.019122208 -0.03340885 -0.108301274 -0.102891214
000370 c3 a4 08 be cb 05 a1 3d 9a 7f a9 3a f3 7e 26 3d
       -0.13344102 0.07862433 0.0012931705 0.040648412
000380 d7 a0 83 3c 1a 2e e7 3d e5 73 86 3d 54 4b 55 3c
       0.016067905 0.1128809 0.06565074 0.013018448
000390 15 01 68 3d 6c e1 7b 3c 55 3f ca 3d 96 6f 92 bd
       0.056641657 0.015373569 0.09875361 -0.071501896
0003a0 ff 3d af bd a1 3e c9 bc c9 2c 21 be d9 32 16 be
       -0.08556747 -0.024565997 -0.1573974 -0.14667834
0003b0 69 e5 1e bd 20 a4 c2 bc 6e d3 9f bd c8 63 f2 bd
       -0.038793 -0.023759902 -0.07803999 -0.11835438
0003c0 ac 3f 24 3b 8f 03 07 3d 69 35 0b be 0e a6 0d be
       0.0025062365 0.032962378 -0.13594593 -0.13832876
0003d0 cb 16 39 be 88 74 40 bd 21 93 48 3d 6f bd 2f bd
       -0.18075101 -0.046986133 0.048968438 -0.042905267
0003e0 b6 d1 19 3e 5d fa 8d 3d 66 80 e6 bd f4 3c a4 b9
       0.15021405 0.06932519 -0.11254959 -0.0003132593
0003f0 06 74 63 3d bf 74 f8 bd 2e 07 22 3d 5b 7a 25 3d
       0.05553057 -0.121316426 0.03955763 0.04039989
