result/high_level/ETHUSDT/exp1/seed_12345/epoch_7/trained_model.pkl (torch, 349431 bytes, 67 tensors)

combined_encoder.pool_query f4 [1, 1, 32]
000000 e4 11 5f 3f ca 26 5b be c0 f0 96 3f e9 69 0e c0
       0.87136674 -0.21401516 1.1792221 -2.2252142
000010 a5 3c ee be d5 5b 09 bf 03 fa 00 bf 4e 4c 04 40
       -0.46530643 -0.5365575 -0.5038149 2.0671573
000020 36 e7 0b 3f 14 89 8b 3e 19 91 a9 3f 0c d4 33 c0
       0.54649675 0.2725302 1.3247405 -2.8098173
000030 3b 3f 5f 3f 04 63 94 3f 48 55 89 3f cb 4d a4 3d
       0.8720586 1.1592717 1.0729151 0.0802265
000040 35 86 94 3f b5 66 e9 3e 83 da 85 3f 5e ce 64 be
       1.1603457 0.45586172 1.045731 -0.22344348
000050 76 7d c1 3d 6d 9b 33 40 ab d4 37 40 f0 9b c8 3a
       0.09447758 2.8063614 2.8723552 0.0015305262
000060 a5 e1 1b 3f 29 78 9a be 95 c3 29 bf 0d 6d 09 40
       0.6089118 -0.301698 -0.6631406 2.147281
000070 0d 0f a2 3e 11 21 cb be 5e 32 2f 3e ab bb cc 3f
       0.31652108 -0.39673665 0.17109057 1.5994772

combined_encoder.patch_embedding.position_embeddings f4 [1, 38, 32]
000000 fa 70 fa be 2f e9 81 bf 54 c3 26 bd 4d 26 ba bf
       -0.4891432 -1.0149287 -0.040713623 -1.4542938
000010 6c 8a c5 bf cf 57 ad 3e e3 f3 90 bf e8 e2 90 3e
       -1.5432868 0.33856055 -1.1324428 0.28298116
000020 4c f9 8f bf 8f c4 0b 3f 21 51 62 bf 60 a4 0f bf
       -1.1247954 0.545968 -0.8840504 -0.5611019
000030 aa 4a 53 3f 0b a1 2a 3f ba 9c 6f 3f c8 49 c6 be
       0.82535803 0.6665198 0.9359852 -0.38728166
000040 e3 d3 92 bf fb 7f ea 3e 96 47 87 be 55 bf c8 3f
       -1.1470913 0.45800766 -0.26421803 1.568339
000050 53 49 ec 3f 77 b1 fd bf a4 d5 5a 3f 27 58 e0 be
       1.8459877 -1.9819783 0.8548224 -0.43817255
000060 f5 75 88 3f 82 d1 f7 3d 3b 7f 89 bf 45 19 4f 3f
       1.0660998 0.12100507 -1.0741953 0.80897933
000070 14 c1 49 3f bb c4 bd bf 54 74 21 3f 45 2e 85 3d
       0.7881024 -1.4825662 0.6306813 0.06502966
000080 6f 38 0e be 17 98 22 be 5d 33 8c be 2d eb cf 3e
       -0.13888715 -0.1587833 -0.27382937 0.40609112
000090 93 86 de be fe 9f 1d bf 28 2f 1d 3f 00 2d 40 bf
       -0.43462047 -0.61572254 0.6140008 -0.75068665
0000a0 b5 d4 1c 3f 52 68 5e bf fb 3e 22 40 fc 15 2f bf
       0.61262065 -0.8687793 2.535094 -0.6839292
0000b0 25 39 52 3e 70 5e 9c 3e 2d 20 34 bf 28 de b1 bf
       0.20529611 0.305408 -0.70361596 -1.3895922
0000c0 bd 6b b8 bd 86 90 7b be 07 2a f0 be 28 50 0a 3f
       -0.090049244 -0.2456685 -0.46907064 0.5402856
0000d0 af 57 3a 3f 40 1a a5 3f 30 86 a9 3e 76 f5 95 be
       0.72790045 1.2898636 0.3311019 -0.29288834
0000e0 7a da 19 bf 9b 9d 86 3e 90 ff 2f 3f b3 f0 2c 3f
       -0.60098994 0.26292118 0.6874933 0.6755478
0000f0 f2 b3 b8 3e c5 a9 22 bf 8d ea 43 bf 86 d9 b3 bf
       0.36074787 -0.635403 -0.7652977 -1.4050758
000100 28 59 8c 3c ac b4 17 bf d3 f0 99 3f 45 e3 2c c0
       0.017132357 -0.5926006 1.2026619 -2.7013714
000110 c1 42 01 c0 ba cb ed bf 03 87 8a bf 82 ec bb be
       -2.0196993 -1.8577797 -1.0822452 -0.3670388
000120 8d 76 ce 3b 46 a9 c3 bf f6 62 2c 3f 78 03 46 bf
       0.0063007534 -1.5286033 0.673385 -0.7734904
000130 77 ee ae 3f 05 cd a9 3f e7 ad 88 3f 96 dc cf bf
       1.3666524 1.3265692 1.0678071 -1.6239192
000140 fd 1f 2c be 58 b0 c0 3f 82 78 94 3e 60 8f 8d bf
       -0.16809078 1.5053816 0.2899819 -1.105938
000150 4e 35 41 3f 1f 4c 43 be 40 c6 9c bf d5 1b 95 3f
       0.7547196 -0.19072007 -1.2248001 1.1649119
000160 7d 0a 90 bf 19 5e b9 bf 81 1b 43 3e 4c 27 e6 3e
       -1.1253201 -1.4481841 0.1905346 0.44951856
000170 b4 c0 75 3f 00 31 ee bd 63 f5 37 be b0 dd 17 3e
       0.95997167 -0.1163044 -0.17964701 0.14830661
000180 c2 bb 2b c0 75 73 5b 3e 9d 5f f7 3e 6e bf 1b 40
       -2.6833348 0.21430762 0.48315135 2.433559
000190 b0 1e b2 bf 3d 62 9c be 4f 62 7e bf 09 d0 2c 40
       -1.3915615 -0.305437 -0.99368757 2.7001975
0001a0 f1 4e 8f 3f 14 37 15 c0 36 11 c9 3e ea 54 75 3e
       1.1195966 -2.3314867 0.39270943 0.23958173
0001b0 ed 50 b3 3d 2e 73 cb bf 07 42 db 3e ea 38 b8 bf
       0.0875567 -1.5894525 0.42823812 -1.4392369
0001c0 7d 4a bb 3e 74 43 76 3f d7 3a 4e 3d c0 c1 a7 be
       0.36580268 0.96196675 0.050349083 -0.32765007
0001d0 6f a7 95 3f 7a e4 13 bf 2b 11 9e bf 16 e3 53 bf
       1.1691722 -0.577705 -1.2348989 -0.8276838
0001e0 83 09 f2 3e 17 2b 33 3f 19 56 81 bc 02 0e 73 3e
       0.47272882 0.69987625 -0.015788125 0.23735812
0001f0 98 b3 c8 3f 4a e7 50 bf 05 49 4a bd 70 30 f6 3f
       1.5679808 -0.8160292 -0.049386043 1.9233532
000200 f6 cb 76 bf 52 ef 1f c0 09 17 80 3e da d4 f2 be
       -0.9640497 -2.498982 0.25017574 -0.47428018
000210 9e 85 20 40 20 c9 76 3f f6 37 0c 3f fe dd 7a 3f
       2.5081553 0.9640064 0.5477289 0.97994983
000220 6e d8 8f 3e 3c 32 0e 3f 70 b6 2c 3f a8 1b 62 bf
       0.2809481 0.555454 0.6746588 -0.8832345
000230 cc 59 d5 3e d9 0f 3d 3f b4 71 62 bf bd 2e 03 3e
       0.41670072 0.73852307 -0.8845475 0.12810798
000240 0e 89 05 c0 1e ac 12 3d 99 15 0a bf c7 98 b8 bf
       -2.0864902 0.035808675 -0.53939205 -1.4421624
000250 79 2c f2 bf 70 cb 82 3f f3 fd 8a 3f 7b ca 62 3f
       -1.8919822 1.0218334 1.0858749 0.8859021
000260 14 69 15 3e cc 0f 98 3c bc ef a1 3e 58 61 e2 3f
       0.14590865 0.01856222 0.31628215 1.7685957
000270 e1 0a 01 c0 08 c4 00 3e 28 dd 92 bf d0 52 ea 3d
       -2.016289 0.1257478 -1.1473742 0.114415765
000280 87 52 cc 3e 22 66 d1 be 7b 0b 8b 3e a8 55 36 bf
       0.39906713 -0.40898234 0.27157196 -0.7122445
000290 d3 09 df bc 1f 44 01 3f 5e af 72 3e 4f a4 44 bf
       -0.027226364 0.5049457 0.2369971 -0.76813215
0002a0 da 41 73 bf 02 d4 ab bf a6 aa e9 3f 93 af 87 3f
       -0.95022357 -1.3424075 1.8255203 1.0600456
0002b0 4d 95 4b 3f df 04 bb bf c2 ee 08 bf 3b 4f 30 40
       0.7952469 -1.4610862 -0.53489316 2.7548358
0002c0 62 0b f1 bf 8c 5d 7d 3b 5c 05 6b bf be 8d f8 be
       -1.8831599 0.0038660495 -0.9180505 -0.4854564
0002d0 49 70 cb 3d f9 0d 8f 3f 45 9e 8c 3f 88 5f 4a bf
       0.09933526 1.1176139 1.09858 -0.7905202
0002e0 ca 80 93 bf e3 c4 e1 3e ed 6e 25 3d dd 20 c0 bf
       -1.1523678 0.44095525 0.04038899 -1.5010029
0002f0 56 9c 3e bf d5 a4 6d 3f 52 f2 e0 be 0e 59 4e 3e
       -0.744573 0.9282964 -0.43934876 0.20151159
000300 91 a7 e6 bf a1 9e c8 3f 46 1e b7 3e 97 ae 81 bf
       -1.8019887 1.567341 0.35765284 -1.0131406
000310 68 0a 1f be 93 97 d7 3e a6 51 3e 3d 5e 4c 3b 3f
       -0.15531313 0.4210783 0.046464585 0.731634
000320 e1 83 40 bf ad 9a 4b 3f 97 a3 2a bf fe ea 64 3e
       -0.7520123 0.7953289 -0.6665587 0.22355267
000330 53 90 b1 3e b5 78 93 3f c0 0a a0 3f 64 2d 1c bf
       0.34680423 1.1521212 1.2503281 -0.6100676
000340 a8 4d 7c be 64 48 61 3c df b1 d2 3f 0d 1d ae 3e
       -0.24638999 0.013750169 1.6460532 0.3400654
000350 28 9b e1 bf db b9 ce bb 99 57 9f 3f c4 b2 4a 3f
       -1.7625475 -0.006308777 1.2448608 0.79179025
000360 31 b7 d1 be 92 d0 55 3e c6 7a 48 3e 1d f1 5d 3f
       -0.40960076 0.20880345 0.19578084 0.86696035
000370 53 46 0b bf fb 08 ee bf ca dd 49 bf 50 df 0a 3f
       -0.5440418 -1.8596491 -0.7885405 0.54247
000380 ae 04 24 bf 22 dd 5b bf 6a f5 b0 3f 0f fa 56 3f
       -0.6406964 -0.85884297 1.3824894 0.8397531
000390 2e 5e 82 3f e5 3f 81 3f 41 95 98 bf 98 12 7c 3e
       1.0184991 1.0097624 -1.1920549 0.24616468
0003a0 bf 4f 10 bf c0 07 a5 3d 38 f1 61 3f 67 ed 84 3f
       -0.5637168 0.08058119 0.88258696 1.038495
0003b0 ee 85 9d 3f cf 2c 83 be 5b 1a 09 be a2 eb 83 be
       1.2306497 -0.25620124 -0.1338896 -0.2576571
0003c0 9a 81 05 3e 04 91 5c bf 09 66 c1 be 55 5c 81 bf
       0.1303772 -0.86158776 -0.3777316 -1.0106302
0003d0 98 d8 8b be 05 57 04 3f a3 0c 19 3e ab 92 c4 3e
       -0.27313685 0.5169528 0.14946227 0.3839315
0003e0 a2 08 82 bf c4 e1 77 bd 8a 60 26 3f 84 80 a3 bf
       -1.0158885 -0.06051804 0.64991057 -1.2773595
0003f0 ec 2b 4e bd 37 b1 0b 3f 68 85 14 be 58 d7 8e 3f
       -0.050334856 0.54567283 -0.14504015 1.1159468

combined_encoder.patch_embedding.patch_type_embeddings f4 [4, 32]
000000 be b4 10 bf 7a 1f 04 3f 7d a5 8a bf 95 57 ec 3e
       -0.5652579 0.5161053 -1.0831753 0.4616057
000010 a8 aa dc 3e ac 69 04 bf 8a d2 96 bf 10 1c 97 3f
       0.4309895 -0.5172374 -1.1783001 1.1805439
000020 46 fb 76 bf ed 07 cc 3e 2a 78 5d 3f 94 54 c9 bf
       -0.9647716 0.39849797 0.8651148 -1.5728936
000030 51 9e cc 3e 73 1f 83 be cd ba c6 3f 10 50 a2 bf
       0.39964536 -0.2560993 1.5525757 -1.2680683
000040 e9 38 f6 3f c1 80 1c c0 90 c5 3e bf 18 82 c3 3f
       1.9236118 -2.4453585 -0.74520206 1.5274076
000050 a2 f2 97 bf 40 2a bd 3e a5 0d 08 bf 52 14 ab 3d
       -1.1870921 0.36946297 -0.5314582 0.08353485
000060 b6 17 70 bf 6b f2 e1 3e 83 f1 08 c0 df cc 59 bf
       -0.9378618 0.44130263 -2.1397407 -0.85078233
000070 36 e3 b1 bd 4c e7 9d be 09 11 07 bf 07 38 ec bd
       -0.08685915 -0.30840528 -0.5276037 -0.11534124
000080 cd 76 72 bf 1b ba c7 3f 84 4e 3f 3f a7 a4 82 bd
       -0.94712526 1.560367 0.7472918 -0.06379061
000090 39 9f 1b 40 db b3 2a bf 89 a9 ad be 89 36 ee 3e
       2.4315932 -0.6668069 -0.33918408 0.46525982
0000a0 3d 01 8d bf c9 0b 90 be a0 64 63 bf 1f 31 d8 3c
       -1.1016003 -0.2813399 -0.88825417 0.02639061
0000b0 e3 38 e6 3f 72 06 19 bf b8 1a 00 bf 4d ec 09 40
       1.798611 -0.5977546 -0.5004077 2.1550477
0000c0 28 59 11 40 31 05 f0 be 78 71 b9 3f 9c 62 ca 3f
       2.2710667 -0.4687896 1.4487753 1.5811343
0000d0 56 8d 2d bf 30 67 4f bf ed 78 de bf 99 e9 4b bf
       -0.67793787 -0.81016827 -1.7380654 -0.79653317
0000e0 42 86 03 bf 81 6a ba bf ed f1 f4 3d 58 d1 d9 3f
       -0.51376736 -1.4563752 0.11960206 1.7017012
0000f0 a8 f0 f3 3e 69 ae 92 be 27 b5 18 3f c5 7f 91 3f
       0.47644544 -0.2864869 0.59651417 1.1367117
000100 f4 32 ef be a2 c6 83 bf 14 a1 85 bf 98 84 bb 3f
       -0.46718562 -1.0294993 -1.0439782 1.4649839
000110 a6 06 5e 3f d8 ef 66 be ce b6 00 bf f6 0f 7f 3e
       0.86728895 -0.2255243 -0.5027894 0.24908432
000120 9f b1 99 be 37 82 1f 40 5a b5 d7 be cf e4 eb 3e
       -0.30018327 2.4923227 -0.42130548 0.46073005
000130 ec 80 ef be fe 57 bf 3e cd 91 5f 3f 66 5f ea 3e
       -0.46778047 0.3737182 0.8733185 0.45775908
000140 3e fc 95 3f 78 bc a7 3f fc 21 30 bf 0a 6b 72 bf
       1.1717603 1.3104391 -0.68801856 -0.9469458
000150 7c 09 ca 3f d5 18 f3 3f 7b 51 a0 3f 5e 3f 5e bf
       1.5784144 1.8991953 1.2524866 -0.8681544
000160 a7 ee 06 bf 4e 17 6a 3f 07 4f cf be a1 21 28 3f
       -0.52707905 0.9144181 -0.4048998 0.65676314
000170 bd 35 b2 3f 38 0c 02 c0 e5 2f 7a bf a9 e2 29 be
       1.392265 -2.0319958 -0.9772933 -0.1659037
000180 77 fd fd bd 79 a1 ca 3e ba 1d 3b 3f 52 30 98 3f
       -0.1240186 0.3957632 0.73092234 1.1889746
000190 8e 4d bc be 75 5c 73 3f 9a 60 eb 3f ef 07 b5 bf
       -0.3677792 0.95062953 1.8388855 -1.4143046
0001a0 05 79 8c be 99 d3 21 bf 95 7f 71 bf 70 76 de be
       -0.2743608 -0.632135 -0.943353 -0.43449736
0001b0 03 f0 e2 bf aa ea 04 bf 15 19 b8 3e 64 5a 72 bf
       -1.7729496 -0.5192057 0.35956636 -0.94669175
0001c0 29 53 ab 3f ea 21 c2 be 6b 75 a0 3e f3 8e 77 3f
       1.3384753 -0.379165 0.31339583 0.967025
0001d0 db 46 cb bf b6 53 a0 bf fd 23 33 bd 85 68 00 3e
       -1.5880998 -1.2525547 -0.043735493 0.12539871
0001e0 18 17 e2 3f 8c cd 0f bf c4 8f c8 3d 80 62 b6 3f
       1.7663298 -0.56173015 0.09793046 1.424881
0001f0 21 bc 66 3f fc 22 ce 3e 87 7b e4 bf 99 ce 9e 3f
       0.9013081 0.40261066 -1.7850198 1.2406799

combined_encoder.patch_embedding.patch_convs.fine.weight f4 [32, 45, 2]
000000 09 b2 c6 3d 64 29 92 3d b1 78 81 3e f4 fe 93 3d
       0.09701926 0.07136801 0.25287393 0.07226363
000010 2c 4a 18 3c 01 1b 26 bd f6 23 1d bc c7 cc 0a bd
       0.009295028 -0.040553097 -0.009591093 -0.033886697
000020 c8 9e 20 3e f6 7a 30 bd 36 2f 37 3d 6d 31 12 3e
       0.1568557 -0.043086015 0.04472276 0.14276667
000030 13 0a 8d 3c 18 be dc 3d 36 59 b7 3b ba 44 06 3e
       0.017216718 0.10778445 0.0055953516 0.13112155
000040 a1 71 6a 3d ba e3 34 3e 07 84 29 3e 27 77 28 3e
       0.05723727 0.17664996 0.1655427 0.16451703
000050 62 e6 37 3d 13 9a 12 3e 71 97 d8 bd 8b 89 01 be
       0.044897445 0.14316587 -0.1057576 -0.12650125
000060 d8 b6 72 3d 40 57 08 be 28 5a d0 bd a4 4a 22 bd
       0.059256405 -0.13314533 -0.10173446 -0.039621964
000070 c4 2d d7 bd 7e da b3 bc a1 7c 8a 3c ea a3 f1 3c
       -0.10506776 -0.021954771 0.01690513 0.029497106
000080 a3 00 0a be ac fe b0 bd d4 7a 0b 3e 8a 96 f9 3d
       -0.13476805 -0.08642325 0.13621074 0.12186916
000090 e2 4e ef bd fc 9f fe bd 71 d0 0d 3d 1c 87 0a bd
       -0.116849676 -0.12432858 0.034622613 -0.033820257
0000a0 54 99 6b bd 28 95 b0 bd a7 35 21 3d 0e 60 21 3d
       -0.057519272 -0.08622199 0.039357807 0.039398246
0000b0 2a 3a 18 3e 34 1b 0e 3e 5f f3 05 3b 2b 12 13 bd
       0.14865938 0.13877565 0.002043925 -0.035906
0000c0 8d 0e 30 3d 76 1e 75 3d be eb f1 3d db 1c c6 3d
       0.042982627 0.059843503 0.118125424 0.096734725
0000d0 f8 69 eb 3d 38 63 15 3e dd d1 52 3e b0 fe 1c 3e
       0.11494821 0.1458863 0.20587869 0.1533153
0000e0 3d 21 ce 38 f6 6a 8d bc 0c 95 31 3e 2b b6 ba 3d
       9.8290366e-05 -0.017262917 0.17342013 0.09116777
0000f0 c6 e6 93 bd 43 a3 d5 bd 12 92 ea 3c dc e4 41 bd
       -0.07221751 -0.1043153 0.028634105 -0.047337398
000100 fc b0 6d 3b 15 3f 0f be b5 87 da 3c 97 36 b0 bc
       0.003626882 -0.13988908 0.026676038 -0.021510405
000110 63 88 17 3e 50 6e 49 3e 50 df 1e 3e 3b 6b 2d 3d
       0.14798121 0.19670987 0.15514874 0.04233859
000120 6e 88 80 bd 72 ea fa 3d 1b 22 8b 3d 5a e0 0c 3e
       -0.06276022 0.12251748 0.067936145 0.13757458
000130 80 7a 15 3e 72 32 a5 3c d1 5c 8a bd ba 93 0d be
       0.14597511 0.020165656 -0.067559846 -0.13825884
000140 f0 1d d5 3d ac ce 7a 3d 27 89 7c bd 3a dc 6a bc
       0.10406101 0.061232254 -0.061654236 -0.014334733
000150 54 e4 0d 3e 08 76 73 bd e5 8c 26 bd 10 03 21 3d
       0.13856632 -0.059438735 -0.04066171 0.03930956
000160 ff 4b 34 3d d2 df c9 3d 1c 6a 0f bd 05 26 f0 3c
       0.044017788 0.098571435 -0.035013303 0.029315004
000170 04 40 4f 3e 7a 15 12 3e 08 68 2a 3d d5 b3 5f 3c
       0.20239264 0.14266005 0.04160312 0.013653715
000180 15 b0 0d be 5a 7d d3 bd 09 b8 aa bc 3b 69 2d bb
       -0.13836701 -0.10326643 -0.020839708 -0.0026460427
000190 fd a4 5c bd 06 7d 28 be b5 b6 d6 bb 0f 1e f2 3c
       -0.053868283 -0.16453943 -0.006552542 0.029555349
0001a0 d6 1f a2 bd aa 82 a9 bc 03 27 37 3d ff 00 0f bd
       -0.079162285 -0.020692188 0.04471494 -0.03491306
0001b0 4b 3a bd 3d 5d 4a 9a 3d bf bc 88 bd bc 71 0b 3d
       0.09239634 0.07533715 -0.066766255 0.034044012
0001c0 0c 4e a8 bd 33 04 80 bd be 5d 62 be b7 85 a7 bd
       -0.08218011 -0.06250801 -0.22106072 -0.08179801
0001d0 90 ef 25 3d a1 e5 cc bd 41 ed 99 3c cd db 78 3d
       0.040511668 -0.10004736 0.01878989 0.060756493
0001e0 83 dd 5c 3d dc 26 77 3d d6 0d b4 bd d7 12 8d 3c
       0.053922188 0.060339794 -0.087917015 0.017220898
0001f0 b2 63 05 3e f7 3b aa 3d 09 b0 29 bd 69 39 f9 bd
       0.13026312 0.08312219 -0.041427646 -0.12169153
000200 fa 5f 82 3d 7f 89 14 bd 8b e6 b5 3d 93 d8 fd bb
       0.06365962 -0.03626394 0.08881863 -0.007746765
000210 eb b7 ce 3d bc 6e d4 3c 9e 76 b0 3d 47 0a 21 3e
       0.10093673 0.025931709 0.086163744 0.15726577
000220 75 d9 0e 3e 15 77 b3 3d 74 1a 84 3d 66 35 2d 3d
       0.13950141 0.087629475 0.06450358 0.042287253
000230 c9 56 3c 3e 0e d5 13 3e 13 72 fd 3d 99 41 81 3d
       0.18392481 0.14436743 0.123752736 0.0631134
000240 72 9e f5 3d e2 94 10 bd 5b 61 87 bd 2d d4 7d 3c
       0.11993112 -0.035298236 -0.06610366 0.015492481
000250 9f 6a aa 3e 87 83 91 3d 31 25 e0 bb d9 32 18 be
       0.3328447 0.07105165 -0.006840371 -0.14863147
000260 1a d7 6c 3d e3 44 af bd 50 2d 18 be cc ac a9 3d
       0.057822324 -0.08558061 -0.14861035 0.082849115
000270 f5 d9 ac bc 84 31 30 3e 9f 7b 05 3e 73 93 67 3e
       -0.021100024 0.17206389 0.13035439 0.22614841
000280 bb c6 a5 3e b3 b5 72 3e 2d a1 cf 3d a5 9f 19 3e
       0.32378182 0.23702125 0.10138164 0.15002306
000290 fc 7e 17 3e fa 20 9e 3d 28 3c e1 bd 42 49 35 bb
       0.14794534 0.077211335 -0.10997802 -0.0027662073
0002a0 60 20 37 bc 6f 8d eb bd 3d 92 10 3e d3 9b 26 bb
       -0.011177152 -0.11501586 0.14118285 -0.0025422468
0002b0 2d c9 0f 3e 66 98 32 3e 83 15 6f 3d d3 d9 80 bc
       0.14041586 0.17440948 0.058370125 -0.015728867
0002c0 4b 4a 5b bd 31 ad b6 3c ad a1 02 3d 33 09 48 3d
       -0.05353765 0.022299381 0.031892467 0.048836898
0002d0 13 57 2a bd f5 f2 c9 bc c2 2a 59 3e e3 21 ac 3d
       -0.041586947 -0.024651984 0.21207717 0.08404901
0002e0 89 08 bf bc 5b 21 9b 3d 38 8d 26 3c a5 c7 fd bd
       -0.0233195 0.075747214 0.010165505 -0.12391595
0002f0 fa 6f 7e bd f7 7a 78 bd af 42 ce bd bd c1 21 bd
       -0.062118508 -0.060664143 -0.10071313 -0.039491404
000300 aa 05 18 3e 79 f5 8b 3c ec 89 3a 3d 35 65 ba 3d
       0.1484591 0.017084824 0.04554169 0.09101335
000310 0f 56 a0 3d 5e ea 67 3d 0e 6d c7 3b 0e 35 42 3d
       0.078289144 0.056619994 0.0060859984 0.04741388
000320 19 a4 92 bb e9 6d b8 bd ad 45 11 bd c6 59 81 3d
       -0.0044751284 -0.09005339 -0.03546684 0.06315951
000330 03 cc 9c 3c 50 24 be 3c 3a 9d 26 be 73 56 24 be
       0.01914025 0.023210675 -0.16270915 -0.16048603
000340 69 86 80 bd ae 44 3d be f8 01 e6 bd 28 b5 ae bd
       -0.06275637 -0.1848323 -0.11230844 -0.085306466
000350 49 6c 97 3d b5 cd f2 3d 50 2d 96 bd ae 54 6f bd
       0.07393701 0.11855642 -0.073328614 -0.058430366
000360 07 a8 14 3c 15 c1 e3 3d 72 a8 10 bd 09 56 2b 3d
       0.009073264 0.11120812 -0.035316892 0.041830096
000370 dd 17 bb 3d 07 50 b0 3d 90 18 82 3d b9 fc da 3b
       0.09135411 0.08609014 0.06352341 0.006682959
000380 9d 0d dc bd 0e ad 08 3e a6 d5 20 be 91 ff e0 3d
       -0.10744784 0.13347265 -0.157065 0.109862454
000390 99 99 79 bd c9 8b bf 3c 7c ba f7 3c b4 a7 c3 3d
       -0.060937498 0.023382084 0.03024029 0.09553471
0003a0 d6 15 e9 bd 56 35 cd 3d b9 3d 47 bb 19 5f 43 3e
       -0.11381118 0.10019939 -0.003040178 0.19079246
0003b0 57 f9 9f bd cb 52 ed bd ff d4 11 3e 94 c5 0c 3e
       -0.0781123 -0.11588057 0.14241408 0.13747245
0003c0 be fc d4 bd 26 2e 3b be 1d 38 fd 3c 41 4d b9 3d
       -0.10399769 -0.18279323 0.030910546 0.09047938
0003d0 d1 59 99 3b 82 82 13 be a4 44 ab 3d a7 8e 4c 3e
       0.0046798964 -0.14405254 0.083627015 0.19976293
0003e0 97 99 c3 3c 75 1b 19 3d 06 0e 03 3e 9b 43 82 3e
       0.023876948 0.0373797 0.12798318 0.25442204
0003f0 49 d9 6b bd f3 37 6d 3d 68 df 5e 3d a6 44 68 3d
       -0.057580266 0.057914685 0.054412276 0.056706093

combined_encoder.patch_embedding.patch_convs.fine.bias f4 [32]
000000 4c 31 d3 3c a6 7c 9f bd c3 53 c4 3d 43 a6 c6 bc
       0.025780343 -0.07787447 0.09586289 -0.024249202
000010 a1 d8 a5 bd 41 9d f8 3d 34 c8 c9 bd 45 f7 b2 3d
       -0.08097959 0.12139369 -0.09852639 0.08738569
000020 a0 01 e1 3c a3 ea f6 3d 9b bb 2e be 0b ff c2 3d
       0.027466595 0.12056472 -0.17063753 0.09521302
000030 1b fc 04 3d 2d e1 96 3d ee f8 f5 bb cd 20 57 be
       0.03246699 0.073671676 -0.0075064814 -0.21008606
000040 6b 3a c5 3d 5e e5 b0 bd 75 30 40 3e 7d 9f 6c be
       0.09630283 -0.08637498 0.18768485 -0.23107715
000050 04 73 8d 3d 2e e5 40 3e 24 3b df bd 57 5f a7 3d
       0.06906703 0.18837425 -0.10899952 0.081724815
000060 67 2f 8a 3d 6b 13 86 b8 f9 fc 91 bd ae a6 08 be
       0.067473225 -6.393235e-05 -0.07128329 -0.13344833
000070 fd 55 7c b9 94 94 17 3e 4d d2 e9 3d c3 62 69 3d
       -0.00024064626 0.14802772 0.11417065 0.056978952

combined_encoder.patch_embedding.patch_convs.medium.weight f4 [32, 45, 4]
000000 e7 8f 05 bd 81 ac 86 bc 1e 9e b9 bd 33 4a 3c bd
       -0.03260794 -0.016439678 -0.090633616 -0.0459692
000010 78 ab 33 ba 38 b5 b9 3d ca 62 9c ba 13 0a b3 3b
       -0.0006853859 0.09067768 -0.0011931297 0.0054638474
000020 c5 be 3f 3e 2d cb bb 3d df f1 2d 3e c3 e2 bc 3d
       0.18725117 0.09169612 0.16986798 0.09222939
000030 ee 9a 16 3e 43 07 9e 3d 06 ad a8 3d 6b e5 12 3e
       0.14707538 0.07716229 0.082361266 0.14345329
000040 dc 92 94 3d f4 d2 a1 3d 9c 25 88 3d 4a 55 8a 3d
       0.07254574 0.07901564 0.066477984 0.06754549
000050 b9 99 05 3e de 2a 15 3e ed 9b 89 3d 23 83 3d 3e
       0.13046922 0.14567134 0.067191936 0.18507056
000060 a7 f9 ac 3d 2d 05 12 3d 7b cf 23 3d e6 2c f1 bc
       0.08446055 0.035649467 0.03999279 -0.029440355
000070 eb 1d c1 3d 12 1f 59 3e dd b9 38 3d ae 73 8d 3d
       0.094295345 0.21203259 0.045099128 0.0690683
000080 d0 7a 33 3d 9d 8d 0f 3e ca 84 44 3d 59 b2 1e 3e
       0.043818295 0.14018865 0.0479782 0.15497722
000090 5c 3d 89 3d dd ca 1f 3e 91 9d 16 3e dc 15 9a 3d
       0.067011565 0.1560473 0.14708544 0.075237006
0000a0 35 12 f8 3d 2f 09 06 3e 39 5e 51 3e da d8 a9 3d
       0.12112848 0.13089441 0.204461 0.08293314
0000b0 60 63 25 3d 3e 67 c2 3d c6 bb fd 3d e4 52 a4 3d
       0.040377975 0.09492348 0.123893306 0.08023623
0000c0 38 17 1b 3e 1a 4c e5 3c 5d 2c c4 3d 95 bb ba 3d
       0.15145576 0.02799039 0.09578774 0.0911781
0000d0 12 bc e8 bc 80 85 ed 3c 39 7f af bb 6c df 74 3d
       -0.028409991 0.028994322 -0.0053557423 0.059783384
0000e0 8a 79 31 bd d7 be 00 bd 31 37 86 3d 5e fc 42 3a
       -0.0433288 -0.031432 0.06553496 0.00074381183
0000f0 43 a4 c2 bb 0e c6 47 ba 4b a2 bf 3c c2 cf 9d 3d
       -0.0059399917 -0.000762076 0.023392817 0.07705642
000100 cd 4b b4 3d de cc 2e bd b9 28 23 bd ca 15 08 bd
       0.0880352 -0.042675845 -0.039833758 -0.033223905
000110 d4 84 78 bd b5 f9 5b 3d 5f 68 4a 3d 78 6e 92 bd
       -0.06067355 0.053704936 0.049415942 -0.071499765
000120 21 c8 c0 3d b1 ca a7 bd 95 da 00 bd 20 f3 8a 3d
       0.094131716 -0.08192957 -0.031458456 0.06784654
000130 e3 f6 7c 3d f6 dc 2e 3d dd 65 a3 3c 58 ab 5c 3d
       0.061758887 0.042691194 0.019946033 0.053874344
000140 9f 7f 50 3d 3d 4f 08 bd cc 4a 91 3a 0d 5b 7b bd
       0.05090296 -0.033278693 0.0011084913 -0.06136613
000150 c1 ee 8c 3d b9 9e 18 bd 4d a7 80 3d 4e 24 2e bd
       0.06881476 -0.037260745 0.0628191 -0.04251509
000160 fb 5f fd bd f0 91 00 be 25 ff 85 bd 9d 7d dd bd
       -0.123718224 -0.1255567 -0.065428056 -0.108149745
000170 24 7d 09 bc 84 ba c7 bd b9 48 1f be 25 1d 6f bc
       -0.008391652 -0.09752372 -0.15555085 -0.014594351
000180 fc 43 ba bc 58 d0 82 bd 56 a0 fa bd 29 d8 7a bb
       -0.022737496 -0.06387395 -0.12237613 -0.0038275814
000190 57 e6 af bd c6 aa 85 bd b9 16 00 be 46 f7 ef bd
       -0.08588856 -0.06526713 -0.12508668 -0.117170855
0001a0 70 48 04 be 40 ef c8 bd 9c 00 21 bd 96 88 8b bd
       -0.12918258 -0.09811258 -0.03930722 -0.06813161
0001b0 ed e3 10 be df ae f5 bd b2 d8 b0 bd a0 53 a0 bc
       -0.14149447 -0.11996245 -0.08635081 -0.019571126
0001c0 0f 3b e8 b9 59 bd e5 bc 34 c4 7d 3c 55 97 d3 bb
       -0.0004429449 -0.02804439 0.015488673 -0.006457249
0001d0 6a 60 ab bb 74 23 d9 3c 7c 90 cd bd 87 32 d9 bd
       -0.0052299993 0.026506163 -0.10037324 -0.106053405
0001e0 f4 13 04 bd c3 21 c1 3d e8 4f 15 3d d8 7a dc 3d
       -0.03224559 0.09430268 0.036453158 0.10765618
0001f0 80 f5 e8 3d 24 a8 0a 3e df 4f b0 3d c5 f7 58 bc
       0.113749504 0.13540703 0.08608984 -0.013242667
000200 d3 7a 93 bd 9e cb 8f 3c 55 45 dd bc 21 88 79 bd
       -0.07201161 0.017553147 -0.0270106 -0.06092084
000210 82 a7 0d 3e 39 6d 8e 39 3c a6 2b 3a 33 f2 80 bc
       0.1383343 0.00027165728 0.0006547903 -0.01574049
000220 66 42 0b be 01 de b6 bd e0 98 10 be 3e ff df bd
       -0.13599548 -0.08929063 -0.14120817 -0.109373555
000230 b6 d5 55 bd ff d2 0c be 4e 0a c0 bd 67 b5 5a bd
       -0.052205764 -0.13752364 -0.093769655 -0.053395655
000240 36 de 40 3d 7a 85 70 ba e8 43 17 bc 7e e9 30 bd
       0.047086917 -0.0009175163 -0.009232499 -0.043191426
000250 8f de a3 3c 27 db 84 bc ce de f2 3c 01 ff 7b 3b
       0.020003585 -0.016217781 0.029647257 0.0038451555
000260 78 18 e6 3b 44 54 75 3d aa 0d 8b 3d 84 ae 0c 3d
       0.00702196 0.059894815 0.067897156 0.03434612
000270 c3 f6 68 bc 7d 13 2e 3e 64 09 e5 bc 41 01 fd 3d
       -0.014218989 0.16999622 -0.02795858 0.12353755
000280 f2 8d b8 3d 05 57 5c 3c a1 62 3a bd a5 5b 5e 3c
       0.09011449 0.013448481 -0.045504216 0.013571654
000290 cf ff d8 3c 36 3a da 3c 5a 44 6b bd 17 16 40 bc
       0.026489167 0.026639085 -0.057438232 -0.011724017
0002a0 16 e8 02 3c 99 9d 8a bd 45 f3 82 3d 24 ca d0 3d
       0.007989904 -0.067683406 0.06394056 0.10194805
0002b0 37 4d 24 bc d0 2d e3 bc fa 1d 1b bd 92 8a dd bd
       -0.010028175 -0.027731806 -0.037870385 -0.10817446
0002c0 ef 9a e5 bd f5 73 03 bd 1e 09 f2 bd a0 22 37 be
       -0.11211192 -0.032093007 -0.11818145 -0.17884302
0002d0 d6 41 34 bd f7 ee 89 3d 8c 4d f5 3c 33 fb ba 3c
       -0.0440081 0.06735032 0.029944204 0.02282486
0002e0 37 7a 09 3e 43 43 08 3e e1 cf 5c 3e c0 04 76 3e
       0.13425528 0.13306908 0.21563675 0.2402525
0002f0 1a c6 bb 3d 25 59 3b bd 9b 7f ba 3d f7 1b 33 bd
       0.09168644 -0.04573931 0.0910637 -0.04372784
000300 f9 48 7a bd b0 b6 10 bb b1 e3 87 bc 8b dd 49 bd
       -0.06110475 -0.0022081546 -0.016588064 -0.049283545
000310 70 41 fb 3c e7 80 3e 3d ac 0f 7c 3d 49 a8 88 bc
       0.030670851 0.04650965 0.061538383 -0.016681807
000320 e2 da 93 3d f1 7e 19 bc 6a 2c 41 3d 90 f1 48 3d
       0.07219483 -0.009368644 0.047161497 0.049058497
000330 66 5f 18 3e bd 31 08 3e d2 3f 25 3e 8c 09 ab 3d
       0.14880142 0.13300224 0.16137627 0.0835143
000340 78 98 b1 3d 6c a9 00 3e c1 cf 32 3d da 12 b2 3d
       0.08671659 0.1256463 0.04365516 0.08695002
000350 28 c8 fc 3d 99 ce b9 3d b6 aa 07 bc 29 70 a3 3d
       0.12342864 0.090726085 -0.008280447 0.07980377
000360 30 b5 27 3d c7 f3 cf bc 08 c0 c3 bc 82 6c 61 3d
       0.04094428 -0.025384797 -0.023895279 0.05503512
000370 ff 57 10 bd 08 a5 82 3d fa cc b2 3c d9 38 1e 3c
       -0.03524017 0.063791335 0.021826256 0.009657108
000380 66 1c c0 3d 0e f9 b5 3c b3 8f d0 3c 46 ea 9a bd
       0.093804166 0.022213485 0.025459146 -0.07564215
000390 3c d7 97 3d a9 e1 ad bb f6 e5 33 bd 5c a3 c9 bd
       0.074140996 -0.005306442 -0.04392048 -0.098456115
0003a0 eb c1 b5 bd 01 b5 fa bd 47 95 fe bd 71 49 50 bd
       -0.088748775 -0.12241555 -0.12430816 -0.05085129
0003b0 fd 5e fc bd 58 02 c6 bd 92 bc 93 bc 39 9b 08 be
       -0.12322805 -0.09668416 -0.018034253 -0.13340463
0003c0 25 f3 b8 bc 74 52 87 bd 57 11 f6 bd 31 b5 bc bd
       -0.022576878 -0.066075236 -0.12015026 -0.09214247
0003d0 74 74 21 bd 10 fe b0 bc a2 47 c0 bc 72 ee 7f 3d
       -0.0394177 -0.021605521 -0.023471657 0.06248326
0003e0 43 af 3e 3c cc 0f 8b 3d 7a d9 7d 3c e4 5a 39 bd
       0.011638465 0.067901224 0.015493745 -0.045252696
0003f0 70 7b bf bc cc f1 7a bd 67 07 bb 3d 50 f6 89 bd
       -0.02337429 -0.06126575 0.09132271 -0.067364335

combined_encoder.patch_embedding.patch_convs.medium.bias f4 [32]
000000 24 be 13 3e 13 4b c3 3d c8 3d 19 be 66 0f 1e bd
       0.14428002 0.09535804 -0.14964974 -0.038588904
000010 a2 69 0d be d9 fd 68 bc 6d 10 06 be 03 6d b3 bd
       -0.13809827 -0.014220678 -0.13092203 -0.08761027
000020 75 67 7a 3d 9e 46 2c 3d 5d 7b ad 3d 06 7c 12 bd
       0.06113382 0.042059533 0.08470795 -0.03576281
000030 43 84 20 3a f4 6a f3 3d ad d8 0f 3d 6d 7a 1c bd
       0.0006123224 0.11885634 0.035118748 -0.03820269
000040 88 fb 14 be 51 e5 c9 3c 38 87 03 3e 73 a1 e3 bd
       -0.14549077 0.02464548 0.1284455 -0.11114778
000050 6d f2 c1 3d ef 76 4c 3d 0b 11 a7 3d c0 24 e7 3d
       0.09470067 0.04991811 0.081575476 0.112863064
000060 5f 65 2a bd 0d 06 fa bd 6d 39 96 bc 6f f6 c5 bd
       -0.04160058 -0.12208185 -0.01833793 -0.09666144
000070 8d 90 99 bd 30 f6 bb bd a2 a3 72 bd c3 78 a5 3c
       -0.07498274 -0.09177816 -0.059238084 0.020199185

combined_encoder.patch_embedding.patch_convs.coarse.weight f4 [32, 45, 8]
000000 68 ff 12 3d e8 0f b0 3c 4f a5 46 bd bf c7 0b 3c
       0.035888106 0.02149196 -0.048497494 0.00853151
000010 ae ac df 3c 54 2f fc 3c 83 a3 e9 3c d0 e6 58 bc
       0.02730402 0.030784287 0.028520351 -0.013238624
000020 e3 32 08 be fe d7 7d be cb 3d 3f be f7 50 42 be
       -0.13300662 -0.24789426 -0.18675916 -0.18976198
000030 6e e8 46 be 82 5f 49 be b3 f5 7b be aa c6 53 be
       -0.19424602 -0.1966534 -0.24605446 -0.20681253
000040 60 a8 0b bd f9 e2 be bd 48 bb 02 be c6 b2 2e bd
       -0.03409612 -0.09320635 -0.12766755 -0.04265096
000050 68 16 38 bd 5b 6e 92 bd 5a 84 12 bd b6 ab 2c bd
       -0.044943243 -0.07149955 -0.03577075 -0.042155944
000060 d4 e1 17 be 75 b8 0c be 63 7f f6 bd 81 28 dc bd
       -0.1483224 -0.1374224 -0.12036016 -0.10749913
000070 e5 d8 0a be 3b 8c e2 bd 05 fe 92 bd e5 43 91 bd
       -0.13559301 -0.11061903 -0.07177357 -0.07093028
000080 63 db 09 be a2 35 3f bd 01 8a 34 bd c3 0d ea bd
       -0.13462596 -0.046682008 -0.044076923 -0.11428406
000090 13 5b 00 be 3a 5c a8 bc b8 0c e8 bd 5f 50 80 bd
       -0.12534742 -0.02055179 -0.11330551 -0.062653296
0000a0 bc e3 9b bd d7 92 fe bc 2c 6d 96 bd c4 15 cc bd
       -0.07611796 -0.031075878 -0.07345042 -0.09965089
0000b0 7b b9 bd bd 96 8d 61 bd 46 d6 b3 bd ee 13 85 bd
       -0.09263893 -0.055066667 -0.08781104 -0.06497942
0000c0 74 27 c2 bd d1 27 d9 bd 73 98 dc bd f4 6d 3c bd
       -0.09480181 -0.106032975 -0.10771265 -0.046003297
0000d0 f3 c8 23 be d4 b6 2a be 3d 8a 39 be c2 bb 47 be
       -0.15994625 -0.16671306 -0.1811914 -0.19505218
0000e0 0d 17 29 be 52 3d 4a be d6 e5 3b be cd 65 28 be
       -0.165127 -0.19749954 -0.18349394 -0.16445084
0000f0 1a d6 37 be e7 29 d3 bd 13 9d 0f be 85 b6 f5 bd
       -0.17952767 -0.103107266 -0.14024763 -0.119977035
000100 a1 c6 32 be 32 e2 06 be 2d e3 22 be e8 a4 47 be
       -0.17458583 -0.13172224 -0.15906973 -0.194965
000110 73 f9 5f be 30 73 ec bd 5f 6a 09 be cc 60 b9 bd
       -0.21872501 -0.11545408 -0.13419484 -0.09051666
000120 b4 17 08 be fd b9 28 be 2f bf d7 bd c5 51 25 be
       -0.13290292 -0.16477199 -0.10534512 -0.16144474
000130 77 97 09 be 7d d9 32 be 71 0a 1f be 18 d8 ef bd
       -0.13436686 -0.17465778 -0.15531327 -0.117111385
000140 55 8c eb bd 44 b3 c5 bd bd c3 23 be 94 fb 46 be
       -0.115013756 -0.09653333 -0.15992637 -0.19431907
000150 48 b2 3c be 77 f8 32 be 65 68 d4 bd a5 52 20 be
       -0.18427384 -0.17477594 -0.10371474 -0.15656526
000160 86 c9 13 3d ce ac 8a 3d de ba 3f 3d f2 a2 24 bd
       0.03608086 0.06771241 0.04680907 -0.04019446
000170 c6 22 d6 3d 7d 8c 47 3d 96 56 89 3d 39 e8 59 3e
       0.10455851 0.048717964 0.06705968 0.21279992
000180 20 a8 1e 3c 5b b6 c4 ba cc b3 a2 3c 7f 24 b6 bd
       0.009683639 -0.001500796 0.019861124 -0.0889368
000190 cd 1a 87 3d 32 51 f3 3d 5f 20 aa 3d 5e 3f 4e 3e
       0.06596909 0.11880721 0.083069555 0.2014136
0001a0 d7 f6 c9 bc d4 60 9f bd 30 8a 5c bc 37 28 02 3c
       -0.024653835 -0.077821404 -0.013460681 0.007944158
0001b0 21 0e 22 3c f5 30 22 3d be 6d c0 3b fb 36 6b 3c
       0.009891064 0.03959747 0.0058724573 0.01435637
0001c0 7d 30 c7 bb f0 8b 8f bd 8f b0 64 bc 6f 31 04 bd
       -0.0060787783 -0.07009113 -0.0139581105 -0.032273706
0001d0 28 fa ba bd cb 1c 5a bd 31 f2 7b bd 74 8a 2e 3c
       -0.09129745 -0.053250115 -0.06151027 0.010653127
0001e0 55 16 c3 ba b1 4a 21 bd 6f fb 2f bd 9f b3 90 bd
       -0.0014883975 -0.039377872 -0.042964395 -0.0706551
0001f0 3d f8 1a bc 55 ae 9d bc de ba 10 3d d5 3d 9b bc
       -0.009458599 -0.019248167 0.03533446 -0.018950382
000200 53 46 49 bc 45 a9 85 bc 1f ce cb 3c c7 02 06 3d
       -0.012284833 -0.016316066 0.02487856 0.032717492
000210 f1 97 04 3d c3 fe 3a 3d f8 b4 9f 3c 4e 11 a1 bb
       0.032371465 0.045653116 0.019495472 -0.004915393
000220 ae a6 96 bc b4 fe 83 3b 13 61 0f bb af 6a d7 3c
       -0.018390026 0.0040281657 -0.002187793 0.026295988
000230 93 98 ba 3c c4 c7 0c 3d 86 a7 92 3c da 67 c0 3c
       0.022777831 0.0343702 0.017902147 0.02348702
000240 da 20 95 bb f1 b6 34 3d ba 6a 68 3c 51 fe 1a 3d
       -0.0045510354 0.04411978 0.014185602 0.03784019
000250 e2 b0 be 3d d4 45 1e 3a 44 3c 57 3c ff b3 1f 3d
       0.093110815 0.0006037627 0.013136927 0.038990017
000260 d2 07 2d bd e1 67 64 bc a0 53 ae bb 3e 3d b3 bd
       -0.042243786 -0.013940782 -0.0053200275 -0.087519154
000270 c6 39 4d bd 89 c6 e0 bc d7 de a3 3c cf ca f2 3b
       -0.050103925 -0.027438419 0.02000372 0.0074094306
000280 86 3e bf bc 49 7c cc bc e8 fb 77 3c 47 a0 12 bd
       -0.023345243 -0.024961608 0.015135743 -0.035797384
000290 91 76 37 3c b4 58 c9 3c ba df f7 3c 2c 96 ef 3c
       0.011197702 0.02457843 0.030258048 0.029246412
0002a0 98 75 5d bc af 5b 6a bc 73 03 4f 3d 32 82 b2 3b
       -0.013516806 -0.014304086 0.0505404 0.0054476494
0002b0 ef cc 67 bc f8 9d a5 bc 6f 71 89 3c 9c 3c 28 3c
       -0.014147981 -0.020216927 0.016777722 0.010268357
0002c0 af 87 db bc 9d fb 48 bd 3c d2 ba bc 24 66 f6 b8
       -0.026798097 -0.049068082 -0.022805326 -0.00011749219
0002d0 56 4d bd bd a3 68 71 bd b2 df d1 bd 98 43 50 be
       -0.09243266 -0.05893768 -0.102477446 -0.20338285
0002e0 8c eb 82 3b db ff f3 bd 04 99 b3 3c b6 3e 90 bc
       0.0039953645 -0.11914035 0.02192355 -0.017608028
0002f0 48 5f b9 bd 9a 07 8e bd e0 75 05 be 1f 3a 5c be
       -0.090513766 -0.06935044 -0.13033247 -0.21506546
000300 25 1a 46 bd fb b2 17 be 9f 8e 1f bd dc 7b db 3c
       -0.048364777 -0.1481437 -0.038954373 0.02679246
000310 e2 c8 10 bd 9b df 0b be 2c fd 44 be 5e 77 4a be
       -0.035347827 -0.13659517 -0.19237202 -0.19772097
000320 cc 78 9e bc 03 2f ac bd 66 e4 39 bd e7 72 be b9
       -0.01934471 -0.08407404 -0.045383833 -0.00036325233
000330 07 07 62 bd ef 4b ad bd 3b f0 41 be e9 c0 01 be
       -0.055182483 -0.08461749 -0.18939297 -0.12671246
000340 65 68 26 b8 c5 a6 12 be 3a c4 7b bc 42 7e 1f bd
       -3.967471e-05 -0.1432143 -0.015366608 -0.03893877
000350 de 75 00 be a9 7f cf bd d2 90 ca bd 15 ab 6b be
       -0.12544963 -0.10131771 -0.098909035 -0.23014481
000360 a9 50 d5 bc fb 7a 2f bc ae 24 0f bd b7 ba af 3d
       -0.026039438 -0.010710473 -0.03494709 0.08580535
000370 ad c6 09 be 29 16 25 be 6c 5e 57 be ee 10 84 be
       -0.13454695 -0.16121735 -0.21032113 -0.25794166
000380 cb f1 d0 bd fa f4 06 bd b0 7f 7c bc 48 26 7c bd
       -0.10202368 -0.03294847 -0.015411302 -0.061559945
000390 24 7f a7 3c 5e 9e 0e 3e ad 34 25 3e c5 bb 83 3e
       0.020446368 0.139276 0.16133375 0.25729194
0003a0 aa a3 e8 3c e0 dc 2f 3d 4d a8 54 bd eb 99 68 bd
       0.028398354 0.042935252 -0.051918317 -0.056787413
0003b0 3a ee df bd 78 a1 23 be 75 07 42 be 5b 27 71 be
       -0.1093411 -0.15979564 -0.18948157 -0.23550169
0003c0 ed 21 2e 3d 4b c3 2a be f5 3e 94 bd 5c ee 39 3d
       0.042512823 -0.16676061 -0.072385706 0.045393333
0003d0 48 87 a9 3c 9a 9e 7a 3d 34 f3 9c 3d 07 50 fc 3d
       0.02069439 0.06118641 0.07663575 0.123199515
0003e0 6b a6 ed 3b 94 a4 13 be 70 8d 1e bd b0 9c 80 bd
       0.0072525046 -0.1441825 -0.038709104 -0.06279886
0003f0 49 7b 86 bd f7 28 3c be cb 75 eb bd 0d 1b 06 be
       -0.065664835 -0.18375002 -0.114970766 -0.13096257

combined_encoder.patch_embedding.patch_convs.coarse.bias f4 [32]
000000 fc 7d 18 be 89 19 4e bd 06 2b 0f be 5b 01 f1 bd
       -0.14891809 -0.05031732 -0.13981256 -0.11767837
000010 f5 b6 67 3d 5e a0 35 bd 56 ed 0e 3e ff 0a ac 3d
       0.056570966 -0.04434239 0.13957724 0.08400535
000020 57 df 95 3d 23 f7 d5 bd 85 1c ed 3b d6 b5 ef 3d
       0.07317989 -0.10447528 0.007236066 0.11704604
000030 30 75 3d 3d fc 3a 94 3d 9d 06 c2 bd 0a c6 c1 bd
       0.046254337 0.07237813 -0.09473918 -0.09461601
000040 7d 26 af bd 01 04 0f 3e 84 e5 bc bd fa ec ff bd
       -0.08552263 0.13966371 -0.09223464 -0.124963716
000050 e1 a2 db 3d 46 0f 10 3e 6b f6 86 bd ba 37 51 3d
       0.10724426 0.14068326 -0.06589969 0.051078536
000060 00 5a 07 be 6a ce d3 bd c7 47 3e 3d ca fe 2d be
       -0.13217926 -0.10342105 0.04645517 -0.16991726
000070 d4 5b 89 bd 12 d7 e2 bd b7 b4 ce bc f9 63 da bc
       -0.06706968 -0.11076178 -0.025232656 -0.026658999

combined_encoder.patch_embedding.patch_convs.irregular.weight f4 [32, 45, 5]
000000 d6 fc 02 bc f5 5c 6b 3d 2a 2f 82 3d 17 79 c1 3c
       -0.007994851 0.057461698 0.06356652 0.02361731
000010 d4 0b 99 3c 84 24 98 bd bb 38 a7 3c 86 c8 4b 3c
       0.018682398 -0.0742884 0.020412793 0.012437945
000020 71 cd 8e bd 25 44 06 3c 6e fc 6b 3d 76 07 2b bd
       -0.069727786 0.008194958 0.057613783 -0.041755162
000030 a0 ce 6e 3d 57 11 d7 3c d3 a1 b4 3d 6a ca 06 3e
       0.05830252 0.026253385 0.08819928 0.13163152
000040 ab d5 67 3d 0a 4d f3 3d 68 22 57 3d 7e 41 17 3e
       0.056600254 0.118799284 0.052523047 0.14771077
000050 9a 0a 04 3e 1f ed 8a 3d 6f ba 09 3e 3f 8b 01 3e
       0.12894669 0.067835085 0.13450025 0.12650774
000060 27 9e 41 3d 77 cb 24 3d 98 95 b8 3d cf c0 55 3b
       0.047269966 0.0402331 0.09012908 0.0032616144
000070 11 58 a3 3d 55 53 0c 3d 8f 0d 10 3d 24 b4 80 bd
       0.07975782 0.03425916 0.03516918 -0.06284359
000080 3e 91 d4 bc 1f 96 45 bc ef f2 6d bd 6d d6 ec bc
       -0.025948163 -0.012059717 -0.058093008 -0.02891084
000090 5b 00 10 3d 0b 86 e6 bc a9 2c 8d 3d a0 be 8c ba
       0.03515659 -0.028140089 0.06893284 -0.0010737963
0000a0 70 ec 71 3d 05 13 de 3d 5a c1 b8 3d b3 fe 3f 3c
       0.059063375 0.108434714 0.09021254 0.01171844
0000b0 1c 73 18 3d 1c 9d 4b 3c 1c a2 00 3d 56 0f 34 3c
       0.03721915 0.0124275945 0.0314046 0.0109899845
0000c0 bf 92 bf 3d 81 54 60 3d 52 9c e6 3c b0 b0 2e 3e
       0.093541615 0.05476809 0.028150711 0.17059588
0000d0 fd a5 a8 3d 14 34 07 3d 0c e2 cf 3d 0a 00 b2 bd
       0.08234785 0.03300865 0.10150537 -0.08691414
0000e0 2b 0b 0d bd f7 29 5b bd 5c 0f 9e bd f5 18 b8 bd
       -0.03443448 -0.053506818 -0.07717773 -0.08989135
0000f0 33 5f 19 bd a3 63 00 be 1c ae 03 be 0f c3 11 3c
       -0.037444305 -0.12538008 -0.12859386 0.008896603
000100 fa 8a 05 3d 08 99 74 bd bc 95 72 3d 7f 74 24 bb
       0.03260324 -0.059716254 0.05922483 -0.002509385
000110 92 a2 8f bc a8 bc 6a 3d d9 e6 34 3d fa a7 35 3d
       -0.017533574 0.057308823 0.044165466 0.044349648
000120 cd 45 7f 3d 1f 02 cd 3d c7 9c 07 3d a0 b2 88 bc
       0.062322427 0.1001017 0.0331085 -0.016686738
000130 b8 25 09 3c 35 8c 90 3d 52 65 c8 3d 9e 0a a5 3d
       0.008370809 0.07057992 0.0978495 0.08058666
000140 88 ae a0 bc 46 72 aa 3d 2a 3c ef bc 60 8c b1 3d
       -0.019614473 0.08322577 -0.029203493 0.086693525
000150 fe 42 e8 3c 99 42 5d bb 19 74 70 3d 2f 6d c3 bc
       0.028352257 -0.003376162 0.05870447 -0.023855774
000160 88 f2 0d 3b 81 88 ae bc 07 e6 08 bc af a1 0a bc
       0.0021659452 -0.021305325 -0.008355624 -0.0084614
000170 a2 1a 3c bd 65 e2 99 bd 03 da 42 bc 3f 4b 35 bc
       -0.045923837 -0.075138845 -0.011892798 -0.011065303
000180 60 0f b5 ba 3d ce 21 3d dd 12 2f 3c a9 d7 82 3d
       -0.0013813786 0.039503325 0.01068565 0.0638879
000190 33 9a 54 bd e5 6c 44 bd b9 7e 5e 3c 83 da 57 3d
       -0.05190487 -0.047955412 0.013580018 0.052698623
0001a0 e5 ae d7 bc 87 a9 68 bd 2f 05 75 3c 47 c1 4b 3d
       -0.026328513 -0.0568023 0.014954849 0.04974487
0001b0 fe 85 27 3d 62 34 41 bd c4 ca a1 3c a7 e5 1e 3e
       0.04089927 -0.047169097 0.019750006 0.15517293
0001c0 60 87 bd 3d 55 22 1e 3e c7 5a b4 3a 54 43 8b ba
       0.09254336 0.15442784 0.0013759964 -0.0010624924
0001d0 50 b3 09 3e 81 93 37 3e 70 38 df 3d fa bf b6 3d
       0.13447309 0.17927362 0.108994365 0.089233354
0001e0 29 99 bf 3d cb 8d 97 3d d5 12 0c 3e 58 f4 c9 3d
       0.09355385 0.07400092 0.13679059 0.09861058
0001f0 52 36 40 3d b4 58 68 bc 41 09 11 3e 50 32 27 3e
       0.046926804 -0.014181305 0.14163686 0.16327786
000200 12 63 9e 3d bf e3 f6 3c aa bb 50 3c b0 21 1d 3e
       0.0773374 0.030137895 0.012740055 0.15344882
000210 54 29 28 3e 64 e8 11 3e d0 0b 84 3d 30 c6 4f 3d
       0.16422015 0.14248806 0.064475656 0.050726116
000220 9d f3 52 3d 3c 64 16 3e 51 c0 0b bc 82 b1 89 3d
       0.05150186 0.14686674 -0.0085297385 0.0672331
000230 f1 03 66 3d 54 49 84 bc a5 38 b4 3c 46 65 9e 3d
       0.056156103 -0.016148247 0.021999666 0.0773416
000240 95 e0 ef 3d 68 fc 5c 3d 18 16 07 3e ce 23 dd 3d
       0.117127575 0.05395165 0.13192022 0.10797845
000250 01 12 c9 3d 04 a6 54 3d 76 16 49 3c 5e da 62 3d
       0.09817887 0.051916137 0.0122734215 0.055384032
000260 6e bc ef 3d 4d c2 8f 3d 92 a5 88 3c b1 1e e4 3d
       0.11705862 0.07019482 0.016680513 0.111386664
000270 07 95 02 3d 97 b3 76 3d 0b e1 e5 3c 0c 56 08 3d
       0.031880405 0.060229864 0.02806141 0.033285186
000280 b4 d3 22 3d 5a c1 06 3d e3 83 34 3d 0c ea 58 3d
       0.039752677 0.03289924 0.04407109 0.05295758
000290 17 83 86 3d 41 aa fa 3c 80 a8 dd 3d d6 32 22 3d
       0.06567972 0.030598762 0.108231544 0.039599262
0002a0 c8 ca ad 3d aa 43 3f 3d 65 9d 9d 3d e0 88 0a 3e
       0.08485943 0.04669539 0.07696036 0.13528776
0002b0 04 61 df 3d d1 e8 4e 3d 77 1c ad bc b5 33 7f 3b
       0.10907176 0.050515 -0.021131737 0.0038940732
0002c0 87 f4 5f 3e de 37 b7 3c c2 f7 7a 3d a2 de a3 3d
       0.21870624 0.022365507 0.061271437 0.08001448
0002d0 e2 fd f1 3d 69 ce d4 3d 0c c1 07 3e d9 81 ab 3d
       0.118160024 0.10390932 0.13257235 0.08374376
0002e0 8c db 10 3e 12 b4 f8 3d 5a 5c fe 3d aa 7e 38 3e
       0.1414625 0.12143721 0.124199584 0.18017069
0002f0 5a 25 34 3e 9b 9f 50 3e 17 f0 71 bd 84 55 06 bd
       0.17592373 0.20373385 -0.05906686 -0.032796398
000300 cf a8 15 3c 35 8b 95 3d 9e c1 b4 3d 35 dd 90 3c
       0.009134485 0.07301942 0.08825992 0.017683605
000310 be e2 03 bd d9 45 0c 3c 02 1f 08 bd 2c 34 85 3c
       -0.03219866 0.008561575 -0.033232696 0.016260229
000320 bb c5 81 3d 6d bc e2 3d c0 84 09 3e a2 f1 d3 3d
       0.06336542 0.110710956 0.13429546 0.10348822
000330 89 10 f7 3d 01 89 ef 3d 55 c7 43 3d 73 df b6 3d
       0.12063701 0.11696053 0.04779752 0.08929338
000340 96 d2 4a 3e 1b 64 df 3d dc 08 ce 3d 18 01 8f 3c
       0.19806895 0.109077655 0.100602835 0.017456576
000350 bf 40 ee 3c ae 07 c0 bc 63 33 d0 bc 90 3b 83 bd
       0.029083608 -0.023441162 -0.025415128 -0.06407845
000360 01 fb 9f bd e6 09 c0 bd 88 aa e0 bd 37 07 57 3d
       -0.07811547 -0.09376888 -0.10970026 0.052497115
000370 03 eb 76 3d 87 08 cc 3d 1a 32 68 3b 61 68 c3 bd
       0.06028272 0.09962564 0.0035430253 -0.09541393
000380 a0 44 0a be 3b 13 33 3c d2 44 5b bd 04 1f fd 3a
       -0.13502741 0.010929878 -0.05353243 0.0019311612
000390 48 f5 6e bd 6d 29 9d 3c 03 57 23 3d 06 d6 7e 3d
       -0.058339387 0.019184792 0.039877903 0.062215827
0003a0 a9 7e 01 3d c8 08 90 3c fe df f9 bc 79 5b 3c 3d
       0.031614933 0.017582312 -0.030502316 0.045985673
0003b0 98 f6 8b 3c b2 6a 88 bd 73 52 33 3d ab aa c5 bc
       0.017085359 -0.066609755 0.0437798 -0.024129232
0003c0 8e ff 1e bc a4 66 8f bd ef 0b 8b bd 1c e6 e3 3c
       -0.009704484 -0.07001999 -0.067893855 0.027819686
0003d0 49 92 27 bd f7 b7 35 3d 21 53 6f bc 16 5a 78 bc
       -0.040910993 0.044364896 -0.014607222 -0.015158197
0003e0 6f 1c d4 3c e9 cb 6b bd 92 ab 82 3c 27 dd 04 bc
       0.025892464 -0.05756751 0.015950952 -0.008109367
0003f0 17 65 b7 3c a5 7f 12 bd 23 0d ee 3a ad 20 38 bd
       0.02238707 -0.035766263 0.0018161874 -0.044953037

combined_encoder.patch_embedding.patch_convs.irregular.bias f4 [32]
000000 83 1d 37 3d f2 01 74 bd 03 35 53 bd 18 9c 79 b9
       0.04470588 -0.059572168 -0.051564228 -0.0002380464
000010 c9 bc 0e 3c 4f c2 04 be 01 40 82 bd 8d 55 e5 3d
       0.008712002 -0.12964748 -0.06359864 0.11197958
000020 ca a2 27 bd 3c 1b ac bc f4 b9 bb 3d 03 83 fe 3d
       -0.040926732 -0.02100908 0.09166327 0.12427332
000030 5f d0 b4 bd f9 6f 21 3d e6 d6 cb 3d 10 83 06 3e
       -0.08828806 0.039413426 0.09953098 0.13135934
000040 2d 10 a6 3a 25 c1 8e bd 9e b7 84 3d 89 95 1c 3d
       0.0012669616 -0.06970433 0.06480335 0.038228545
000050 9e aa a9 bd 41 7a ef 3c d9 c3 8a 3b fb a7 2e bd
       -0.08284496 0.0292331 0.0042347726 -0.042640667
000060 1e 27 45 3d b5 aa 05 bd c0 e4 11 bd 47 b7 66 3c
       0.04813301 -0.032633502 -0.035618544 0.014081783
000070 2d 9b c4 3d 8d a4 f1 3d 30 c4 54 3d 54 aa 29 be
       0.0959991 0.11798964 0.05194491 -0.16568881

combined_encoder.patch_embedding.patch_projections.fine.weight f4 [32, 32]
000000 be f9 a0 3d c4 c5 be bd c1 fc ff bd 66 17 f1 3d
       0.078601345 -0.093150645 -0.12499381 0.11772041
000010 d0 1d 3c 3e 83 28 e5 3d 35 a6 12 3e b3 57 03 3e
       0.18370748 0.111893676 0.14321215 0.12826423
000020 c0 b5 0d be 28 03 22 3e c2 fb 30 3e c9 21 5b bd
       -0.13838863 0.15821517 0.17283538 -0.053499017
000030 90 49 a4 3a 17 ad 2c bd c9 37 5b 3d 36 bf 6c 3e
       0.001253413 -0.04215726 0.053519998 0.23119816
000040 bc 65 15 bd 3c 95 e2 3c 3b 9e 05 be d0 33 02 be
       -0.036473975 0.027659051 -0.13048641 -0.12715077
000050 25 98 94 3d 22 a1 a1 3d 00 00 e0 3d 55 cb 6a 3d
       0.07255582 0.07892062 0.109375 0.05732282
000060 8f 29 ce bd 39 7a 1b 3d e9 7d ce 3c e6 bb 73 bd
       -0.100665204 0.037958357 0.025206523 -0.059505366
000070 79 45 37 be 4c 67 f4 bd f4 e6 c7 bd 50 81 11 3e
       -0.17897595 -0.11933765 -0.09760848 0.14209485
000080 99 35 92 3c 01 ff e5 3d e2 f6 1a 3d c7 20 c7 bd
       0.017847823 0.11230279 0.037833102 -0.09723049
000090 31 bd 1f be eb 8f e6 bd 1f 68 ad 3d 8a b3 80 3d
       -0.15599515 -0.11257919 0.08467125 0.06284244
0000a0 4a 04 82 3d 3b 3c 23 3e 4c ad a3 3d 51 64 09 3e
       0.06348474 0.15940945 0.07992038 0.13417174
0000b0 47 5e 1e 3e 39 ca 01 be 70 fc 1e be 8b 62 de 3d
       0.15465651 -0.12674798 -0.15525985 0.10858639
0000c0 1b 6c d3 3a e2 ff 11 be f5 fb 1e 3d 53 a7 01 3c
       0.001613024 -0.14257768 0.038814504 0.007913428
0000d0 13 d4 e0 bc c4 09 32 3e dd 5f dd 3d 24 02 0e bd
       -0.027444875 0.17386538 0.108093 -0.03467001
0000e0 0a 34 8f 3d 04 0c 22 3e e9 19 c5 bd 5c d2 ef bd
       0.069923475 0.15824896 -0.096240826 -0.11710045
0000f0 ee a5 a3 3d 51 4c bc 3d c9 7f 0f be 7a 53 61 bd
       0.07990633 0.09194244 -0.1401359 -0.05501125
000100 4a 4e 02 3e e6 44 f6 3d 76 8f 7d bd 36 59 99 bd
       0.12725177 0.1202486 -0.061904393 -0.07487719
000110 14 e4 a3 bc a3 65 2c 3e 98 a4 6e 3d 06 6c 40 be
       -0.020006217 0.16835646 0.058262438 -0.18791208
000120 47 f6 a5 3d ec 86 03 be 97 12 1b be 8f 27 d0 3d
       0.08103614 -0.12844437 -0.1514381 0.10163795
000130 ac 76 1c bd 35 40 db bd ee b1 7e 3d 6e ef f4 3d
       -0.03819911 -0.10705606 0.062181406 0.1195973
000140 41 a2 2c bd 6e e7 e0 bd 59 f5 6c 3d ea a4 c8 3d
       -0.042146925 -0.10981642 0.05785117 0.0979708
000150 c1 c8 6e 3d dd 99 87 bd 56 62 6c 3e 77 f2 34 3e
       0.058296923 -0.06621144 0.23084387 0.17670618
000160 3a 16 81 3d 61 a8 28 3d a1 79 8a 3d bc 74 04 3e
       0.063030675 0.041176204 0.0676148 0.12935156
000170 69 47 e2 3d 13 5c 9e bd 3d 2d b3 3d 72 66 22 be
       0.11048777 -0.077324055 0.08748863 -0.15859392
000180 15 fe 66 bd 6e 68 1c be 2a 2d 46 bc 08 6a 8a 3c
       -0.056394655 -0.15274212 -0.012095729 0.016896263
000190 52 40 cc bd a8 d4 74 3d 0b f6 ec 3d 54 6f 18 be
       -0.099732056 0.059773117 0.115703665 -0.14886218
0001a0 db 4e 2b bd c7 3c b6 3d a9 72 dc bd 93 f6 a2 3d
       -0.04182325 0.08898311 -0.10764057 0.079571865
0001b0 13 a3 2c 3c a5 22 26 be f1 17 2f be 5a 88 1d bd
       0.010536927 -0.16224153 -0.17098977 -0.038460113
0001c0 56 ff 75 bd 83 86 49 be bd 74 fe bd 2d e9 29 be
       -0.06005796 -0.19680218 -0.1242461 -0.16592856
0001d0 d4 15 2c 3d 9b b4 31 3e c5 ee 58 be 56 e0 61 3e
       0.042013004 0.17354052 -0.21184833 0.22058234
0001e0 80 96 bf bd d5 c3 03 be 46 95 30 3d d8 0c cc bd
       -0.093548775 -0.12867673 0.04311111 -0.09963387
0001f0 cb 4e 1d 3e dc 22 e3 bd f9 e0 a1 3d b3 54 10 3e
       0.15362088 -0.11090633 0.07904238 0.1409481
000200 66 77 25 3e 2f e3 e7 bd 5d 47 0d be eb 26 09 3d
       0.16158828 -0.11322629 -0.13796754 0.03348438
000210 a5 cd 70 bd 97 1d 34 be 23 db 9c 3a c3 61 bb bd
       -0.058789868 -0.17589413 0.0011967163 -0.09149506
000220 fd 1e 07 be cc 2d 80 3c 94 76 47 3d f8 fb 1b 3e
       -0.13195415 0.015646838 0.04869707 0.15232837
000230 da a9 2f bc d0 86 e7 bd b0 7e a4 bd 63 ad 22 3c
       -0.010721648 -0.1130501 -0.08031976 0.009929034
000240 62 70 1c bd 7d 16 54 3d 3f c8 d2 bd a6 e6 c6 3c
       -0.038193114 0.05177926 -0.102921 0.024279904
000250 b9 f3 f5 bd 59 d7 88 3d b2 46 04 3e be 52 c7 bc
       -0.12009377 0.06681699 0.12917593 -0.024331447
000260 64 46 67 3d c5 f2 91 bd 9b 11 0f bb bc 1a 10 3e
       0.056463614 -0.07126383 -0.0021830562 0.14072698
000270 48 10 66 3d 4e 67 82 bd 70 38 fb 3d 67 b5 10 3e
       0.05616787 -0.0636736 0.12266624 0.141317
000280 a3 db 29 be 24 70 11 be fa a0 06 3c ec 8a 36 be
       -0.16587691 -0.14202935 0.008217091 -0.17826432
000290 b3 ba ee 3d 8d 9b ef bd d7 86 ec 3d db 0c 91 3d
       0.11656704 -0.11699591 0.11549156 0.0708253
0002a0 3a b9 13 be ae da 50 3d a7 7d 76 bd 33 c7 35 3d
       -0.14426127 0.0509898 -0.060178425 0.044379424
0002b0 c7 e2 eb 3d 7e 05 ac 3c 12 99 00 3d 0c cf ac 3c
       0.11517864 0.020998713 0.03139598 0.021094821
0002c0 38 1f 7e bd 5c 22 13 3e 50 aa 18 3e 05 60 f5 3d
       -0.06204149 0.14368576 0.14908719 0.11981205
0002d0 cd b4 32 be 4c df 85 bb 51 dd d3 bd 77 43 29 be
       -0.17451783 -0.004085457 -0.10344947 -0.16529642
0002e0 d2 77 08 be 88 14 16 3e aa 11 ca 3d 18 65 ed bd
       -0.13326958 0.1465627 0.098666504 -0.11591548
0002f0 56 b6 22 3e 1a e4 ee bd 3f 16 11 be 7c 0f 93 3d
       0.15889868 -0.11664601 -0.14168642 0.07180688
000300 29 00 26 be 14 2c 17 3e 04 3b c7 bc 1d 50 01 be
       -0.16210999 0.14762908 -0.024320133 -0.12628217
000310 76 eb 0f 3e 0c 91 be 3d 4e e5 8c 3c 92 20 48 3d
       0.14054665 0.09305009 0.017199185 0.048859186
000320 37 7d 50 bd ed 13 98 bd b2 92 08 bc 9f 32 0c bd
       -0.050900664 -0.074256755 -0.008335756 -0.034227964
000330 09 5e 01 3e e4 20 39 3c 4b 47 28 be 6e 3d 09 3e
       0.12633528 0.011299346 -0.16433446 0.1340234
000340 11 cc 06 3e b2 41 1f 3e ec d9 26 3e 83 8c 0c be
       0.13163783 0.15552405 0.16294068 -0.13725476
000350 4a 8f 7d bd b9 22 f3 bd 79 8b fa bd 4b 47 bc bd
       -0.06190423 -0.11871857 -0.122336335 -0.091932856
000360 6b 93 ab bd 14 15 92 3d 4d 08 e5 bd 5e 9e 1f 3e
       -0.08377727 0.071329266 -0.11183224 0.15587756
000370 f8 c1 af 3d fb 38 44 3c 29 00 c7 bd 2f dd 53 bd
       0.085819185 0.011976476 -0.097168274 -0.05172461
000380 89 da 26 3e 85 f1 1e bd 49 db 8e bd e4 bd 26 be
       0.16294302 -0.03880455 -0.06975419 -0.16283375
000390 85 93 5e 3b 12 f3 f4 bd 91 57 a5 3c 6d a2 be bd
       0.003396244 -0.119604245 0.020183356 -0.09308324
0003a0 ff 14 05 3e 45 90 0d 3e 1b c9 28 be 1d 16 a1 3c
       0.1299629 0.13824566 -0.16482966 0.019663865
0003b0 4e 13 c0 3c 34 75 00 bc 52 f8 ee 3d f0 d0 35 be
       0.023446705 -0.007840443 0.11668457 -0.17755485
0003c0 6f d5 a9 3d a6 e0 bf 3d 56 d6 00 3e 53 fe bd bc
       0.08292662 0.0936902 0.12581763 -0.02319256
0003d0 26 ce 2d 3e f8 a6 86 3d df 8d 0c 3e 97 c5 9b bd
       0.1697317 0.065748155 0.13725995 -0.07606047
0003e0 83 3b 2b 3c 3c 4f d6 3d 76 85 33 3d ef f5 07 be
       0.0104512 0.104643315 0.04382845 -0.1327741
0003f0 f7 58 ea ba 05 14 b0 bc 6a 84 c9 bd c5 1d 8a 3d
       -0.0017879297 -0.021493921 -0.09839709 0.06743959
