result/low_level/ETHUSDT/slope/2/best_model.pkl (torch, 187810 bytes, 14 tensors)

fc1.weight f4 [64, 36]
000000 d9 7b bf 3d 23 c9 0b 3f f7 fc 66 3f fd cb 51 3f
       0.09349794 0.54603785 0.90229744 0.81951886
000010 37 6a e5 3e eb 28 31 3f e1 ef 1f 3f 51 d6 7b 3f
       0.44807598 0.6920306 0.624754 0.98373896
000020 53 06 3f 3f b7 27 2d 3f b4 e3 5c 3f 96 ac 09 3e
       0.74619025 0.67638725 0.8628495 0.13444743
000030 32 34 2d 3e ce ca 77 bf 2b 51 a4 bf f9 43 8d bf
       0.16914442 -0.9679383 -1.283727 -1.1036369
000040 3e ff 6c bc 73 24 f9 3c e7 ba 72 bf 42 25 bc 3e
       -0.014465151 0.030412888 -0.9481644 0.36747175
000050 6b 11 ed bc 22 ad 95 bc 9b 6e 0c be 36 41 f8 3d
       -0.02893897 -0.018271033 -0.13714068 0.12121813
000060 a1 fc 0a be e7 3a 83 3c e1 6f bc bd 48 71 29 be
       -0.13572933 0.016019298 -0.09201027 -0.1654712
000070 9f 46 39 be 27 f4 42 3e 06 61 65 be 07 e8 07 3f
       -0.18093346 0.19038449 -0.22400293 0.5308842
000080 53 0f 1a 3d 70 12 b6 3e 1e 4c d4 3c 01 52 0c bc
       0.03761227 0.35560942 0.025915202 -0.008564473
000090 d8 5e 0a 3e e1 28 64 be 16 27 13 bf c6 89 16 bb
       0.13512743 -0.22281219 -0.57481515 -0.0022970303
0000a0 e7 95 a2 be a1 c6 2a be 19 0f fa 3c ea 38 8c be
       -0.3175499 -0.16677333 0.030524777 -0.27387172
0000b0 ef df d6 be 4f f0 ad be d6 da 9b be 8b 36 07 3e
       -0.41967723 -0.33972403 -0.30440396 0.132044
0000c0 71 7c a1 3c 3f d7 78 bf 41 5a 81 bf 0b f0 96 bf
       0.019712659 -0.9720344 -1.0105668 -1.1792005
0000d0 cb ea ea bc b8 28 3c bc 21 a3 84 bd 30 1b a9 3d
       -0.028676411 -0.0114843175 -0.06476427 0.08257139
0000e0 29 2d bb 3c 14 d1 58 3d 1b 27 eb 3d b2 8e d8 bd
       0.022848682 0.052933767 0.11482068 -0.10574092
0000f0 ef ee 2c 3e eb 4b 58 3d 2d fb 2c 3e c1 07 db 3d
       0.16888021 0.052806776 0.16892691 0.10694838
000100 61 37 0c be e4 49 2d bb 6d 91 fc be 87 74 b4 be
       -0.13693 -0.0026441747 -0.493297 -0.35245153
000110 e0 6f ad be 78 40 98 be c7 1f a4 3d 6c 8e cc 3d
       -0.33874416 -0.29736686 0.080138735 0.09988102
000120 d4 ca d6 3d b5 76 b9 be 96 80 88 bf b9 5e 3d bd
       0.10487905 -0.3622338 -1.0664241 -0.046232913
000130 29 77 4a bf 7b d5 dd be 73 4d bc be 8d 5b 4b bf
       -0.79088074 -0.43326935 -0.3677784 -0.7943657
000140 8c f3 fb be 87 74 22 bf 75 b3 7d bf ba eb e2 bc
       -0.4920925 -0.63459057 -0.99101955 -0.027700294
000150 3e d3 84 3d ba b5 95 be a9 52 cc bc 8f ae 71 be
       0.06485604 -0.2924021 -0.02494176 -0.23601745
000160 ec 3c b5 bd 16 c8 0c bd 1c b9 03 3a b9 f1 97 bd
       -0.088495106 -0.034370504 0.0005024837 -0.07419152
000170 2d 44 48 3d c2 00 c7 3c d0 e3 b4 ba 85 78 1e 3d
       0.048893142 0.024292354 -0.0013800804 0.038689155
000180 20 28 ba 3c d2 47 65 bc bc 13 8f ba e0 75 38 3e
       0.022724211 -0.013994174 -0.0010915915 0.18013716
000190 04 b9 0b be ee 61 6c bd 70 14 92 3e 61 c2 8d be
       -0.13644797 -0.05771058 0.28531218 -0.27687362
0001a0 f6 1e 47 3d b6 2b d0 be 5a 36 d1 3c 41 af 85 3b
       0.04861351 -0.4065835 0.025538612 0.00407973
0001b0 75 1a c1 bd 9a 00 7c 3e 51 c5 bd be 20 5a 32 be
       -0.094288744 0.24609604 -0.37064603 -0.17417192
0001c0 6e 46 b4 be 79 96 e0 bd 2e 73 a9 3d 50 4d ac be
       -0.35209984 -0.109662004 0.08273922 -0.33652735
0001d0 80 cd dd bc d4 59 cb be 89 15 e2 be f0 40 63 3e
       -0.02707553 -0.3971697 -0.44157055 0.2219274
0001e0 b6 6e e7 3d 42 c5 bb 3d af ec 12 3e 5f 3e 03 3e
       0.11300413 0.09168483 0.143481 0.12816761
0001f0 df de a7 3d 8b 67 48 3e e7 38 4e 3e b7 44 ca bd
       0.08196806 0.19570749 0.20138894 -0.098763876
000200 40 f5 d1 bc 24 d8 6e 3c 5c 5e 26 be 2f bb a0 bd
       -0.02562964 0.014577899 -0.16246933 -0.078482024
000210 22 a6 6c 3d 19 94 0f 3e b5 25 d2 3d 99 8a 3b 3d
       0.057775624 0.14021339 0.10261098 0.045786474
000220 4a b4 b8 bc 4b a5 8d 3d fb e5 3d be 85 6f c5 be
       -0.022546906 0.06916293 -0.18544762 -0.38561645
000230 09 f4 c4 bd 24 82 5c be 72 08 c2 3d 93 f9 6f 3d
       -0.096168585 -0.2153402 0.09474267 0.058587622
000240 d8 98 90 bd d0 e8 fa 3e 72 b2 c7 38 a6 08 7a bd
       -0.07060403 0.49005747 9.5222975e-05 -0.061043404
000250 7d af 90 be 90 30 65 be d1 1a fa 3e d7 58 10 be
       -0.28258887 -0.22381806 0.48848584 -0.1409639
000260 24 f3 64 3e d9 b5 16 3e 94 de 0c 3e 35 ea 27 bd
       0.22358376 0.14717807 0.13756782 -0.04099484
000270 1a c0 5d bc d7 d6 ac 3e 71 24 7a 3e 3d cf 22 3e
       -0.01353457 0.3375766 0.24427964 0.15899368
000280 11 7d 85 bd 86 7c 69 3d 6b 1f 2e bf 63 32 ca bd
       -0.06517995 0.05700352 -0.6801669 -0.09872892
000290 8c 1b 5b 3d 03 4e cd 3d 4a e3 4f 3d 25 6e ca bc
       0.053493068 0.10024645 0.05075387 -0.024710724
0002a0 6d 78 ed bd 68 9c 7a bd 89 74 ac 3d cc d1 e6 bd
       -0.11595235 -0.061184317 0.08420665 -0.11270484
0002b0 38 15 e3 3d f6 6f 0a bd bc 5d 06 3e 12 2e 97 be
       0.110880315 -0.03379818 0.13121694 -0.29527336
0002c0 3f 04 b2 3e b6 1a fb 3d 3c 6f d1 bd 82 05 b2 3d
       0.34768865 0.12260954 -0.102262944 0.08692457
0002d0 e0 40 48 3c d2 d0 44 3f 59 32 fd 3e 10 8a 40 3e
       0.012222499 0.76881135 0.49452475 0.18802667
0002e0 53 a1 ca 3e 11 e9 bf 3e 39 68 1a 3f aa 10 28 3f
       0.39576206 0.37482503 0.6031528 0.6565043
0002f0 9c 69 26 3f a9 f2 f6 3e 07 9c 10 3f df dc 56 be
       0.650049 0.4823201 0.5648808 -0.20982693
000300 19 17 63 be 25 f1 b9 bd 2a 94 a4 3b 9c 45 06 3e
       -0.2217678 -0.09079198 0.0050225453 0.13112491
000310 00 63 52 3d 94 77 10 3d e2 f6 f2 be 2d 02 99 3d
       0.051363945 0.03527029 -0.47453982 0.07471118
000320 9a 69 a5 bd 19 83 80 bd a6 6a 8e bd 5e dc 21 bd
       -0.080767825 -0.06275005 -0.06953935 -0.0395168
000330 f8 8b 0a bd ae ef 05 be f4 2b 35 be 83 dd 20 be
       -0.03382489 -0.13079712 -0.17692548 -0.157095
000340 d7 a1 bf bd 04 ff 06 be 8e 36 8b be 77 3c 59 be
       -0.093570404 -0.13183218 -0.2719006 -0.21214472
000350 92 c4 8a bd 06 a8 4d 3e e9 9e c2 bd 0a 7e 4f be
       -0.06775774 0.20083627 -0.09502966 -0.20262924
000360 0f 8b 0c 3d 86 42 4c 3d 70 b7 df bd d6 f3 9b bd
       0.034312304 0.04986813 -0.1092366 -0.076148674
000370 5f 3d bf bd d3 38 18 be cb d6 ad 3d df 87 01 be
       -0.093378775 -0.14865427 0.08488234 -0.12649487
000380 9b 57 a7 be a6 40 65 be 87 7b 11 bf 7d f0 93 be
       -0.32684025 -0.22387943 -0.5682911 -0.28894415
000390 a5 f6 6b be 69 42 5d be b4 d9 3e be 2c 53 d8 bd
       -0.23043306 -0.21607365 -0.18637735 -0.10562739
0003a0 bd fe 44 3e fa da 41 be 81 f6 3a 3f c5 96 4b be
       0.192378 -0.18931189 0.73032385 -0.19881733
0003b0 76 43 56 3c e9 e5 04 bc 82 b1 f1 3c bd 0b e2 3d
       0.013077607 -0.0081114555 0.029503588 0.11037395
0003c0 d6 65 55 bc d4 87 76 3e 6b 51 5e bd 15 1a 3b be
       -0.013024768 0.24075252 -0.054276865 -0.18271668
0003d0 8e f8 1c 3c 49 75 11 3c 2f 79 f0 bd 96 a0 2f bd
       0.009580744 0.008878061 -0.11741864 -0.042877756
0003e0 37 31 db bd c1 4b 91 be b2 95 5b be 6d ba 96 3b
       -0.10702746 -0.28378108 -0.21443823 0.0045998604
0003f0 6e 2b 58 bc d0 c4 cc bd 95 5c a3 3e 35 9d c4 3e
       -0.013193948 -0.099984765 0.31906572 0.3840119

fc1.bias f4 [64]
000000 8d b5 33 3f f8 16 aa be fb 3d 28 bf c8 23 d7 bd
       0.701989 -0.3322065 -0.65719575 -0.105048716
000010 83 a6 69 3e 50 40 38 3f 2f 48 13 be 66 85 00 be
       0.22817425 0.71973133 -0.14383005 -0.12550887
000020 32 99 f3 be 86 d3 35 bd 33 9d 4e 3e 29 55 d4 be
       -0.47577816 -0.044391178 0.20177154 -0.41471222
000030 fe 9b ba 3e 1a 3f 9e 3e 90 41 16 bf 4e 12 06 bf
       0.36447138 0.30907518 -0.5869379 -0.5237168
000040 7b f1 34 bf dc 53 ec 3e de cd 93 bc 8c 89 ec 3e
       -0.7068097 0.4615773 -0.018042501 0.4619869
000050 d2 3d f5 bc e7 9c c4 3e 32 dc cf be 48 31 c5 bd
       -0.029936705 0.38400957 -0.40597683 -0.0962854
000060 40 a5 e6 bd e6 f1 8b bf cb 47 b4 3e 3b 1e 27 3f
       -0.11261988 -1.0933197 0.35211024 0.65280503
000070 d2 f2 8e be 34 22 fb 3e ca 6d 18 3d bf ec f0 bd
       -0.27919632 0.49049532 0.037214078 -0.11763906
000080 10 78 96 be 64 0e 9a 3e 12 a7 63 3f 68 70 ec 3e
       -0.29388475 0.30089104 0.88926804 0.4617951
000090 0b 7b fa 3e 4a 48 48 be ef a8 a7 3e 96 33 80 be
       0.48922 -0.19558826 0.32746074 -0.25039357
0000a0 ac cc 0b bf cb 63 78 3d 6b 77 3e be fa 5b 24 bf
       -0.5460918 0.060642045 -0.18600242 -0.64202845
0000b0 6c b6 22 bf 81 48 83 be 90 6e 34 3f ed d4 9e be
       -0.63559604 -0.25641254 0.70481205 -0.31021824
0000c0 63 80 cf 3c 54 1d 18 bf 25 f5 2a be 07 58 60 bf
       0.025329774 -0.5941975 -0.16695078 -0.8763432
0000d0 80 67 be 3c b3 88 57 be c7 e2 ac be 6a 4e 8d 3e
       0.023242712 -0.2104824 -0.33766767 0.27598888
0000e0 28 97 28 be 89 4d cb 3e 04 ab 60 bf 1c f2 3e be
       -0.16463912 0.39707592 -0.8776095 -0.18647045
0000f0 29 e9 3f bf 38 b4 02 3f bf f7 cb be b3 7a 66 3f
       -0.7496515 0.5105624 -0.39837453 0.90030974

fc2.weight f4 [64, 9]
000000 6c c6 3c be cb 92 6e 3d 1f f9 84 3e 76 5f 65 3e
       -0.18435067 0.05824546 0.25971314 0.22399697
000010 a9 9d ab be f8 2d ba be 59 0e 51 bd f0 6e 8d bd
       -0.33518723 -0.36363196 -0.051039074 -0.06905925
000020 7a 58 99 3e 30 08 11 be 9d 9d 3a be 4c a2 36 be
       0.29950315 -0.1416328 -0.18224187 -0.17835349
000030 f8 59 0f 3e 03 88 a5 3d 1a 66 cc bd f9 1d 9c be
       0.13999164 0.08082583 -0.09980412 -0.30491617
000040 53 dd 8b bd 6b 2c 28 3e 42 78 16 3d 1e 20 84 3e
       -0.068293236 0.16423194 0.03673578 0.25805753
000050 20 cf da 3b 89 b3 2a 3f 8e bb a8 3e bc e1 26 3e
       0.0066775233 0.666802 0.32955593 0.16297048
000060 96 35 d2 3d 9a c2 98 bd ff d8 f9 3e 88 87 46 3c
       0.10264127 -0.07458992 0.48798367 0.012117274
000070 97 39 98 3d 6f c5 8a be 68 1b 6b bd 01 31 b6 be
       0.074328594 -0.27103755 -0.057399184 -0.35584262
000080 d1 43 5d bd f8 bb 75 3e 8a 0f a4 3d 9e 4c 9f 3e
       -0.054019753 0.23997486 0.08010776 0.31113142
000090 57 98 49 be 43 7e cd 3e 1e 10 53 3f b3 bd 6e 3f
       -0.1968702 0.40135393 0.8244647 0.9325821
0000a0 d3 e6 8f 3e cd 2c 61 be 71 d5 87 3e 55 24 70 bc
       0.28105792 -0.21989746 0.2653003 -0.0146571
0000b0 45 a4 10 bf db a0 3e 3e 28 89 b9 be 0e b7 76 3f
       -0.56500655 0.18616049 -0.36237454 0.9637307
0000c0 ee 24 94 3f 5a 4b 53 be 91 b1 93 be 8b 33 23 3e
       1.157377 -0.20634213 -0.2884641 0.15937631
0000d0 bb 01 14 3c dc 1c 4b bf df 69 d0 bd b0 f8 64 3e
       0.009033616 -0.7934091 -0.10176443 0.22360492
0000e0 d0 53 27 bf 01 27 ad bf 61 8f e9 3c 1d c9 12 be
       -0.6536226 -1.3527528 0.028510751 -0.14334531
0000f0 5c f0 7e 3e 6e f0 f6 be 56 70 8b bd 79 9a 3f 3e
       0.24896377 -0.48230308 -0.06808536 0.1871127
000100 43 fe 74 bd ca f0 da be d2 44 09 bf d5 b1 81 be
       -0.059812795 -0.42761832 -0.53620636 -0.25330988
000110 50 00 c9 be 1b 10 c0 be 34 58 0f 3f 55 a1 3d be
       -0.3925805 -0.37512287 0.5599396 -0.18518575
000120 a2 f0 96 3e ad 94 cf 3e a8 92 d5 3d 9b ab cb 3e
       0.29480463 0.40543118 0.10428363 0.39779362
000130 f0 85 ce 3a 21 70 a5 3e 68 91 c7 3e 63 d5 f5 3e
       0.0015756469 0.3231211 0.38978124 0.48014364
000140 ae fd e4 3e 7f 7f 5e 3d fd 86 50 3d fd 72 1d 3f
       0.44724792 0.05432081 0.050909985 0.61503583
000150 12 ff 8e 3e 51 e5 9c be 4b 57 fd 3d cc 07 26 be
       0.27928978 -0.30643705 0.123701654 -0.16213912
000160 cb 9a cf 3e 62 18 28 be 00 84 68 be a7 70 a9 be
       0.40547785 -0.16415551 -0.22706604 -0.3309376
000170 d1 87 8b bd 72 45 27 be 08 3a 89 be 48 ff 94 bd
       -0.06813014 -0.16335085 -0.26802087 -0.072752535
000180 b6 ac eb 3e d4 ad 9a be ed 0f d4 be 67 3a 31 be
       0.46030205 -0.30210745 -0.414184 -0.17307435
000190 21 fe 96 be f4 fb 8b 3e 11 8c 1e 3f 3a 0e 20 bb
       -0.2949076 0.27340662 0.61932474 -0.0024422542
0001a0 8d 5d fe 3d 6e 9b 1d bd 6d a9 f8 bd 42 7b d7 3e
       0.12420187 -0.038478307 -0.121416904 0.42086226
0001b0 c9 d8 3f be 3f 63 8e be 75 5b 26 3f 94 40 94 3f
       -0.1873504 -0.27810094 0.649833 1.1582208
0001c0 64 23 08 3e 54 b5 26 3d f4 fa f1 be c4 b3 c8 3e
       0.1329475 0.04070027 -0.47261775 0.3919965
0001d0 bb 58 20 bf e2 3b 95 be 95 b5 9e 3e a6 4d ef 3e
       -0.6263539 -0.2914725 0.3099791 0.4673893
0001e0 eb 35 7d be 77 2b 4e be 1d 77 c3 3b d5 0c b3 3e
       -0.247276 -0.20133768 0.005965127 0.34970728
0001f0 70 61 7e be 7d 98 4b 3e c7 63 7c be 7b 6c 85 be
       -0.24841857 0.19882388 -0.24647437 -0.26059327
000200 17 b0 ed be 90 79 36 be b5 57 df bd 49 59 c9 bd
       -0.46423408 -0.1781981 -0.10905401 -0.09831483
000210 a4 52 77 be 3d 51 44 be 6c da 8a bd 24 60 cf 3d
       -0.24152619 -0.19171615 -0.06779942 0.10125759
000220 04 ef 64 3e 5f 39 c4 3c 09 60 d5 3e 18 42 e9 3e
       0.22356802 0.023953138 0.41674832 0.45558238
000230 73 96 95 3e 61 25 23 3d 3b b8 a9 be 81 c4 cc 3e
       0.29216346 0.03983057 -0.3314837 0.3999367
000240 9f c1 57 3b f1 09 9a be 18 16 9b 3e 99 b9 0b 3e
       0.0032921804 -0.3008571 0.30290294 0.13645019
000250 9c e5 97 bc 24 46 95 be a7 34 52 be 59 0f 9d be
       -0.018542103 -0.29155076 -0.20527898 -0.30675772
000260 eb c7 f0 be ba 6c 9b 3e b3 62 cd 3e 57 d5 c1 3e
       -0.47027525 0.3035639 0.40114364 0.37858078
000270 c1 cf af 3e cd 9e 85 3e ed ce e7 3e 3f 4b 09 be
       0.3433819 0.26097718 0.4527506 -0.1340761
000280 18 62 5a be 37 a4 bf be af a3 1f be 63 ca fd 3d
       -0.21326482 -0.37429973 -0.15589784 0.12392118
000290 5f ee 28 bf 6c 63 9b bf ab 2c 5d 3e cb 2d c5 3e
       -0.65988725 -1.2139716 0.2159907 0.385115
0002a0 a0 be 68 be f1 ce bc 3e 66 ed fe be 00 fe 97 bd
       -0.22728968 0.36876634 -0.49790496 -0.074214935
0002b0 79 5b f6 3e dd c5 85 bb f7 a1 b9 3e a2 23 8c 3e
       0.48116663 -0.004082425 0.36256382 0.27370936
0002c0 c4 55 6f 3e 6c ba be 3e 3a fd 0a bf ec 55 9a 3e
       0.2337256 0.37251604 -0.54292643 0.30143678
0002d0 4b 96 99 3d df 3e f5 3e ab 2b b1 3e 4d b3 05 bf
       0.07499369 0.4789953 0.3460363 -0.52226716
0002e0 f1 8e de 3e 28 53 d0 3d 01 4b fc ba 99 6a 78 3e
       0.4346843 0.10172111 -0.0019248427 0.24259414
0002f0 b2 29 50 be 8f be cd bd 5a a2 7b 3e 6f 0e b6 bf
       -0.20328405 -0.10046112 0.24573651 -1.4223155
000300 15 8a 86 bf 16 68 49 3e 94 5f 3f bd ac 28 08 3e
       -1.0510889 0.19668612 -0.04672201 0.13296765
000310 26 ac ca bd 90 75 bb 3e 58 91 b9 3e 6e e3 60 be
       -0.09896116 0.3661313 0.362437 -0.21961758
000320 f5 92 34 bf c4 e5 10 bf 06 c6 d0 3e 53 3e 46 3e
       -0.7053674 -0.56600595 0.4077608 0.19359712
000330 e2 fd 21 be 96 57 07 3f 67 03 eb be d3 a8 9f 3e
       -0.15819505 0.5286802 -0.45901033 0.3118349
000340 bf 74 30 3e 0c 8d c1 3e 60 1d 59 3f a6 3c 33 be
       0.17232035 0.37802923 0.8481045 -0.17503604
000350 8f 10 5d 3e 36 07 0e 3f e6 0b ed be b4 57 f4 3d
       0.21588348 0.55479753 -0.4629814 0.119307905
000360 ef 2f cc bd d3 6e 85 3e 4e 00 5e 3f 2b b2 78 3f
       -0.0997008 0.26061115 0.86719215 0.9714686
000370 49 f6 cc 3e c6 0b d4 3d 4f 75 55 3e c0 6b a0 3e
       0.4003165 0.10353808 0.20845531 0.31332207
000380 41 39 70 3d 42 46 03 bd 95 6b 0d 3e ef bc e9 3e
       0.05864835 -0.032049425 0.1381057 0.45651957
000390 6b cd 48 3f 37 8f 29 3e 99 42 74 bd 08 f0 fd 3e
       0.7843844 0.16558538 -0.059633825 0.49597192
0003a0 fb 61 d9 3c dd 9d c3 be f9 d5 13 3d f4 2e df be
       0.026535979 -0.38206378 0.036092732 -0.4359051
0003b0 ec 87 d6 3e 08 ad 3a bf 37 2d 83 be 81 71 1f be
       0.41900575 -0.72920275 -0.25620434 -0.15570642
0003c0 a8 2d 40 3e 26 a0 f9 be 16 a1 8a be bb 9c df 3e
       0.18767416 -0.48754996 -0.27076024 0.43674263
0003d0 ec 47 8f 3d 0e 09 fe bb 05 91 67 bf 30 0a 83 3e
       0.0699614 -0.0077525442 -0.9045566 0.2559371
0003e0 9a 1e 96 bb 63 29 15 3f 53 4b 87 be 69 30 9e be
       -0.0045812847 0.58266276 -0.26424655 -0.3089631
0003f0 5b 84 96 3e cb f6 a8 3e 8d 3e 25 3f dd 17 55 3f
       0.29397854 0.33000788 0.6454857 0.8323954

fc2.bias f4 [64]
000000 b3 3d 47 3e ac df cc 3e b8 16 39 be cc 4f 93 3e
       0.1945713 0.40014398 -0.18075073 0.28771818
000010 a8 af a0 3e b2 e3 53 3e a3 e3 f3 bd bc 30 b6 3e
       0.31384015 0.20692328 -0.11908653 0.35584056
000020 07 96 09 3e 64 5f 1e ba 1a d9 70 3d 71 5b 0b be
       0.13436137 -0.0006041436 0.058800794 -0.13609101
000030 da fe cd 3e 96 3a 95 bd 6f 16 54 3e b7 28 c8 3d
       0.402335 -0.07286565 0.20711683 0.09773391
000040 6c bc 8c 3c de 5f 08 be 33 e0 01 be b7 a9 47 3d
       0.01717969 -0.1331782 -0.12683181 0.048745837
000050 c6 23 86 bd 6b 4a c1 3e 67 22 8e be aa 26 dc 3e
       -0.06549792 0.3775209 -0.27760622 0.42998248
000060 d4 ee 09 be 1f 60 84 3e ff 83 c0 3d cd 6e 8f 3d
       -0.13470012 0.25854585 0.09400176 0.070035554
000070 c0 33 f5 3c e1 c0 97 bd 34 28 00 3f c0 ce 84 be
       0.029931903 -0.074098356 0.50061345 -0.25938988
000080 b6 59 eb 3e 52 d2 23 3d af de 48 be 32 ae 72 bd
       0.45966882 0.0399955 -0.19616197 -0.059248157
000090 d6 f3 fc bd 07 1f a5 3e 17 ee 0c 3e 51 f9 9c 3e
       -0.123511955 0.32250234 0.13762699 0.30658963
0000a0 3d ab 55 3e 47 9b 85 bd cd b8 87 3e 9a e6 a7 3e
       0.20866103 -0.065237574 0.2650818 0.32793123
0000b0 e8 0c d2 3d bd 9c 3d 3e 29 26 ce 3e 5e ed aa bd
       0.10256368 0.18516822 0.4026349 -0.083460554
0000c0 2e a2 82 bc e9 20 06 bf 31 8c eb 3e f9 89 85 be
       -0.015946474 -0.52393967 0.46005395 -0.26081827
0000d0 09 76 0e 3e ff 50 b8 bd 91 50 b4 bd 3a 44 00 3e
       0.13912214 -0.08999824 -0.08804429 0.12526026
0000e0 40 d1 a5 3e 32 69 09 3e f5 ac 8c bd 46 f8 ce 3e
       0.32386208 0.13419035 -0.068689264 0.40423793
0000f0 1a 76 01 3e 47 8d c0 bc e4 20 ff bd 42 d6 fe bb
       0.12642708 -0.023504866 -0.12457445 -0.0077770064

embedding.weight f4 [2, 64]
000000 0b f1 85 bf 9e 7a a6 bf d2 28 10 40 b6 16 b9 3f
       -1.0464185 -1.300617 2.2524915 1.4460056
000010 1e e2 98 3f bc 23 56 bf a9 a9 b1 3f c9 a7 d8 bd
       1.1944005 -0.83648276 1.3879901 -0.105788775
000020 6a 6f ca be 4e 3f 2e c0 cc 4f 86 be 52 d3 0e 3f
       -0.39538127 -2.7226138 -0.26232755 0.557912
000030 ad 23 37 3f 3c 55 96 3f a0 64 1c 40 19 4e a8 bf
       0.7153881 1.1744761 2.4436417 -1.3148834
000040 de 43 73 bf 50 1b 3f bf bc e3 a9 3f ac 14 3b bf
       -0.9502543 -0.7465105 1.3272624 -0.7307842
000050 85 d7 a9 bf df 78 1b 3f 44 14 b0 3e 4b e6 45 bf
       -1.3268896 0.6073131 0.3439046 -0.77304524
000060 c3 c7 c4 3f 72 b4 a4 3f a5 a5 36 bf db 40 cf be
       1.5373462 1.2867568 -0.71346503 -0.40479168
000070 08 af 6d be 5b a6 94 3f 41 7d fc 3d 64 19 0a 3f
       -0.232113 1.1613268 0.12328578 0.53944993
000080 9d 40 3f be be 97 8e bf 0e 82 fb 3f 30 26 77 bf
       -0.18676992 -1.1140058 1.9649065 -0.96542645
000090 6c 3e 09 c0 c4 c9 b0 3f 70 4f ec bf 34 2e 21 3e
       -2.144435 1.3811574 -1.8461742 0.15740281
0000a0 3a b8 e6 bf 98 7a 92 bf a7 3d 4f 3f 20 b3 8a 3e
       -1.8024971 -1.1443663 0.8095345 0.27089787
0000b0 75 c8 ec be 95 bc 8d be 10 50 96 3f 93 8f e9 3e
       -0.46246687 -0.2768294 1.1743183 0.4561735
0000c0 71 c7 03 bf 3f e4 2c 3e a0 85 b8 bf 3f 8e 96 3e
       -0.514762 0.16883944 -1.4415779 0.294054
0000d0 1c 04 fb bf e4 1d 9f bf c3 65 99 3f 8c 25 80 3e
       -1.9610629 -1.2430997 1.198418 0.25028646
0000e0 02 3c 01 3f 97 1d a1 bf ae d1 4c bf c1 3c ab bc
       0.5048219 -1.2587155 -0.80007446 -0.020902993
0000f0 b0 c2 c4 be 19 b0 18 c0 4d d9 07 c0 b2 aa cb 3f
       -0.38429785 -2.3857481 -2.122638 1.5911467
000100 07 f7 e4 be aa 5a 90 3f 88 eb 77 bf 1f 19 c7 bf
       -0.44719717 1.1277668 -0.9684377 -1.5554541
000110 b1 dc f0 be ca 97 1b bf 18 9b 75 3f 4d 35 73 bf
       -0.47043374 -0.60778487 0.9593978 -0.95003206
000120 65 ec 26 be 96 30 78 3f bf 41 18 c0 6a 95 e4 bf
       -0.16301115 0.96949136 -2.3790128 -1.7858098
000130 c3 a8 3c 3f c0 d7 b7 3f f8 0f ca bd d7 69 ee be
       0.7369501 1.4362717 -0.09866327 -0.46565124
000140 46 a1 21 3e 75 63 c8 be 11 0e 33 3f 8e 06 c6 bf
       0.15784177 -0.3913838 0.6994334 -1.547075
000150 90 e3 d2 be 48 9b 2b bf 00 31 2c 3f a7 d4 9b 3f
       -0.4118924 -0.67033815 0.6726227 1.2174271
000160 03 39 a4 bc 72 b8 d7 3f 24 7a a0 be dd 79 7c be
       -0.020046717 1.6853163 -0.31343186 -0.24655862
000170 e6 af 25 be a8 dd f3 3f 5d e4 f2 3f ca 43 88 3e
       -0.16180381 1.9052019 1.8975941 0.2661422
000180 59 42 32 3e 4d a0 ed bf 45 6b 55 3f 7d 81 b2 3e
       0.17408122 -1.8564545 0.83366805 0.34864417
000190 36 17 6d 3e 09 c2 b4 3e a1 c9 a5 be 04 38 04 3f
       0.23153386 0.35304287 -0.32380393 0.51647973
0001a0 0e 18 fc be e4 99 56 3f a4 37 b4 3f 08 c2 82 3f
       -0.49237102 0.8382857 1.407948 1.0215464
0001b0 46 ac c2 3f e7 90 04 3f d1 00 a1 3f 7f 8b 5f 3f
       1.5208824 0.51783603 1.2578374 0.8732223
0001c0 7c fa d2 bf 31 eb 03 bf 4e fe 10 40 7c e1 13 c0
       -1.6482692 -0.5153075 2.2655215 -2.3106375
0001d0 fb a9 ef bf d6 a1 f4 3f 83 e8 ab be c1 c0 ea 3e
       -1.8723749 1.9111888 -0.3357583 0.45850185
0001e0 eb 58 69 3f 91 04 50 3f 63 a1 39 bf b0 07 98 be
       0.91151303 0.8125697 -0.7251188 -0.29693365
0001f0 8e c8 a2 bf 65 45 90 bf 98 20 de 3f d9 83 64 3e
       -1.2717454 -1.1271178 1.7353697 0.22315921

adaLN_modulation.1.weight f4 [128, 64]
000000 aa 50 ee 3d ac 62 1e 3e 20 a0 8a bd f0 40 12 bd
       0.11636479 0.15467328 -0.06768823 -0.03570646
000010 b3 48 b0 bd aa 42 51 3e e9 ab 68 3d f2 25 02 3d
       -0.08607616 0.20435587 0.05680457 0.03177447
000020 0f be 80 3d 8e 96 94 bd 9e d2 c9 3d d7 5d b4 3c
       0.06286251 -0.072552785 0.09854625 0.022017403
000030 79 ec 9a bd 6e f3 51 3d 96 c4 12 be 72 a9 25 3e
       -0.07564635 0.051257543 -0.14332804 0.1617792
000040 9d ee 24 3d 09 df bc 3b 5a 8b 01 3e ca 0f 80 3d
       0.04026662 0.0057638926 0.12650815 0.062530115
000050 ed 31 99 3d 56 33 cc bc 1b 89 e8 bc 7f 65 a2 3d
       0.07480226 -0.024926823 -0.02838569 0.07929515
000060 66 a5 ea bd 37 96 a4 bc 8a a1 9e 3d 9a d0 18 3e
       -0.114573285 -0.02009116 0.07745655 0.14923325
000070 64 44 d2 3d 00 bd 0d 3c 06 26 b8 3d 12 78 56 3e
       0.10266951 0.008651018 0.089916274 0.2094424
000080 6a 81 f3 bd 4b dc 6e 3d 74 f4 6a bb 77 05 a7 3c
       -0.11889918 0.058315556 -0.0035851272 0.020388348
000090 67 e3 dc 3d 65 9b 1d bd 62 c5 38 3d 87 16 83 bd
       0.10785561 -0.038478274 0.045110114 -0.06400781
0000a0 c4 15 8b bc b4 36 0a bd 28 55 f7 3d ec 57 93 3d
       -0.016978152 -0.033743575 0.12076789 0.07194504
0000b0 a4 64 9b 3d 57 19 43 3c 8d 78 56 bb 7a f6 5f bd
       0.07587555 0.011907897 -0.0032725662 -0.054678418
0000c0 68 6e f7 bb bf 07 a6 3d b2 6a 73 bc 43 47 8d 3d
       -0.0075510032 0.08106946 -0.014856981 0.06898358
0000d0 14 34 9b bd 2f cd 71 3d be 37 1a bb 16 27 74 3c
       -0.075782925 0.05903357 -0.002353176 0.014901897
0000e0 b1 cb 0b 3d 16 8c 9e 3d f2 04 70 3d bb ba 4e be
       0.034129802 0.07741563 0.058598466 -0.2018842
0000f0 fc f4 67 bc 21 76 dc 3b f8 28 c0 bd 17 93 bb 3c
       -0.01415753 0.0067279493 -0.09382814 0.022897286
000100 a5 c1 71 3d 6c 5e 90 3d 78 70 92 bc a1 62 18 be
       0.059022564 0.070492595 -0.017875895 -0.14881374
000110 8e 2c f1 bc d5 e7 c5 3d b4 6c f3 bd e9 bd 47 3e
       -0.02944019 0.09663359 -0.11885968 0.19506039
000120 e6 79 ff 3d bc d9 ba bd 94 e0 e7 bd a3 ab 82 bd
       0.12474422 -0.09123561 -0.11322132 -0.06380393
000130 a5 14 1b 3e f0 b8 0e be 15 b3 fb bd 40 a9 06 3e
       0.15144594 -0.13937736 -0.122900166 0.13150501
000140 5c 47 fb 3c 0e 76 6a 3d a4 b7 d6 3a d0 f9 37 3e
       0.030673675 0.057241492 0.0016381633 0.1796639
000150 76 9d 7c bd 6a d9 1b be 92 b9 34 3c c4 9b 9e bd
       -0.061673604 -0.15219656 0.011030572 -0.07744554
000160 c2 6c b1 3d 79 16 1f bd 8a 3c 66 be fc c8 99 3d
       0.08663322 -0.03883979 -0.22484031 0.07509038
000170 5b 04 a4 3d 80 51 ad bc f7 4b 38 3d 6c 72 d2 3d
       0.08008643 -0.021157026 0.04499432 0.102757305
000180 28 c1 aa 3d fc 8c 8e bc fa 88 8b bd ae 8f 8e bd
       0.08337623 -0.017401211 -0.068132356 -0.069609985
000190 55 e0 ee bd d7 8c 68 3d 22 2b b2 3d 61 bf 91 bd
       -0.11663882 0.05677494 0.08699633 -0.07116581
0001a0 a5 0f 38 be c3 21 6d bc b2 0c 81 3d 72 73 03 be
       -0.17974718 -0.014473381 0.063012496 -0.12837008
0001b0 0f 25 62 3a bd ac b9 bb 78 07 b2 bb ec f6 a2 3d
       0.0008626738 -0.005666344 -0.0054330193 0.07957253
0001c0 bf bb b5 bd c7 16 f0 3d 18 37 ba bd b0 18 9f 3b
       -0.088737 0.117230944 -0.090925395 0.004855238
0001d0 eb 00 c4 bb ab 14 40 be ba 1c b0 bd dc c3 06 3e
       -0.0059815547 -0.18757884 -0.08599229 0.13160652
0001e0 20 f5 a7 bd f4 59 85 bd 7b f4 7b bb 4f 75 16 3e
       -0.08201051 -0.06511298 -0.0038445282 0.14693187
0001f0 c4 78 d0 bb 8b 48 cd 3b 26 6a 41 bc a9 f9 c6 bc
       -0.0063620526 0.0062647513 -0.011805093 -0.02428897
000200 ec 51 43 bd 77 98 93 3c 86 e3 36 3d 13 f0 77 3c
       -0.04768555 0.018017037 0.044650577 0.015132922
000210 b1 d2 be bd 73 7e 35 3b 65 e1 45 3e 85 30 07 3c
       -0.0931753 0.0027693778 0.19324262 0.008251314
000220 b9 98 46 3b c3 80 90 bd 96 dc 6a bd 57 9f 04 be
       0.0030303432 -0.07055809 -0.057339273 -0.12951408
000230 b5 ca db bd 28 d3 cb 3d d2 ca 1c 3e 3d e0 b7 3d
       -0.10732023 0.09952384 0.15311745 0.08978317
000240 e2 82 7b 3d 4e bb 06 3d 36 fa be bd c8 ff e6 3d
       0.061404116 0.03289347 -0.09325068 0.11279255
000250 de a0 d0 bd 33 13 0d 3e 82 5e 94 bc 44 4e 54 3d
       -0.10186933 0.13776855 -0.018111471 0.051832452
000260 25 fb a1 3c 08 4f 0e bc 99 f8 8c 3d 17 4b 46 bd
       0.019773075 -0.008685835 0.06883354 -0.048411455
000270 67 82 1c be b5 6e 00 be 96 c8 93 bd 32 fe b6 3d
       -0.1528412 -0.12542231 -0.07215993 0.08935203
000280 40 6b 7f bd b8 4f de 3d 46 dd 03 be 52 2e 67 bd
       -0.06235814 0.10855049 -0.12877378 -0.05644066
000290 93 34 6a 3c e9 17 20 be 5e 6a 32 3d 4f 7f 4d bd
       0.014294761 -0.15634121 0.04355847 -0.05017024
0002a0 b0 f0 03 be b3 a8 02 3d ba fd 8c bd 3b 17 27 3e
       -0.12884784 0.031899165 -0.06884332 0.16317455
0002b0 31 56 07 be 5b f8 c4 bd ac c2 fa bc 47 1d 81 bd
       -0.13216473 -0.096176825 -0.030610405 -0.06304412
0002c0 cc 66 04 bd e0 a3 a7 3c f5 0a e1 bd 84 cf 75 3d
       -0.032324597 0.020463884 -0.10988418 0.060012355
0002d0 33 a9 4b bd 92 11 a2 3d 8e df dd bd 7c 2c e3 3c
       -0.049721908 0.079135075 -0.10833655 0.027731173
0002e0 da 1a dd bc 1a 5e 38 bd 49 df a9 bd 66 ad ca bd
       -0.026990343 -0.045011617 -0.082945414 -0.098963544
0002f0 09 c7 0c be a7 7b c8 3d d7 62 c1 3d 4e 13 f6 bc
       -0.13747801 0.0978921 0.0944268 -0.030038502
000300 a1 44 6c 3d 34 58 c9 bd 43 54 18 bd bc c7 19 bd
       0.057682637 -0.098312765 -0.037189733 -0.037543997
000310 1c ca ec bd a9 08 75 3d 59 9c bd bc a3 e8 e0 bc
       -0.11561987 0.059822712 -0.023145841 -0.02745468
000320 46 dc 29 bd 4b 18 2b 3c 31 f6 56 3d 83 21 84 3d
       -0.041469835 0.010442804 0.05248088 0.06451704
000330 82 e1 17 be 01 81 2e 3d ee 07 29 3d 4f 02 be bd
       -0.14832118 0.042603496 0.041267328 -0.09277784
000340 50 1c 94 bb 2d 7f 4d 3c d0 c6 5a bd 6e eb 2c be
       -0.0045199767 0.012542528 -0.05341226 -0.16886684
000350 72 5b aa 3c dd a3 f6 bc 68 6c dd 3d de 26 ed 3d
       0.020795558 -0.030107433 0.108116925 0.11579679
000360 e3 bb 22 3d 22 6c d9 bd fd eb be 3d 09 02 ab 3d
       0.039729964 -0.10616328 0.09322355 0.083499976
000370 74 42 4c 3d a0 47 8f bd 60 b3 ad 3c 9c 85 2b 3e
       0.049868062 -0.06996083 0.021203697 0.16750187
000380 7f c8 05 be 2c 9e 00 3e 36 ee a6 3a 4c 18 e2 bd
       -0.13064764 0.12560338 0.0012735787 -0.110397905
000390 35 b8 99 3d 4c b0 09 3d 9a 7e 1e bd 45 31 ce bd
       0.07505838 0.033615395 -0.038694955 -0.10067991
0003a0 71 1b 80 3d d5 83 b3 bb 5d 97 0c be f4 41 c0 bd
       0.06255234 -0.005478362 -0.13729616 -0.093875796
0003b0 4e 1c 05 be 19 d7 e4 bd 75 ec 40 bd cc 97 4d bd
       -0.12999079 -0.11173839 -0.047100503 -0.050193593
0003c0 4e 58 8c bc 79 cc ab bd e1 78 b5 3d 98 64 1c bd
       -0.01713195 -0.083886094 0.088609464 -0.03818187
0003d0 9d 86 7e bd 8e 7f 72 3c e4 5a ee 3c ac 26 ba 3d
       -0.062140096 0.014800919 0.029096074 0.09089407
0003e0 d2 20 24 3d de 38 71 3d 2d 98 73 bd d1 c8 19 be
       0.040070362 0.058892123 -0.059471298 -0.15018012
0003f0 ea 66 29 3e ae ec 04 3e e6 cf 2a bd b0 d3 f8 bd
       0.16543165 0.12980911 -0.041702174 -0.12149751

adaLN_modulation.1.bias f4 [128]
000000 9c d4 7a bd 5a 92 60 3d 2f 8c e2 bc e2 75 bf bb
       -0.061237916 0.05482707 -0.027654735 -0.00584291
000010 fd d4 f0 bd fa 1c be bd c3 f8 3d bd de 81 8a bc
       -0.11759374 -0.092828706 -0.046379816 -0.016907629
000020 5b c9 b9 bd 9f e2 73 3c 47 77 06 3e cd 7f fc 3d
       -0.09071609 0.014885574 0.13131438 0.123290636
000030 02 5a 1c 3e f5 fd 29 bd 4b 79 4e 3a 86 0f 4b be
       0.1526871 -0.041501958 0.00078763504 -0.1983014
000040 e8 aa 9d 3d d7 6f 16 bc 09 d4 3b be a9 83 23 3d
       0.076986134 -0.009181938 -0.18342604 0.039920483
000050 29 57 c4 3c c9 eb ee 3c 09 05 68 bd 7e f3 a1 3c
       0.023967342 0.029165165 -0.056645427 0.019769426
000060 a6 4b 01 be 55 af 29 be b1 50 e5 3d f5 af d1 bd
       -0.12626514 -0.1657079 0.11197031 -0.10238639
000070 ae 88 85 3d 2b 35 cb bd 6a e2 06 3e 7c 21 51 3c
       0.0652021 -0.0992225 0.13172308 0.012764331
000080 f2 d8 16 be db 94 7d bd c0 f4 24 bd 5a b4 6b 3d
       -0.14731196 -0.061909538 -0.040272474 0.057545044
000090 b5 74 d2 bc d5 c6 8f 3c 3a b8 2d 3d 60 12 03 3d
       -0.025690416 0.017550865 0.04241202 0.031999946
0000a0 d0 ad e3 3d 34 7c 4a 3d a3 19 00 3e a5 d3 d8 bd
       0.111171365 0.049434856 0.1250978 -0.10587243
0000b0 e6 c0 05 bd e7 a2 22 3c 33 54 02 3e c2 b9 aa 3d
       -0.032654665 0.009926534 0.12727432 0.08336212
0000c0 79 81 15 3e 6a 9b a8 bd 82 39 cf bd ed 61 a5 bb
       0.14600171 -0.08232768 -0.101183906 -0.005047074
0000d0 3d 4a 53 3d df 89 bc bd 57 f6 c8 3d 84 7f 16 bd
       0.05158447 -0.09205984 0.098126106 -0.036742702
0000e0 9b d8 ad 3c 62 41 0d 3a b1 3b 91 3c ef 72 33 3d
       0.02122145 0.0005388466 0.017728658 0.04381078
0000f0 fa 03 9f bd 19 70 9f bc ee f9 a5 3c f3 98 14 3d
       -0.0776443 -0.019462632 0.020260777 0.036278676
000100 f8 69 14 3e a3 71 2a 3e a7 40 4f bb 85 16 d7 3d
       0.14493549 0.16644911 -0.003162423 0.10502342
000110 eb f5 26 bd 70 68 dc 3b c5 7c 8c 3e 7f 0b 2c 3d
       -0.04076187 0.006726317 0.27438942 0.04200315
000120 da 05 50 bd 08 2c aa bd 49 88 e4 3d 97 ba 96 bd
       -0.05078683 -0.083091795 0.11158807 -0.07359808
000130 a2 ad 03 3d 16 bc 29 3e c0 a5 86 bc c4 86 d6 3d
       0.03214801 0.16575655 -0.016436458 0.10474923
000140 e4 a4 ba 3e f4 dd 05 3e 01 38 70 3d f7 11 25 3e
       0.36453927 0.1307295 0.05864716 0.16120134
000150 fc 87 aa bb 28 a7 f5 3d 51 ff 04 bd 9c 36 d3 bb
       -0.005204199 0.11994773 -0.03247005 -0.006445719
000160 a8 90 05 be b2 2e e4 bc 5b 8d 5d 3e d9 e9 ae 3d
       -0.13043463 -0.027854297 0.21635954 0.08540697
000170 f1 6b 10 be 04 4c f3 bc 70 e8 c5 bd 6c 67 f3 bc
       -0.14103676 -0.029699333 -0.096634746 -0.029712401
000180 27 a3 86 bd d9 23 36 3e 0e 24 7b 3e 93 09 09 3d
       -0.065740876 0.17787112 0.24525473 0.033456396
000190 a8 6b 83 3c 57 14 c6 3b 71 74 73 3d 33 7d 2b 3d
       0.016042545 0.006044905 0.05943722 0.041867446
0001a0 f2 56 17 3e 45 00 eb 3d 92 c4 8c bc 61 d6 ef bd
       0.14779261 0.11474661 -0.017183576 -0.117108114
0001b0 19 25 12 3e 6f e1 cd bd 5e 52 21 3e 85 6c 2c bd
       0.14271964 -0.10052764 0.15754077 -0.04209568
0001c0 82 8b f6 3b 4d 9e ef 3c ed 9a 43 be 70 66 0c 3e
       0.007523955 0.029250288 -0.19102068 0.13710952
0001d0 d2 62 0e 3d 2c 84 40 bb 24 79 cb 3d 91 a9 5f 3d
       0.03476221 -0.0029375656 0.09935215 0.05460507
0001e0 5e e5 d4 3d 5b 92 40 3e 3a 4c 26 3e b5 d3 99 bd
       0.10395311 0.1880583 0.16240016 -0.07511083
0001f0 7d 5b 36 3e c2 45 1d 3d 1b 25 78 bd cf 0a ae 3e
       0.17808338 0.038396604 -0.06058226 0.3399262

advantage.0.weight f4 [256, 64]
000000 c7 54 73 3c 41 c5 1a be 4c 06 41 3e 9a 08 75 3d
       0.014851755 -0.15114309 0.18850058 0.059822656
000010 41 18 21 3e 72 bf 72 be b3 4e 3c be 35 a0 a0 bc
       0.15731908 -0.23705843 -0.18389396 -0.019607643
000020 b0 4e 37 3e 01 e5 a3 3d cb 59 8f 3d 60 e9 14 be
       0.1790111 0.080026634 0.069995485 -0.1454215
000030 13 d0 50 bd 69 de d5 bd ec 67 e4 bd 47 8f 99 bc
       -0.050979685 -0.10442812 -0.11152634 -0.018745078
000040 79 9d b3 bb 2a c0 da 3d c3 d0 9d 3d 8c f5 23 bd
       -0.0054814187 0.10681184 0.07705834 -0.040029094
000050 87 ac 82 3e 21 f1 2d 3d 18 4d 5e 3d c5 dc 36 3c
       0.25522253 0.042466287 0.05427274 0.011161034
000060 7e 98 0c 3e cd 8d 2a 3e 5a b6 98 bd 4c 8c 54 3c
       0.13730046 0.16655655 -0.07456656 0.0129729025
000070 38 f4 8c be ec 4e 4d 3d 4f b2 85 3d 8c 22 53 bd
       -0.27530074 0.050124094 0.0652815 -0.05154662
000080 50 c7 67 3d f7 21 ad bd aa 49 ff bd 6a 69 aa bd
       0.056586564 -0.08453744 -0.12465222 -0.083208874
000090 25 9f 41 3e 39 13 02 bd 0c 76 42 bd 21 63 80 3d
       0.18908365 -0.031756613 -0.04747586 0.06268907
0000a0 ba 33 1b 3e be d9 a0 3d 99 e3 4f 3e 78 26 a1 bd
       0.15156451 0.07854031 0.20301665 -0.078686655
0000b0 18 93 3d bc 6e aa bf bd ee 39 96 bd 71 94 48 be
       -0.011570714 -0.09358679 -0.07335268 -0.19587876
0000c0 fa 7c 04 3e 92 0a 4c 3b 41 55 80 3d 6b 83 c5 bd
       0.129383 0.003113423 0.06266261 -0.096442066
0000d0 56 e3 e9 bc a6 f7 60 3e 36 f5 50 3c 85 73 83 be
       -0.028550785 0.2196947 0.012753775 -0.25674072
0000e0 46 e3 c9 bd ac 4d c0 3e a4 d4 b5 3d cb 63 80 be
       -0.09857802 0.3755926 0.088784486 -0.25076136
0000f0 c6 15 1f 3d 08 ac 83 bc 9d de 99 bd 4c a4 cd bc
       0.038839124 -0.016073242 -0.07513163 -0.025102757
000100 71 3a bc bd 52 50 9b 3d a5 fa 9c bd b0 94 b5 bc
       -0.09190834 0.07583679 -0.07664994 -0.022165626
000110 65 c9 c7 bd 95 82 50 3d db a2 9e bd ce f8 4a be
       -0.0975521 0.050905783 -0.07745906 -0.19821474
000120 4d 72 87 3d f7 06 aa bd 7e 3a 15 3e 29 55 a0 3d
       0.06613598 -0.0830211 0.14573094 0.07828743
000130 cb b6 e7 bc 18 b8 02 be 01 ca 14 be 4b ee a2 bc
       -0.028285405 -0.12765539 -0.14530183 -0.019889018
000140 09 62 95 3d 4d 55 4c 3c ef 59 0d 3e 16 45 1e 3e
       0.07294089 0.012471509 0.13803838 0.15456042
000150 31 4f 34 3d 92 91 54 be 26 fd 01 3e b7 4e fd bd
       0.044020835 -0.20758656 0.12694225 -0.12368529
000160 91 f3 75 3d 5a 36 d1 3d 4a 9d 14 be 49 f7 ff bd
       0.060046736 0.10215445 -0.14513126 -0.12498338
000170 4b 68 cc bb 4a 5c 12 be dc 42 44 bd 99 87 63 3d
       -0.0062380186 -0.14293018 -0.047915325 0.055549238
000180 62 06 76 3c 03 78 5e be 89 17 e2 bc 68 3b 0b be
       0.01501617 -0.21725468 -0.027599113 -0.1359688
000190 c3 27 15 3e f0 89 a5 3d a8 21 c5 3c e0 6a 87 bd
       0.14565949 0.0808295 0.0240639 -0.06612182
0001a0 b2 c6 04 bd b7 2a 5e bd 6b 0b 2f be 79 07 b7 bd
       -0.032416053 -0.054239955 -0.170942 -0.08936972
0001b0 5f 51 a6 3d 27 e8 3d 3d 8a 64 17 be 6a 98 25 bd
       0.08120989 0.046363976 -0.14784446 -0.040428557
0001c0 ba 2f aa bd f2 47 2c 3e 22 13 ad bd 4d bc a0 3d
       -0.08309884 0.1682432 -0.08450915 0.078484155
0001d0 f9 d0 bc bc 49 ed 92 3d 19 7b 45 bd 16 97 ba bd
       -0.023048865 0.07174165 -0.0482131 -0.091108486
0001e0 95 db 1d 3d 15 75 da 3d 5b d5 fb 3d c1 3b 25 be
       0.038539488 0.10666863 0.12296554 -0.16136076
0001f0 de 86 9c bd b4 d8 5f 3c a5 91 a1 bd 8b c5 7d be
       -0.076429114 0.013662506 -0.078891076 -0.24782388
000200 2b 9b 3d bc ad 71 9e 3c 22 7f 89 3d c4 09 0b be
       -0.011572639 0.019341314 0.06713702 -0.13577944
000210 5f 84 33 3d aa 71 9c 3d fb 68 1b bd 7b 9d 4d 3e
       0.04382741 0.07638867 -0.037941914 0.20079605
000220 6d cf a8 bd 5a a4 4b be 2a 97 4a 3e b7 0d c5 bd
       -0.08242688 -0.19886914 0.19784227 -0.096217565
000230 cb 6f 2e be e3 2d 37 be 23 94 87 bd 0b 0e 02 3e
       -0.17034833 -0.17888598 -0.06620052 0.1270067
000240 db 24 92 be 02 7b c1 3d 7b cc cc 3d d0 78 c1 bd
       -0.28543743 0.0944729 0.09999939 -0.09446871
000250 ed 52 9d 3d 84 33 30 bd 96 e6 87 3d 8d 60 16 bd
       0.076818325 -0.04301788 0.06635778 -0.03671317
000260 69 1b 96 bd d9 00 ba 3d c8 6c 32 be dc 76 8b 3c
       -0.07329447 0.09082193 -0.17424309 0.01702445
000270 7e b5 0f 3e 70 e7 c8 3d 7e da 83 bc de b9 bc 3c
       0.14034078 0.09809768 -0.016095396 0.023037847
000280 15 61 b9 3b 39 57 a3 3d 9c 53 3f bc 7d bd c3 bc
       0.005657325 0.07975621 -0.011677649 -0.023894066
000290 89 3a 43 bc c2 c5 0a be fd fc ac 3c 7d ef 08 3d
       -0.011915811 -0.13552001 0.021116728 0.03343152
0002a0 58 13 5d bd 3c 02 9c bd e3 46 0c be 7f 13 02 be
       -0.053973526 -0.07617614 -0.13698916 -0.1270275
0002b0 bb d9 0e bc 50 3b 71 3d 0f 74 fc bd ad 57 c5 3d
       -0.008718903 0.058894455 -0.12326824 0.096358635
0002c0 6e 78 43 3d 6b 07 41 bd a5 b2 7e be b4 02 d3 3c
       0.047722273 -0.047126215 -0.24872835 0.025758125
0002d0 a2 2a 2f 3d 0d f9 91 bc 8e 2d 45 3d d8 7a d8 3d
       0.042765267 -0.017818952 0.048139147 0.105703056
0002e0 2f 83 ca 3d 52 61 91 bd bd 1c fb ba f5 d0 5b 3d
       0.098883025 -0.070986405 -0.0019158345 0.053666074
0002f0 94 0c 00 3e 2c f5 1a be 99 96 17 be e6 92 16 bd
       0.12504798 -0.15132588 -0.14803542 -0.036761187
000300 f8 eb 3b bd a5 67 ec 3c 0f da 72 bc 17 00 18 3e
       -0.045879334 0.028858015 -0.014822497 0.14843784
000310 75 56 64 3e 44 75 de 3c f1 b7 b8 3b 39 4d 6a 3e
       0.22298606 0.027155526 0.005637162 0.2288102
000320 36 a3 cb 3d 2b d7 85 bd 60 3e a9 3d d0 24 a7 bc
       0.099432394 -0.06535181 0.0826385 -0.020403296
000330 02 65 c3 bd 5e c8 9c bd 76 0b 10 be 27 b4 4e 3c
       -0.0954075 -0.076554045 -0.14066872 0.012616194
000340 7d b2 22 bd b5 ea f2 bd d3 68 f1 3c a5 9f 02 bd
       -0.039721 -0.11861173 0.02946893 -0.03189053
000350 2c d0 d2 bd 6e c6 8c 3d d2 73 59 3d 60 a0 fb bd
       -0.10293612 0.06873785 0.05308897 -0.122864485
000360 08 50 33 3e 72 20 e0 3d b1 78 4d be ff 35 80 be
       0.17510998 0.109436885 -0.20065571 -0.25041196
000370 9c 72 a7 bd 1d dd 40 3e a2 04 01 be eb 84 74 3d
       -0.08176157 0.18834348 -0.12599424 0.059697073
000380 43 a0 46 bd 3c 3b f1 bd 4e ed ad bc 94 12 1d be
       -0.04849268 -0.11778876 -0.02123132 -0.15339118
000390 bb 91 7d 3d a1 94 65 bc 3e 32 b3 3c de d4 c4 3d
       0.061906558 -0.014012487 0.021874543 0.09610914
0003a0 e1 d4 23 bd 99 e6 91 3d 1e 8c 98 39 03 9d f4 bd
       -0.03999794 0.07124061 0.00029096095 -0.1194401
0003b0 64 5b fc 3d fe 32 3a be 71 1b 37 3d 2b b7 b7 3d
       0.12322119 -0.18183514 0.044703905 0.089704834
0003c0 75 6d ee 3d db e4 7d bd 60 85 33 be f6 e9 01 be
       0.11641971 -0.06198583 -0.17531347 -0.12686905
0003d0 64 15 17 be e6 6d 22 3e 08 9b 19 3d 4b 53 5b be
       -0.14754254 0.15862235 0.037501365 -0.21418492
0003e0 31 8f bd bd ea 27 8d bd 8f db 87 bd c6 5d 99 bd
       -0.09255827 -0.06892379 -0.06633674 -0.07488589
0003f0 e4 ff c4 bc ac 9e 88 bd f8 f4 b9 3d 60 7b 41 3d
       -0.0240478 -0.06670889 0.09079927 0.0472368

advantage.0.bias f4 [256]
000000 60 35 19 3d 17 ba a7 3d 68 09 0a 3d 2d 96 45 bb
       0.037404418 0.08189791 0.033700377 -0.0030149326
000010 fb fc 16 3c fd 8a 2c be f5 08 42 be 4d fc cd bd
       0.009215589 -0.16849895 -0.1894873 -0.10057888
000020 bb 30 11 bd f7 e4 4e bd a4 1c 37 3d 40 ae a5 bd
       -0.035446864 -0.050511327 0.04470505 -0.08089876
000030 69 18 66 bd c3 d4 79 bc 03 d2 b5 3d 8f 27 19 3d
       -0.056175623 -0.01524848 0.08877947 0.03739124
000040 93 61 27 be ea 90 36 3c 17 2b d5 bd c1 0a 37 3d
       -0.16345815 0.011142949 -0.10408609 0.04468799
000050 cb c3 1a be d1 c7 1b 3d 95 6c 74 bd 74 ed e0 3d
       -0.15113752 0.038032357 -0.059673864 0.109827906
000060 98 50 e2 bd 5b f6 92 bc b6 ab 1b bd a3 ea 60 bc
       -0.11050528 -0.017939737 -0.038005553 -0.013727817
000070 57 fa ad 3d 53 66 6c bd ae 34 f4 bc 4a f9 64 3d
       0.08495014 -0.05771477 -0.029810276 0.055901803
000080 31 3d e8 bd 80 50 f7 3c 58 2d cb bd 69 5d ac bd
       -0.11339796 0.030189753 -0.09920758 -0.08416254
000090 35 bd 0d bd 94 23 95 bd 90 d4 d0 bb 5c 48 a6 3d
       -0.03460427 -0.072821766 -0.0063729957 0.0811927
0000a0 a8 1c 15 be e2 09 83 3d b5 9a 95 3d b8 77 b8 bd
       -0.14561713 0.06398369 0.07304899 -0.090072095
0000b0 19 27 0f bd d6 ce ff bd 5b 6a 4b 3c 2a 28 0c be
       -0.034949396 -0.12490623 0.012415494 -0.13687196
0000c0 8a 17 16 3c e0 f3 73 bd 19 f1 ec bd 48 8e 35 3c
       0.009160886 -0.05955875 -0.11569423 0.011081286
0000d0 0f 8c 5a 3d 48 dc a5 3c 8a 54 92 bd ef de 99 bd
       0.053356227 0.02024664 -0.07145031 -0.07513224
0000e0 1b c4 38 3d da f9 91 bd 75 0c be bd 07 84 e0 3b
       0.045108896 -0.071277335 -0.0927972 0.0068516764
0000f0 77 44 1e 3d c0 63 16 be ba 71 91 bd f5 57 b2 bd
       0.038639512 -0.14686489 -0.0710177 -0.08708183
000100 dc da 7d bd 11 de e5 bd 8a 9c d3 3b 85 16 06 be
       -0.0619763 -0.112239964 0.00645787 -0.13094528
000110 3c 97 8b 3d 51 f9 be 3d 68 6e 82 bd 38 e5 13 be
       0.06815955 0.09324897 -0.063687146 -0.14442909
000120 13 7d e7 3b 6f b3 03 3d 22 1f f4 3d e5 75 5d be
       0.0070644706 0.032153543 0.119200006 -0.21627004
000130 51 29 15 3d e9 6d 08 be 1d 21 f7 bd 2b a6 5c be
       0.036416356 -0.13323177 -0.12066863 -0.21547763
000140 29 57 08 be 1e be ca bc 2f 38 0d 3d dc a5 fd bd
       -0.13314499 -0.024748858 0.03447741 -0.12385151
000150 8e 08 e7 bd 0c 50 53 bc 2f 14 be 3c 94 95 f5 3d
       -0.112809286 -0.012897503 0.023202984 0.119914204
000160 81 ea 89 bd ef 54 1b 3d 5e 9a 53 3d 3c 78 82 3c
       -0.06734181 0.037922796 0.051660888 0.015926473
000170 80 1e eb bc ca 61 ad bd 44 92 14 be 87 a3 01 bd
       -0.028701067 -0.084659174 -0.14508921 -0.031650092
000180 49 bd b2 3d ce 49 d4 bc b6 cc 1d be 5b a1 88 bd
       0.087275095 -0.025914099 -0.15410122 -0.06671401
000190 d6 7c 58 bc 08 1a db 3c 0a 3b c7 bc c2 af 89 b9
       -0.013213357 0.026745811 -0.024320144 -0.00026261626
0001a0 51 a0 2c be 4e 40 bf bd fb d8 5d bd 5f fd d6 bd
       -0.16858031 -0.09338437 -0.054162007 -0.104975455
0001b0 b3 55 08 bd 9d 11 e3 bd 98 dc 26 3d 7e 9d 31 bd
       -0.033284854 -0.11087344 0.04073772 -0.043363087
0001c0 5b 6f 79 bc 20 ee 22 bd 8e c0 09 be 14 b9 84 bd
       -0.015224303 -0.039777875 -0.1345236 -0.06480613
0001d0 43 e6 f8 bd e4 14 05 bd a2 21 13 be b0 6d cd bc
       -0.12153294 -0.032490626 -0.14368299 -0.025076717
0001e0 ab fd 27 bd 08 cb 05 3d 77 e3 2d be 22 7b 53 3d
       -0.0410134 0.03266433 -0.16981302 0.0516311
0001f0 2d 40 6c bc 7b f6 fc 3c 84 82 43 3c 60 44 ed 3c
       -0.014419598 0.03087925 0.011932973 0.028963268
000200 15 0a 51 3d 4c 02 38 bd 1c 4a cf bc a4 0c 0b be
       0.051035006 -0.044924065 -0.025303893 -0.13579041
000210 9f ec 87 39 40 dc 8b 3d ad f9 01 bc 01 5b 54 3c
       0.00025925503 0.06829119 -0.0079330625 0.01296115
000220 ea d0 fe 3c 71 ad 18 be ba 61 b2 bc 3b 0d 1a bd
       0.031105477 -0.14909913 -0.021775115 -0.037610274
000230 b6 c2 a1 bd 1d 34 a1 bd 06 97 34 bc 0c 70 cb 3d
       -0.07898466 -0.07871268 -0.011022335 0.099334806
000240 ae 2e 14 bd 82 a3 b7 3d 8a 06 b9 3c 15 f6 a7 3d
       -0.03617733 0.089667335 0.022586126 0.08201233
000250 71 41 a4 bd 33 9e a2 3c 03 17 b6 bd 5e e2 0f be
       -0.080202945 0.019850826 -0.08891108 -0.14051196
000260 1b 2a d7 bc 5e fb 81 3d 4b 95 b8 3d 80 3e 07 be
       -0.026265195 0.063467726 0.090128504 -0.13207436
000270 69 7b dc 3d ea 3a 5a bd c9 d7 90 bc f9 74 e1 3c
       0.10765726 -0.05327884 -0.01768102 0.027521597
000280 ba a3 d6 3d ad 00 c0 3d 3e 83 43 be 98 99 84 3d
       0.10480447 0.09375129 -0.19093034 0.06474608
000290 7c dd ef bd 7b 70 69 3c 00 ff d2 bc b5 a2 0d bd
       -0.11712167 0.014248009 -0.02575636 -0.034578998
0002a0 e4 0f 5e 3d 47 8b 12 3d d9 5b 5d 3d 0d 28 b5 3c
       0.054214373 0.035777356 0.05404267 0.022113824
0002b0 06 95 1e be 75 90 d4 bd a9 33 d7 3d 84 46 3c bd
       -0.15486535 -0.103791155 0.105079 -0.045965686
0002c0 d3 9b 04 be d0 e7 fe 3c c8 ff eb bc 1e 08 7c bd
       -0.12950067 0.031116396 -0.02880849 -0.06153118
0002d0 95 e2 0a be 64 86 27 be 27 9d bc 3c 3e b8 e3 bd
       -0.13562997 -0.1635986 0.023024155 -0.11119126
0002e0 1a 24 f8 bc 83 8a ac bd 6e cb 9a 3d fa 76 1d 3d
       -0.030290652 -0.084248565 0.075583324 0.038443543
0002f0 b7 a1 f0 bd 7f 65 e0 bd da 9e 04 be 8c 44 0f be
       -0.11749595 -0.10956859 -0.12951222 -0.13990992
000300 b5 90 f5 bd e0 b2 c1 bd 2a 03 a6 3d b7 9a 9a 3c
       -0.11990491 -0.09457946 0.08106072 0.018872602
000310 17 9f 0f 3c 7a 2f d5 3c 9e e6 b4 bd c1 8d 0d ba
       0.008765957 0.026023615 -0.08833049 -0.0005399846
000320 f1 d1 13 be 4a b0 82 bd 43 f3 cb 3c 0b 4a 75 3c
       -0.14435555 -0.06381281 0.02489627 0.0149712665
000330 06 56 94 bd 07 86 a2 3d a5 6b 16 bd f9 24 78 bd
       -0.0724297 0.0793572 -0.03672375 -0.060582135
000340 ee 14 be bb 52 42 ca 3b 53 7a 38 bc bf f1 12 bd
       -0.005800835 0.006172457 -0.011259633 -0.03587508
000350 0f b6 26 3d 6a 5d 9b 3d e9 90 a7 bc e4 6b 21 be
       0.04070097 0.07586177 -0.02045484 -0.15763813
000360 09 df d2 bc 1d 74 95 bd 3e c7 bd bd ee 3c ed bd
       -0.025741117 -0.072975375 -0.09266518 -0.11583887
000370 70 14 09 be 62 1a a3 3d 12 36 39 bd 79 c3 54 3d
       -0.13386703 0.079640165 -0.04521758 0.05194423
000380 61 df 0e bd fe 5d 88 3d 20 d5 bc 3c 59 e7 8e 3c
       -0.034881 0.066585526 0.023050845 0.0174443
000390 10 a6 39 3d 4f e7 dd bc f7 5e ad 3d 50 ce e9 bd
       0.045324385 -0.027087836 0.08465379 -0.11416304
0003a0 f5 f1 f7 bc be 0f 93 3c de ec 12 be 42 85 22 be
       -0.030266741 0.017951842 -0.1434817 -0.15871146
0003b0 7e 63 0f be 77 d0 0c 3d 59 e2 05 be 29 ec 6e be
       -0.14002797 0.034378495 -0.13074626 -0.23332275
0003c0 ec 56 f3 bc 49 00 60 3c 23 f0 f0 bd 62 7c e8 bd
       -0.029704534 0.013671943 -0.117645524 -0.11351849
0003d0 96 f5 ca bd bb ae 32 bd 9b ce 34 3d 39 08 59 bd
       -0.09910123 -0.043623667 0.044142347 -0.052986357
0003e0 e4 8f b8 3d 16 ba ed 3c c8 0e 0c be ef 67 88 bd
       0.0901182 0.029019397 -0.13677514 -0.06660449
0003f0 ee a2 94 3d 0d 8c 22 be f1 f6 bc 3c c1 8b a5 3c
       0.07257639 -0.15873738 0.02306697 0.020208241
